trained_models/mnist_trained_16x16/model_001.pth (torch, 411607 bytes, 2 tensors)

logic_layers.0.weights f4 [2560, 16]
000000 39 f0 e6 bf a8 1e 03 c0 65 a0 4e c0 69 77 c9 bf
       -1.804206 -2.048746 -3.2285397 -1.5739566
000010 8c e9 12 c0 86 ba 42 c0 29 03 96 c0 5d 9e e8 bf
       -2.2955046 -3.0426345 -4.6878858 -1.8173329
000020 6d bd d1 40 de a6 71 40 da f0 de 3f eb 34 16 3f
       6.5543733 3.7758098 1.7417252 0.58674496
000030 10 08 8e bf b0 40 bb bf 8f d9 38 c0 58 89 be bf
       -1.109621 -1.4629116 -2.8882787 -1.4885664
000040 8c 32 3c c0 0b aa 2a c0 5d 4a 1d c0 04 e5 94 c0
       -2.9405851 -2.6666286 -2.4576638 -4.652956
000050 36 0e 9a 40 d2 3e 13 40 22 2c 01 41 4f 26 af 3f
       4.8142347 2.3007092 8.073275 1.3683566
000060 4f 12 82 c0 cb 34 5f c0 d7 26 a4 c0 6d a7 87 c0
       -4.064735 -3.4875972 -5.129741 -4.2391877
000070 8f bd e4 3e 00 7f 86 be be 8c c8 3e 0b 7b 56 c0
       0.44675872 -0.26268768 0.39169878 -3.35126
000080 c4 cb e1 bf b0 7d a7 bf 43 04 eb bf d7 50 cb bf
       -1.7640309 -1.3085232 -1.8360676 -1.5884045
000090 a4 28 22 c0 09 9f 7c c0 1b b3 78 c0 bf 57 c8 bf
       -2.5337305 -3.9472067 -3.8859317 -1.5651778
0000a0 42 59 06 3f b0 1f 84 3f ee 05 db 40 1b 57 ac 40
       0.52479947 1.032217 6.844474 5.385633
0000b0 9e f9 b7 c0 3a 76 77 c0 f6 5a 74 c0 20 6f 8c c0
       -5.749221 -3.866591 -3.8180518 -4.388565
0000c0 96 fd 5f c0 db b7 16 c0 ed b7 9c be be e6 bd 40
       -3.4998527 -2.3549716 -0.30609074 5.934417
0000d0 78 5a 74 c0 6f 44 99 c0 2c 9f 80 c0 9f 85 d6 bf
       -3.8180218 -4.7896037 -4.01943 -1.6759528
0000e0 54 5f 0b c0 90 f1 35 bf 8b fe d9 3a c9 23 cf 3f
       -2.1776934 -0.7107172 0.0016631646 1.6182796
0000f0 2a 1b 87 c0 ad b1 82 c0 2d f4 5b c0 cc c4 27 c0
       -4.222066 -4.084189 -3.4367783 -2.6213865
000100 d3 4e 91 c0 63 3d 97 c0 f9 2e 09 c0 14 47 2c c0
       -4.540872 -4.7262435 -2.143492 -2.6918383
000110 96 75 7e c0 e1 5b 76 c0 46 b5 5d c0 f7 44 42 c0
       -3.9759269 -3.8493578 -3.464189 -3.0354593
000120 8f 6a 05 3f a8 ec 54 40 10 65 6e 40 8e 93 01 41
       0.5211572 3.3269444 3.7249184 8.098524
000130 12 6a 73 c0 08 73 7e c0 70 ff 40 c0 3c 18 01 bf
       -3.803349 -3.975771 -3.0155907 -0.50427604
000140 36 a0 b1 bf ca ab 82 c0 16 d2 53 c0 40 d4 5d c0
       -1.3877017 -4.0834703 -3.3096976 -3.4660797
000150 6a be 3b c0 43 80 29 c0 c4 70 24 c0 a2 2e d7 bf
       -2.933497 -2.6484535 -2.5693827 -1.6811106
000160 67 6a 01 41 d4 46 51 40 31 8c 4a bf d1 d9 c2 bf
       8.088477 3.269948 -0.79120165 -1.5222722
000170 ad a7 88 3f da ac 85 be a9 c2 20 c0 bc 2a 46 bf
       1.067617 -0.26108438 -2.511881 -0.7740896
000180 03 c8 85 c0 35 7f 07 c0 47 69 4c c0 e9 5b 21 c0
       -4.1806655 -2.117139 -3.1939256 -2.5212348
000190 06 54 ed bf 84 fd 06 40 43 4b 31 3f 23 5b e5 40
       -1.8541267 2.1092234 0.69255465 7.167375
0001a0 3e 38 65 c0 27 98 65 c0 d4 8e 36 c0 5d cc 15 c0
       -3.5815578 -3.5874116 -2.8524675 -2.3405983
0001b0 f7 2a 9c c0 ed 4a fd bf e0 69 39 bf 41 22 7f bf
       -4.8802447 -1.978849 -0.7242718 -0.9966164
0001c0 d9 30 08 c0 94 7f 04 c0 1f 3d 6b c0 56 1d b7 bf
       -2.1279814 -2.0702868 -3.6756055 -1.4305828
0001d0 5f 3e 0b c0 31 aa 0a 41 0e c7 2d c0 e3 96 21 40
       -2.1756818 8.666551 -2.7152743 2.5248344
0001e0 55 08 9e c0 89 08 f9 bf e1 34 18 c0 a7 c6 1e c0
       -4.938517 -1.945573 -2.3782275 -2.4808748
0001f0 d1 8a 23 c0 33 17 2b c0 33 89 39 c0 a0 cb 15 c0
       -2.5553477 -2.673291 -2.898999 -2.3405533
000200 4b 5d 82 3f b5 e3 1d 3f e3 46 76 bf ad 6a 31 c0
       1.0184721 0.6167558 -0.96201915 -2.772136
000210 bc d4 3e 40 9e 02 88 bf c0 1e 14 41 b3 54 f6 bf
       2.9817343 -1.0625799 9.257507 -1.9244598
000220 0b 97 87 c0 d6 2e 4f c0 b8 9f 3b c0 93 d4 6a c0
       -4.237188 -3.2372336 -2.9316235 -3.6692245
000230 e9 d9 7d c0 dc a1 72 c0 cc 4d 0a c0 ad 11 38 c0
       -3.9664252 -3.791129 -2.1609983 -2.8760788
000240 3a f3 af 3f bd 14 12 40 74 b9 ea 40 b6 10 93 40
       1.3746102 2.2825158 7.3351383 4.59579
000250 4d 9f 50 c0 aa e8 a1 bd d1 dc 87 bf e3 7b eb bf
       -3.259723 -0.07905705 -1.0614263 -1.8397182
000260 63 8e 36 c0 7b 0a 4e c0 68 e6 8e c0 89 cf 27 c0
       -2.8524406 -3.2193897 -4.465626 -2.622042
000270 0e 9e 3e c0 d9 16 8b c0 9d fa 99 c0 f3 66 6f c0
       -2.978397 -4.346539 -4.8118424 -3.7406585
000280 2a e9 b6 bf 74 c6 94 bf 7a ab 99 c0 2a 02 9c 3f
       -1.4289906 -1.1623063 -4.802182 1.218816
000290 93 2f 39 40 bc 98 97 40 0b 9c fd 3f 50 5d 00 41
       2.8935287 4.7373943 1.9813246 8.022781
0002a0 ec f5 8a c0 3e bc 29 c0 ee 01 6e c0 70 8c 58 c0
       -4.3425198 -2.6521144 -3.7188678 -3.3835716
0002b0 f4 0c 34 c0 69 29 4a c0 a7 7d 8e c0 40 db 61 c0
       -2.8132906 -3.1587775 -4.4528384 -3.529007
0002c0 0a 2c 34 c0 80 8b 23 c0 76 37 25 c0 91 84 29 c0
       -2.815188 -2.5553894 -2.58151 -2.6487162
0002d0 e5 9f 76 c0 77 06 2b c0 3e fb 1e c0 34 57 5d c0
       -3.8535092 -2.6722696 -2.4840846 -3.4584475
0002e0 45 bb bf 40 a8 d4 29 40 61 72 a9 40 64 5e 77 3f
       5.99161 2.6536045 5.2952123 0.96628404
0002f0 1a ee 75 c0 6b 2b 23 c0 e6 b4 f1 bf cc f0 53 c0
       -3.8426576 -2.549525 -1.8883331 -3.311572
000300 85 b6 5d c0 3e 7f 46 c0 d6 68 fa bf c7 bb 14 c0
       -3.464265 -3.1015162 -1.9563243 -2.323961
000310 01 d7 71 c0 bb fb b8 bf 96 78 2d c0 28 c3 68 c0
       -3.7787478 -1.4451822 -2.710485 -3.6369114
000320 5e 5b 0d 41 48 56 61 bf 5d f1 61 40 23 b5 91 bf
       8.834806 -0.8802228 3.5303566 -1.1383404
000330 dc 35 09 c0 5e b1 14 c0 db cf a3 bf 5d f4 12 c0
       -2.1439123 -2.3233256 -1.2797807 -2.2961648
000340 da 1c d8 bf 23 95 db bf e9 9f c3 bf 00 7d 65 c0
       -1.6883805 -1.7154888 -1.5283176 -3.5857544
000350 ab 1b 86 c0 53 d2 6b c0 48 e3 1b c0 94 6d 87 c0
       -4.1908774 -3.6847122 -2.4357471 -4.232126
000360 d7 8e b8 3f aa ea 0f bf 02 82 d0 40 7e 28 2a 3e
       1.4418591 -0.56217444 6.51587 0.16617009
000370 cf 6c 11 c0 ff a0 a1 c0 36 89 70 40 51 9c 22 c0
       -2.2722661 -5.050903 3.7583747 -2.5407908
000380 71 75 1a c0 f0 10 21 c0 32 11 61 40 13 db 42 3f
       -2.413418 -2.5166588 3.5166745 0.7611553
000390 61 9e 1d c0 8a b5 a2 c0 70 ba 1c bf 9a c9 0c c0
       -2.4627917 -5.0846605 -0.6122198 -2.1998048
0003a0 31 9a 37 c0 55 b9 2d c0 81 4e d6 40 01 94 bf 3f
       -2.868786 -2.7144368 6.697083 1.4967042
0003b0 00 63 9b c0 1c 50 52 c0 a5 a7 93 bf 63 aa 89 c0
       -4.855835 -3.2861395 -1.1535536 -4.302049
0003c0 a9 d9 0a c0 9b bd 07 c0 0b 56 86 c0 72 aa 25 c0
       -2.169535 -2.1209476 -4.1980033 -2.5885282
0003d0 d9 ec ad c0 38 75 4d c0 cd 6d 84 c0 fc 55 53 c0
       -5.435162 -3.2102795 -4.1384034 -3.302123
0003e0 96 3b bd 3e 92 51 b7 3f 0e 87 2f 40 65 1a ce 40
       0.36959523 1.4321768 2.742618 6.440722
0003f0 8b 4c 44 c0 c5 cb 96 c0 8a 3a 74 c0 23 fa e1 bf
       -3.0671718 -4.712374 -3.816073 -1.7654461

logic_layers.1.weights f4 [2560, 16]
000000 76 01 bb be ba d4 ae bf e1 17 aa 3e d7 f9 5d 3f
       -0.36524552 -1.3658669 0.33221343 0.8670935
000010 bd da 89 c0 5a 72 82 c0 c3 17 e2 bf 82 63 30 c0
       -4.3079515 -4.076459 -1.7663502 -2.7560735
000020 88 eb 31 c0 06 b8 37 c0 f3 c4 93 40 7d 76 e6 40
       -2.7800007 -2.870607 4.6177917 7.201964
000030 f4 8b 1a c0 ce 6f 31 c0 b6 d5 9d bf c9 5c e9 3e
       -2.414792 -2.772449 -1.2330844 0.45578602
000040 68 a1 da bf 17 fc 38 c0 a1 5e bf 3f e8 fb 11 bf
       -1.7080507 -2.8903863 1.4950753 -0.57025003
000050 ce e7 99 c0 bc 05 4a c0 04 52 15 c0 09 e3 09 c0
       -4.8095465 -3.1566 -2.3331308 -2.1544821
000060 aa 17 76 c0 8e 41 8c c0 0b ae d1 40 0b 34 a3 3f
       -3.8451943 -4.3830023 6.5524955 1.2750257
000070 e7 02 77 c0 41 37 22 c0 0d 0b 6f c0 d0 a4 5a c0
       -3.8595521 -2.5346224 -3.7350495 -3.4163094
000080 ba b8 9b bf bc 86 05 bf 87 bb 53 c0 5e f6 29 c0
       -1.2165749 -0.52158713 -3.3083208 -2.655662
000090 29 92 1c c0 56 1a d4 40 3d ab 82 c0 a4 7d 03 be
       -2.446421 6.628215 -4.083403 -0.12840897
0000a0 da 50 48 c0 ff b1 e5 bf cc e5 92 c0 8d b1 18 c0
       -3.1299348 -1.7944945 -4.5905514 -2.3858368
0000b0 60 ce d3 bf a6 31 ef bf ef ae a9 c0 da 7f 5e be
       -1.6547356 -1.8687027 -5.302604 -0.21728459
0000c0 62 52 cf be 94 5e 70 40 6e 0a f6 bf 41 fb c3 40
       -0.4049254 3.7557726 -1.9221933 6.1244206
0000d0 3f 21 16 c0 9a 38 f2 bf ba 04 9c c0 0d dc 99 bf
       -2.3457792 -1.8923523 -4.875577 -1.2020279
0000e0 cc 26 2b c0 ab 6a 7d 40 e7 ea 37 c0 c7 4b 8b 40
       -2.674243 3.9596355 -2.8737123 4.353
0000f0 e8 ad 5c c0 16 84 4e be cf b4 74 c0 23 14 f4 be
       -3.4481144 -0.20167574 -3.8235357 -0.47671613
000100 1d 84 fe bf ae a4 0d bf 37 24 cd bf 11 b5 7a 40
       -1.9884068 -0.55329406 -1.6026677 3.9173014
000110 17 72 57 c0 63 ed 72 c0 bf a4 50 c0 61 54 4c c0
       -3.3663385 -3.795739 -3.2600553 -3.19265
000120 12 b2 00 c0 43 2f d4 3f 00 5a 88 3c b7 ed 08 41
       -2.0108685 1.6576923 0.016644478 8.558036
000130 59 a2 f7 bf 4b fc f9 bf c7 8f bc c0 8c 8d fd bf
       -1.934642 -1.9530119 -5.892551 -1.9808822
000140 6a ce 01 c0 1f e7 4b c0 64 2e 97 bf 41 5f 35 c0
       -2.0282235 -3.1859815 -1.1811032 -2.8339388
000150 1a 39 01 41 c1 66 ef 3f 8e 3a 59 3f e2 d0 0d 3f
       8.076441 1.8703233 0.8485497 0.55396855
000160 21 84 53 c0 60 b6 37 c0 f4 d6 93 c0 a8 29 61 c0
       -3.3049395 -2.8705063 -4.6199894 -3.5181675
000170 e4 14 eb bf 20 52 ca 3e 67 cb f9 bf 81 ce 7f bf
       -1.836575 0.3951578 -1.9515198 -0.99924475
000180 c9 e5 18 c0 7d 42 78 bf b6 e5 b6 40 63 a3 bc 40
       -2.389025 -0.96976453 5.715541 5.8949447
000190 be 0d bb c0 a1 54 2f c0 09 da 82 c0 00 11 45 c0
       -5.8454275 -2.7395403 -4.0891156 -3.0791626
0001a0 b2 5f 92 c0 be 84 08 c0 d7 46 4c 3d 29 53 be bf
       -4.5741816 -2.133102 0.049872246 -1.4869128
0001b0 80 d8 44 c0 1d a2 26 c0 a5 4f 33 c0 c4 c7 b8 bf
       -3.075714 -2.6036446 -2.801736 -1.4435964
0001c0 97 52 11 c0 3b 3b 22 c0 38 c7 ba bf 2b 46 a5 40
       -2.270666 -2.5348651 -1.4592047 5.1648154
0001d0 0e 1b 15 c0 b6 c2 71 c0 73 ea 4c c0 5f 7a a5 40
       -2.3297763 -3.7775092 -3.2018096 5.171188
0001e0 2a f2 17 c0 63 e1 48 c0 d9 3f 94 c0 65 27 37 c0
       -2.3741555 -3.1387565 -4.632794 -2.8617795
0001f0 8c 71 75 c0 90 57 8e c0 3c 53 19 c0 70 a3 3e c0
       -3.8350554 -4.448189 -2.3957052 -2.9787254
000200 74 0e 13 c0 cb ed 85 bf 0d b5 e3 40 16 c1 ca 3f
       -2.2977571 -1.0463194 7.115851 1.5840175
000210 b3 fd f0 bf f3 bf 27 c0 2d bb 74 c0 c6 0d 36 c0
       -1.8827423 -2.6210907 -3.8239243 -2.8445907
000220 5c 58 58 c0 1e e9 54 c0 4b d9 09 c0 58 cc 43 3f
       -3.380393 -3.3267283 -2.1538875 0.7648368
000230 02 b6 87 c0 c5 96 95 c0 33 6e 6f c0 1a 49 df bf
       -4.2409678 -4.6746545 -3.741101 -1.7444184
000240 59 bf a6 bf e5 3a bc 40 5a f7 b9 bf 12 ab 83 3f
       -1.3027145 5.8821893 -1.4528611 1.0286582
000250 b9 dc 2e c0 57 e7 6b 40 4d d5 75 c0 af 81 ca 3d
       -2.7322218 3.6859949 -3.8411438 0.098880164
000260 59 0c 18 c0 99 7b bd bf 61 51 13 c0 d1 37 29 3f
       -2.3757536 -1.4803344 -2.301842 0.66100794
000270 95 04 59 c0 e2 70 f7 bd 8d d3 1f c0 56 41 0c c0
       -3.3909047 -0.120820776 -2.497287 -2.1914878
000280 ca cb c5 bf 80 c8 fb bf cf 5e 62 3d eb c3 8b 3f
       -1.5452816 -1.9670563 0.055266198 1.0919164
000290 7b 59 7a c0 e1 12 71 c0 b4 44 8c c0 c0 0e 6c c0
       -3.9117115 -3.7667773 -4.3833866 -3.6884003
0002a0 1f 3b 59 c0 17 ac ac c0 52 37 e8 40 c6 56 df 3f
       -3.3942335 -5.396007 7.256753 1.7448356
0002b0 fc c9 21 c0 d6 90 6d c0 00 88 67 bf 21 47 81 bf
       -2.5279531 -3.711965 -0.90441895 -1.0099832
0002c0 a4 ce 1c c0 04 ac 4f c0 97 c5 0e c0 38 73 4f c0
       -2.4501123 -3.244874 -2.23081 -3.2414074
0002d0 9b 0a 12 c0 0d 75 7d c0 02 32 8f bf 71 13 32 c0
       -2.2818973 -3.9602692 -1.1187136 -2.7824366
0002e0 59 72 09 c0 a8 ad 79 c0 9f 11 db bf 7b 1a 28 c0
       -2.1476042 -3.9012241 -1.7114753 -2.6266162
0002f0 04 e8 3e c0 3c 0b 7b c0 ae fb d6 40 84 c9 ec be
       -2.982911 -3.9225607 6.7182226 -0.46247494
000300 50 7c 1a c0 0f d7 bd bf 2f 10 38 40 66 a2 ea 40
       -2.4138374 -1.4831256 2.8759878 7.332324
000310 b8 a8 a1 c0 b9 ad 17 c0 69 f7 52 c0 2e 04 90 bf
       -5.0518456 -2.3699782 -3.2963507 -1.1251276
000320 d6 d0 a0 bf fd 91 19 c0 82 e3 8b bf fe 14 e2 3f
       -1.2563732 -2.3995354 -1.0928805 1.7662656
000330 ea 40 30 c0 8b b1 e3 bf 56 e1 49 c0 fe 33 4a bf
       -2.753962 -1.7788557 -3.1543784 -0.78985584
000340 32 53 5e c0 d2 45 92 3f 6b e2 2a c0 1d 63 ed 40
       -3.4738278 1.1427557 -2.6700695 7.418349
000350 3f 21 04 c0 43 12 95 3f 83 c9 a5 c0 f3 61 1b 3f
       -2.0645292 1.1646198 -5.1808486 0.60696334
000360 03 01 40 c0 0a 99 7b bf 1a 38 58 c0 c3 63 0a bf
       -3.0000618 -0.98280394 -3.3784242 -0.54058474
000370 58 91 0d c0 82 40 af bf cd 1b 0e c0 ff 7e dc bf
       -2.211996 -1.3691561 -2.2204468 -1.7226256
000380 3a 86 05 bf b2 4f ce 40 a9 32 2e c0 a4 62 ab 40
       -0.5215794 6.4472284 -2.721842 5.355791
000390 41 fb 36 c0 cb 8a e8 bf 30 da 9b c0 c8 b9 9f 3e
       -2.8590853 -1.8167356 -4.870384 0.31196427
0003a0 74 a6 37 c0 4e 69 a2 3f 16 43 52 c0 57 a3 25 40
       -2.8695345 1.2688386 -3.2853446 2.5880945
0003b0 c1 ff 73 c0 73 be 11 c0 75 63 43 c0 ca 95 31 3f
       -3.812485 -2.277249 -3.0529454 0.69369185
0003c0 76 59 f8 bf bd 68 a0 3f 3a fb 4a c0 6e 27 5d c0
       -1.9402301 1.2531964 -3.1715837 -3.4555316
0003d0 9b 04 9a bf c0 3f bb 40 f0 cb 73 c0 fa cc d7 bf
       -1.2032655 5.851532 -3.8093224 -1.6859429
0003e0 e1 67 44 c0 58 8b 55 3f 87 46 83 c0 ed c7 0e c0
       -3.0688403 0.83415747 -4.1023593 -2.2309525
0003f0 b7 91 a4 bf a9 51 8e 40 fa 1d 40 c0 b4 d5 8e bf
       -1.2856969 4.4474683 -3.0018296 -1.1158967
