trained_models/mnist_trained_16x16/model_002.pth (torch, 821207 bytes, 2 tensors)

logic_layers.0.weights f4 [5120, 16]
-0.54478747 -0.4173001 6.885783 2.930136 -0.5351227 1.3915606 4.2230287 4.329812
-2.716276 -3.150372 -1.1126779 -3.118432 -2.8985767 -2.2986093 -5.064774 -1.350292
-3.4539142 -0.4178418 5.3732023 3.8873115 -2.0607061 -2.4195647 6.0569186 2.8447456
-1.89999 -2.9306445 -2.458406 -1.8427936 -2.8126974 -2.4906323 -2.2964892 -1.8397028
-2.3608887 -2.7894151 -3.6663594 -3.5172977 -3.824234 -3.3388555 -3.70798 -2.5491133
-0.72870255 1.3032815 0.27497697 1.2635975 4.081582 2.6772985 2.241726 3.5561347
-1.4436011 -3.0353715 -2.7478528 -1.6941605 -2.829465 -2.0342882 -1.6246437 -2.0611405
1.7327926 -0.51184106 -3.4266715 -3.4357648 6.39477 0.6351201 -2.0990498 -1.1894506
-0.4235407 -1.384563 -1.124553 -2.696378 1.1822456 -0.38806355 -0.12942454 -0.18066502
1.0281637 -0.09391304 -0.66592634 -1.2725399 3.7986448 4.0523853 0.26356396 1.8314428
-2.4201424 -4.5355196 -3.949656 -2.2986844 -4.012571 -1.9709749 -2.0830936 -1.6062253
1.971283 2.3627203 3.082319 1.6791523 5.51261 3.700736 3.3389163 4.921534
-1.4187965 0.7379966 -2.2245533 -0.039126102 -3.8446605 -3.3357034 -2.66839 -3.9504528
5.7260413 3.947419 3.9312613 5.855107 -1.2468653 0.04800728 -1.722121 0.23479432
-1.9242299 -1.5521427 -1.2273422 -3.2382598 -3.068894 -4.9783716 -3.0249755 -2.8890905
7.0594597 0.6953789 2.7069304 0.19011989 -1.0091392 -0.7610974 -2.2111762 -3.068873
-1.5944228 -2.9445362 3.631803 2.10247 -4.3398113 -1.6672257 6.5619245 2.9972985
-4.607291 -5.3904395 -2.955206 -3.856892 -3.608973 -2.6626735 -1.2252055 -3.1521347
-2.3625026 -2.3959503 -2.6597073 -2.1122289 -3.8905866 -1.1171565 -2.0652633 -1.2469503
1.7188776 4.9040203 1.3393984 -0.26006475 1.9582444 3.627474 0.5560901 1.0115727
-4.2564692 -2.9663641 -3.5295365 -1.8688247 6.0966125 5.0652184 4.1457205 2.3778532
-5.2192607 -2.778931 -4.8536596 -4.864392 -1.4827642 -2.9287968 -2.5740688 -0.63937426
-3.5217671 -1.8823564 2.6711586 2.495088 -2.1641307 -3.0932052 4.8558736 7.578221
-2.0354664 -3.63778 -0.9974855 -2.0187213 -3.9529264 -3.4193954 -1.7424082 -2.175954
-0.3294971 1.3711555 -0.3542106 -0.516838 -2.1606898 -2.4128978 -2.3673067 0.19315879
2.8479598 2.9811738 2.2346494 1.2107749 -0.6224259 0.74842566 -1.5412877 -0.30135387
-0.31616688 -0.52341956 1.4078034 2.934017 -0.9023159 -2.0054016 2.7246702 7.835849
-3.252262 -2.4635885 -0.37197816 -2.2838998 -3.5754359 -2.9997864 -0.19660383 -1.0783048
-0.27634135 3.663495 2.926456 -0.17637229 5.30248 4.219801 6.3137 3.8168635
-4.182093 -2.0792813 -3.2517004 -2.162886 -3.262205 -2.7130728 -2.930091 -2.3940485
2.2297769 2.275514 1.6573259 2.335951 4.6975584 5.566076 4.733136 4.5893555
-3.5167542 -2.4691772 -3.053366 -3.968259 -4.2654676 -3.5362492 -4.373425 -3.7510417
00000000: 3177 0bbf 5ca8 d5be 5658 dc40 5987 3b40
00000010: cdfd 08bf a81e b23f 0d23 8740 d28d 8a40
00000020: 77d7 2dc0 b29f 49c0 3b6c 8ebf 6494 47c0
00000030: 4882 39c0 6a1c 13c0 a112 a2c0 5ed6 acbf
00000040: ee0c 5dc0 5cef d5be 46f1 ab40 b6c9 7840
00000050: 9ce2 03c0 26da 1ac0 47d2 c140 5010 3640
00000060: df32 f3bf ae8f 3bc0 8656 1dc0 a9e0 ebbf
00000070: 3c03 34c0 8566 1fc0 aef9 12c0 627b ebbf
00000080: cd18 17c0 c785 32c0 a2a5 6ac0 681b 61c0
00000090: 40c0 74c0 cfaf 55c0 8b4f 6dc0 ac24 23c0
000000a0: 408c 3abf eed1 a63f c8c9 8c3e 90bd a13f
000000b0: 529c 8240 dc58 2b40 7078 0f40 b697 6340
000000c0: ecc7 b8bf 8743 42c0 d2dc 2fc0 40da d8bf
000000d0: f415 35c0 c731 02c0 53f4 cfbf bae9 03c0
000000e0: 26cc dd3f 0408 03bf 964e 5bc0 92e3 5bc0
000000f0: f5a1 cc40 3b97 223f d556 06c0 eb3f 98bf
00000100: 54da d8be 5c39 b1bf 5af1 8fbf 7591 2cc0
00000110: d353 973f 44b0 c6be de87 04be 4000 39be
00000120: de9a 833f 7b55 c0bd 267a 2abf 96e2 a2bf
00000130: ff1c 7340 24ad 8140 dbf1 863e b86c ea3f
00000140: 9de3 1ac0 fa22 91c0 2ac7 7cc0 a51d 13c0
00000150: fb66 80c0 e848 fcbf 6851 05c0 ca98 cdbf
00000160: 0053 fc3f cf36 1740 b744 4540 76ee d63f
00000170: 4d67 b040 dcd8 6c40 ceb0 5540 357d 9d40
00000180: 209b b5bf 58ed 3c3f 155f 0ec0 b142 20bd
00000190: eb0e 76c0 2a7c 55c0 e7c6 2ac0 38d4 7cc0
000001a0: bb3b b740 83a2 7c40 c999 7b40 095d bb40
000001b0: 4899 9fbf 48a3 443d 766e dcbf ec6d 703e
000001c0: 2a4d f6bf 9dac c6bf 8d19 9dbf a63f 4fc0
000001d0: c268 44c0 d24e 9fc0 3399 41c0 dce6 38c0
000001e0: 18e7 e140 5a04 323f 593e 2d40 caae 423e
000001f0: 792b 81bf 47d7 42bf e983 0dc0 6a68 44c0
00000200: 0c16 ccbf 4873 3cc0 766f 6840 de8e 0640
00000210: bcdf 8ac0 a767 d5bf 49fb d140 bdd3 3f40
00000220: ee6e 93c0 7b7e acc0 1822 3dc0 52d7 76c0
00000230: 6af9 66c0 3e69 2ac0 89d3 9cbf 93bc 49c0
00000240: 3e33 17c0 4057 19c0 a538 2ac0 c22e 07c0
00000250: 5fff 78c0 fcfe 8ebf 462d 04c0 119c 9fbf
00000260: 2e04 dc3f bced 9c40 6871 ab3f 3527 85be
00000270: c1a7 fa3f 8928 6840 ec5b 0e3f 377b 813f
00000280: ff34 88c0 e9d8 3dc0 ede3 61c0 a635 efbf
00000290: 7317 c340 4516 a240 bea9 8440 bf2e 1840
000002a0: 2f04 a7c0 01da 31c0 2e51 9bc0 19a9 9bc0
000002b0: 38cb bdbf 6871 3bc0 8bbd 24c0 08ae 23bf
000002c0: a264 61c0 0ef1 f0bf 43f4 2a40 86af 1f40
000002d0: 1e81 0ac0 13f7 45c0 5163 9b40 c980 f240
000002e0: 1545 02c0 63d1 68c0 365b 7fbf bb32 01c0
000002f0: bffc 7cc0 60d7 5ac0 3b07 dfbf d542 0bc0
00000300: d8b3 a8be 0682 af3f 175b b5be 7f4f 04bf
00000310: be48 0ac0 eb6c 1ac0 f481 17c0 6bcb 453e
00000320: f944 3640 8dcb 3e40 7f04 0f40 acfa 9a3f
00000330: 4e57 1fbf d398 3f3f ea48 c5bf 0e4b 9abe
00000340: a0e0 a1be d3fe 05bf e732 b43f efc6 3b40
00000350: 2dfe 66bf 8058 00c0 ff60 2e40 46bf fa40
00000360: 1025 50c0 6fab 1dc0 ec73 bebe 6a2b 12c0
00000370: f1d3 64c0 80fc 3fc0 8452 49be e405 8abf
00000380: 9d7c 8dbe b476 6a40 0e4b 3b40 f09a 34be
00000390: ebad a940 9c08 8740 d509 ca40 7e47 7440
000003a0: b5d3 85c0 f212 05c0 dc1b 50c0 b96c 0ac0
000003b0: f7c7 50c0 fca2 2dc0 9c86 3bc0 1738 19c0
000003c0: aab4 0e40 05a2 1140 4123 d43f 3980 1540
000003d0: 6652 9640 4b1d b240 da75 9740 00dc 9240
000003e0: 8012 61c0 0007 1ec0 596a 43c0 f5f7 7dc0
000003f0: b67e 88c0 e851 62c0 19f3 8bc0 1111 70c0

logic_layers.1.weights f4 [5120, 16]
-2.1591241 -4.0949793 4.1863694 -2.216071 -2.6586275 -3.3570077 5.29229 -2.7566357
-0.9428021 -3.7021196 3.058449 -0.969071 -2.6935773 -4.8530006 2.58633 -0.47595876
-1.5888376 -2.933753 -0.901673 -2.2788453 3.3883736 3.596205 6.08811 4.635269
-3.1078343 -4.786969 -3.0939307 -4.854706 -2.8229733 -0.99020416 0.27976924 -0.91068995
-1.314669 -1.101155 -2.6012537 -3.081825 2.151848 -1.3151273 -0.12451709 0.0063300617
-0.57679707 -3.9534123 -1.8611234 -0.21512744 4.798545 -0.9972391 2.5022874 -0.6955341
-0.956319 -0.5522386 -2.3152807 -2.311061 -0.25354657 -0.5188995 2.8070617 -0.40859514
-0.35480767 -1.955986 -0.85168 1.1145751 1.5804905 1.9667786 2.422767 1.452552
-1.3627733 -2.975225 -2.4901788 -1.4273329 2.6893475 1.1396471 3.58512 -1.7523378
-0.44565454 -2.7403824 -2.1810305 -1.4008442 2.2294307 1.8337822 0.45868528 -1.2641106
-2.2704551 5.616141 -0.89212555 4.4629173 -2.2452204 -0.90073293 -2.3494265 -0.6301037
-2.94561 3.7958941 -2.4282036 4.572744 -3.0880942 -2.080218 -2.2639577 -1.9609234
-0.65725857 -0.93326235 -0.6880394 -2.1998506 -1.0695316 3.7779107 0.19830489 0.74778783
-2.4926865 -1.1838167 -0.5237509 -0.6007226 -1.9157908 1.1101463 -0.34889662 0.9390892
-0.7546985 -1.0556755 -1.2267975 -1.3168263 1.9776762 3.7704089 7.597066 2.4370918
-1.8776326 -2.5170562 -3.3785646 -1.8385618 -1.467771 -1.14521 -0.6689169 -0.15301882
-0.020355709 -3.0156014 -0.9115099 -1.2682322 -1.0928429 -1.7989999 -1.9725238 -0.40083683
2.8508532 2.853158 0.034821123 0.34423333 4.520439 0.3906331 0.78298086 -0.06263769
-2.398905 -2.851312 -0.42773706 -3.874975 4.872001 -1.0584486 5.5738773 -1.9386271
-0.12251934 -1.8760183 -3.056999 -1.6981714 4.4131126 -0.45550582 3.0734806 -1.8328862
0.6666658 0.13747439 -1.3534325 0.0030969756 0.55524635 1.2319841 1.0771588 0.98997027
1.714005 0.6009802 0.45872745 -0.17625673 -0.37009367 -0.4412891 -0.8105838 -0.027896056
0.0261491 -0.46021578 -1.6932504 0.527137 2.2442825 0.39881387 3.0146914 -0.26997957
-2.5213702 -0.8040988 -0.4635184 -3.039165 3.774234 -0.8876688 1.7850462 -0.41812962
-2.177403 -3.5071275 -1.9092153 -3.409286 -3.3322933 -5.248207 -4.1922903 -4.0422873
3.4728553 4.1976533 2.1647239 3.1937869 -2.1538377 -2.405451 -0.7074209 -1.9864371
-2.1448867 -0.6992077 -2.1993883 5.902004 -2.6002355 -1.0032947 -2.3520463 -0.6753564
-3.3018465 -3.3205383 -2.3129425 -0.7790054 -2.1775105 -1.502026 -1.8896036 -2.609307
-0.69485664 -2.0501392 -0.74909174 -2.8154614 -2.3367672 -2.0497746 -1.4401358 -2.277186
9.106788 -2.3197286 -1.7741318 -0.115504175 5.479752 -0.13108692 -0.2576601 -0.6470539
-1.1311812 -0.7176904 -1.5716132 -1.6866962 -0.610182 5.283096 -2.6873467 0.22237808
-2.0605676 -2.081249 -1.9041462 -2.8160424 -3.7550416 1.1781725 -1.6296413 0.26808816
00000000: 172f 0ac0 120a 83c0 bdf6 8540 1bd4 0dc0
00000010: f426 2ac0 37d9 56c0 715a a940 b86c 30c0
00000020: 7a5b 71bf 87ef 6cc0 a1bd 4340 0915 78bf
00000030: 9263 2cc0 c84b 9bc0 6e86 2540 deb0 f3be
00000040: 085f cbbf 9cc2 3bc0 0bd4 66bf 9ad8 11c0
00000050: 1ddb 5840 3928 6640 ccd1 c240 2054 9440
00000060: c2e6 46c0 da2e 99c0 f602 46c0 c059 9bc0
00000070: 98ab 34c0 057e 7dbf ea3d 8f3e fa22 69bf
00000080: 1347 a8bf a6f2 8cbf f17a 26c0 9f3c 45c0
00000090: e1b7 0940 1756 a8bf d102 ffbd 686c cf3b
000000a0: f9a8 13bf b504 7dc0 4b39 eebf 5e4a 5cbe
000000b0: ae8d 9940 104b 7fbf 7a25 2040 860e 32bf
000000c0: 52d1 74bf 825f 0dbf 8f2d 14c0 6ce8 13c0
000000d0: dbd0 81be 99d6 04bf e6a6 3340 6233 d1be
000000e0: 5aa9 b5be c05d fabf b307 5abf 66aa 8e3f
000000f0: 834d ca3f 67bf fb3f 9d0e 1b40 39ed b93f
00000100: 5b6f aebf 166a 3ec0 175f 1fc0 d8b2 b6bf
00000110: 451e 2c40 f5df 913f 9b72 6540 9b4c e0bf
00000120: d52c e4be 6d62 2fc0 0196 0bc0 dd4e b3bf
00000130: feae 0e40 60b9 ea3f ccd8 ea3e 60ce a1bf
00000140: 234f 11c0 6db7 b340 5762 64bf 38d0 8e40
00000150: b1b1 0fc0 6f96 66bf 015d 16c0 7a4e 21bf
00000160: e084 3cc0 eeef 7240 b067 1bc0 eb53 9240
00000170: 56a3 45c0 4b22 05c0 afe4 10c0 8aff fabf
00000180: 1942 28bf 48ea 6ebf 5a23 30bf 5aca 0cc0
00000190: 69e6 88bf 4ac9 7140 7010 4b3e 066f 3f3f
000001a0: 2d88 1fc0 4e87 97bf 8a14 06bf f5c8 19bf
000001b0: a238 f5bf 4619 8e3f 94a2 b2be 2668 703f
000001c0: ec33 41bf 6020 87bf b307 9dbf c48d a8bf
000001d0: 7e24 fd3f 614e 7140 2a1b f340 50f9 1b40
000001e0: 4456 f0bf 7317 21c0 673a 58c0 fe55 ebbf
000001f0: ecdf bbbf 3e96 92bf 233e 2bbf f7b0 1cbe
00000200: 04c1 a6bc 9dff 40c0 b658 69bf 6f55 a2bf
00000210: 47e2 8bbf a145 e6bf a97b fcbf 7c3a cdbe
00000220: 6174 3640 249a 3640 98a0 0e3d 5a3f b03e
00000230: 70a7 9040 1001 c83e 6f71 483f 3048 80bd
00000240: a987 19c0 e57b 36c0 5a00 dbbe 97ff 77c0
00000250: 6fe7 9b40 3e7b 87bf 345d b240 ef24 f8bf
00000260: 6beb fabd 5e21 f0bf dfa5 43c0 ae5d d9bf
00000270: 3838 8d40 0f38 e9be e8b3 4440 049c eabf
00000280: 9caa 2a3f 16c6 0c3e 473d adbf a1f6 4a3b
00000290: a024 0e3f a8b1 9d3f 57e0 893f b16e 7d3f
000002a0: 8464 db3f d7d9 193f 53de ea3e a57c 34be
000002b0: eb7c bdbe a5f0 e1be 6b82 4fbf 4586 e4bc
000002c0: a336 d63c 67a1 ebbe 6ebc d8bf 73f2 063f
000002d0: 53a2 0f40 5531 cc3e b4f0 4040 c33a 8abe
000002e0: 215e 21c0 6bd9 4dbf 4952 edbe ae81 42c0
000002f0: 0d8d 7140 433e 63bf 657c e43f 1615 d6be
00000300: 925a 0bc0 c774 60c0 2b61 f4bf be31 5ac0
00000310: 4b44 55c0 50f1 a7c0 3e27 86c0 6b5a 81c0
00000320: 4343 5e40 2d53 8640 d68a 0a40 0167 4c40
00000330: 7ad8 09c0 e9f2 19c0 8919 35bf 9243 febf
00000340: d345 09c0 47ff 32bf c7c2 0cc0 37dd bc40
00000350: 426a 26c0 f66b 80bf ed87 16c0 28e4 2cbf
00000360: 7451 53c0 b383 54c0 4007 14c0 e66c 47bf
00000370: 555c 0bc0 6342 c0bf 88de f1bf e3fe 26c0
00000380: 20e2 31bf 7b35 03c0 7ac4 3fbf 8530 34c0
00000390: 988d 15c0 822f 03c0 5f56 b8bf 6abd 11c0
000003a0: 67b5 1141 6f76 14c0 c016 e3bf 748d ecbd
000003b0: 215a af40 a63b 06be 06ec 83be 53a5 25bf
000003c0: 8cca 90bf 8fba 37bf 9f2a c9bf a9e5 d7bf
000003d0: e334 1cbf 1f0f a940 7dfd 2bc0 14b7 633e
000003e0: 57e0 03c0 2f33 05c0 10bb f3bf 0a3a 34c0
000003f0: 9a52 70c0 5bce 963f 1698 d0bf da42 893e
