trained_models/mnist_trained_16x16/model_002.pth (torch, 821207 bytes, 2 tensors)

logic_layers.0.weights f4 [5120, 16]
00000000: cd38 28c0 f513 14c0 b3fc 1ac0 2a91 2dc0
00000010: efb3 9c3e fc28 93bf 6b8c 5fc0 c574 35c0
00000020: ce5e dc3d fbdf 923f 6350 04c0 031a 35c0
00000030: 4a58 cc40 68fc ec40 43ac 74c0 cd1c 2fc0
00000040: d687 68c0 aa57 dcbf 8f34 1fc0 d898 c6bf
00000050: 8fa5 52c0 aa5d 81c0 871d 69c0 8777 19c0
00000060: d0be 203f 9d82 6840 c42f 1541 b521 6640
00000070: 0328 86c0 1f69 eebf f11d 0cc0 d819 5cc0
00000080: 9d9c a0c0 2ab4 51c0 d526 5dc0 cace 43c0
00000090: 3e74 67c0 2f7e 77c0 5d74 4ec0 682f 67c0
000000a0: e3bc 63c0 c7ce 95c0 e4ce fd40 eb4f 2fc0
000000b0: 6e69 90c0 83c0 6ac0 894a 4ec0 6828 9bc0
000000c0: c1bc 24c0 cde8 f1bf 2859 3fbf dcd1 7fbf
000000d0: f53b 1f3f 9624 1141 e28f 56bf 67c3 793e
000000e0: 30e0 8dc0 c5da c2c0 3780 a1c0 fd21 94c0
000000f0: e1aa 81c0 2448 c6bf 57d0 83c0 bdc4 88bf
00000100: 3fa2 8dc0 b437 74c0 9f1b 9dbf a8a6 e440
00000110: da3a c6c0 38f6 81c0 f46f 97c0 5ad6 59c0
00000120: 8f1a 98c0 4692 6ec0 54d1 97be 1767 eb3f
00000130: a2de 8bc0 32fb 88c0 8c0c 9cc0 e22d 80c0
00000140: d784 5140 828d 2241 e329 05bf 14b4 ed3f
00000150: 85fe afbe 9d9b 3040 1185 c3bf 1e80 5abf
00000160: 95fe ecbf ed3c b8bf cc71 a2c0 a04b 83c0
00000170: 097c 21c0 2192 92c0 aebc 55c0 cac2 a3c0
00000180: f001 06c0 06c2 02c0 44a7 2fc0 b053 8ec0
00000190: 5c6f b9bf 824e 53bd f9c1 05c0 3b5a d440
000001a0: be4b 8fc0 633d 15c0 7a36 57c0 4931 30c0
000001b0: a8a7 21c0 3fe3 68c0 92fe 7cc0 8373 e9bf
000001c0: ef10 63c0 7c2a 31c0 28a3 66c0 edb6 12c0
000001d0: 4aec 2ebf c7ad 19c0 c28c eebe f660 203f
000001e0: 121f 98c0 b00b 1bc0 99ba 10c0 24d8 88bf
000001f0: bc17 1641 abae 1540 1510 b13f 1b77 b83e
00000200: b588 8cc0 d2cd 00c0 df9b 9ebf 372f 1bc0
00000210: a90f 6ec0 5312 c6bf 54f7 f6be ecd4 743c
00000220: 2493 c6bf 86ba cdbf d4a8 93bd c93d 0040
00000230: 4a57 f8bf 96fa f6bf ea30 8040 bfad cc40
00000240: 999d 48c0 025d 8ec0 52a3 4bc0 52b2 8cc0
00000250: 60ef 46c0 3510 66c0 89b2 35c0 06ee 5cbf
00000260: cf94 e93f a0d9 34c0 598d ffbe 14ab 35c0
00000270: 2f3c 0f41 b050 67c0 3bab 7fbe 7569 9cc0
00000280: 5ccd 61bf 3c4d b8bf 14ee 1940 f138 423f
00000290: 9d58 21c0 a260 66be 5b04 2841 332c 2640
000002a0: 83c9 8dc0 f85b ebbf a2b5 ecbf 526d 3bc0
000002b0: 5124 5dc0 ace6 1bc0 a05d 50c0 194b 32c0
000002c0: 9b07 81c0 02b4 95c0 18f5 87c0 bae2 4fc0
000002d0: 8af0 1fc0 a68f 86c0 2934 41c0 51cc 07c0
000002e0: cb6f 2440 3210 d73d 1771 0c41 c892 e73f
000002f0: 819d 853f c615 81bf a7d8 2d3f 4b44 9a3e
00000300: c2a2 22c0 37f7 21c0 3742 8cc0 4291 7fc0
00000310: 1926 83c0 ae8a 3ac0 6ad6 5bc0 c247 58c0
00000320: 9790 d440 3e77 ec40 bd20 e33f e676 42bc
00000330: e303 17c0 677e 8ec0 a728 4ec0 b219 8cc0
00000340: e2c1 eabf b616 42c0 b287 12c0 3f14 85c0
00000350: f25d f63f 8b5f 21c0 92a7 e93f 5ec0 29bf
00000360: 7cf6 22c0 17fb 82c0 3486 33c0 6653 68c0
00000370: efa6 0541 2586 d8bf 54eb 1440 e8e9 c3bf
00000380: f1fd 133f ec58 cbbf f6f9 ea3d 79fa 57c0
00000390: 89dd cdbf 5b94 33c0 cff8 d4bf 1dd9 7fc0
000003a0: 6383 0541 e701 99be eb66 fa3f 74b2 64c0
000003b0: 8945 0abf eaa1 cbbf 0ef5 02be a8e4 7bc0
000003c0: 931c 28c0 e4c1 84c0 fc61 1cc0 ece2 91c0
000003d0: 1605 52c0 9e32 7fc0 f396 52c0 31fd 87c0
000003e0: 9606 73bf d059 30c0 5875 c840 2e6c 2bc0
000003f0: 8252 1bc0 41e3 13c0 b95f 4bbf 3373 afc0
-2.6284668 -2.313718 -2.4216735 -2.711985 0.30606028 -1.1496882 -3.4929454 -2.835252
0.1076027 1.1474603 -2.0674064 -2.8297126 6.3857775 7.4058113 -3.823014 -2.7361329
-3.6332908 -1.7214253 -2.487583 -1.5515394 -3.291355 -4.0426836 -3.6424272 -2.3979204
0.62791157 3.632972 9.324162 3.5958073 -4.1923842 -1.862583 -2.1893275 -3.4390774
-5.019118 -3.2766213 -3.455495 -3.0594964 -3.6164699 -3.8670766 -3.2258523 -3.6122684
-3.5584037 -4.6814914 7.931505 -2.7392528 -4.51287 -3.668 -3.2232993 -4.8486824
-2.5740206 -1.889917 -0.74745417 -0.99929595 0.6220086 9.071432 -0.838133 0.24390946
-4.4336166 -6.0892053 -5.046901 -4.629149 -4.0521092 -1.5490766 -4.119182 -1.068504
-4.4260554 -3.8158998 -1.2274054 7.145344 -6.194684 -4.061306 -4.732416 -3.403708
-4.753242 -3.7276778 -0.29651892 1.8390836 -4.370927 -4.2806635 -4.8765316 -4.005601
3.273733 10.159548 -0.5201704 1.857058 -0.3437387 2.759498 -1.5274984 -0.8535174
-1.8515192 -1.4393593 -5.076391 -4.1029816 -2.5231955 -4.580338 -3.339641 -5.117528
-2.0938683 -2.0430923 -2.744584 -4.4477158 -1.4487109 -0.051588543 -2.0899642 6.6360145
-4.477996 -2.3318717 -3.3627 -2.7530081 -2.525858 -3.63887 -3.9530377 -1.8238376
-3.5479085 -2.768218 -3.6037083 -2.292415 -0.683293 -2.4012315 -0.46591765 0.6264795
-4.753793 -2.4225883 -2.261389 -1.0690961 9.380795 2.338786 1.3833033 0.3602837
-4.391688 -2.0125623 -1.2391318 -2.4247568 -3.7197058 -1.5474342 -0.4823557 0.014943343
-1.5513654 -1.6072547 -0.07209936 2.003771 -1.9401639 -1.9295223 4.005971 6.3962092
-3.134619 -4.4488535 -3.1818433 -4.3967676 -3.1083603 -3.5947392 -2.839022 -0.86300695
1.8248538 -2.8257828 -0.49912527 -2.8385668 8.952193 -3.6142998 -0.24967663 -4.887873
-0.8820398 -1.439857 2.4051561 0.75868136 -2.5210335 -0.224978 10.501063 2.5964477
-4.4308486 -1.8387442 -1.849293 -2.9285474 -3.4553416 -2.435954 -3.2557144 -2.7858336
-4.0321784 -4.6782236 -4.2486687 -3.2482133 -2.4990563 -4.205035 -3.0188086 -2.1218455
2.5693233 0.10501136 8.77761 1.8091669 1.0438691 -1.008477 0.6790871 0.30130228
-2.541184 -2.5307138 -4.383083 -3.9932408 -4.0984006 -2.9147143 -3.4349618 -3.3793797
6.64265 7.389556 1.7744366 -0.011869168 -2.3596122 -4.45293 -3.2212312 -4.3781366
-1.8340418 -3.0326362 -2.2895322 -4.1587214 1.924742 -2.5214565 1.8254263 -0.66309154
-2.5462942 -4.0931506 -2.805066 -3.6300902 8.353255 -1.6915938 2.3268633 -1.5305758
0.5780936 -1.5886512 0.114734575 -3.3746626 -1.6083232 -2.80593 -1.663843 -3.9976265
8.344577 -0.29884264 1.9562658 -3.573392 -0.5401235 -1.5908787 -0.12788793 -3.935831
-2.626744 -4.1486683 -2.4434805 -4.5589504 -3.2815604 -3.9874644 -3.2904632 -4.249657
-0.94931924 -2.7554817 6.264324 -2.6784778 -2.4269109 -2.3107455 -0.79442936 -5.4828124

logic_layers.1.weights f4 [5120, 16]
00000000: 4f04 07c0 ae61 4bc0 1633 a9c0 f72f 93c0
00000010: 225a 8fbe 2f9a d740 0d6e 57c0 aeb0 6dc0
00000020: dd12 3cc0 38b2 59c0 1ecd 3fc0 af64 5fc0
00000030: 321f 98be 90d9 823e 9550 58c0 d79f 5dc0
00000040: e8ee 21c0 4adb 0841 8722 37c0 00ea 29c0
00000050: 5536 babf 4821 0f40 389b 59c0 81cc 67bf
00000060: f03d aec0 cb0d 01c0 a551 55c0 5ef0 c9bf
00000070: da78 acc0 7dbc 79be 0a8a 3ac0 c8db 1fc0
00000080: 3eab 6ebf 2bc8 a0bf 6714 0b41 8fe5 8b40
00000090: 3a46 00c0 f30a 8dc0 b5de fd3f c63b 0dc0
000000a0: a9f6 08c0 d90b 4dc0 1e46 393f 5710 f6bf
000000b0: 6592 5ec0 dfc1 34c0 7cf4 1cc0 adba cabf
000000c0: 73bd 09c0 61d5 13c0 aefa a5bf b5ab 283f
000000d0: 7dc7 6cc0 0a0e 41c0 86a5 4fc0 1d02 10c0
000000e0: 2a4d 8dbf beb3 6cc0 6aae e240 a49f 4240
000000f0: 389f 37c0 7de4 3fc0 915d 84bf 3b44 0ac0
00000100: f4f8 98bf 9fae e3bf 3f90 1dc0 1aad c2bf
00000110: 4183 cebe be7e 863f 1fed 07c0 6727 1bbf
00000120: 7369 93bf 74d8 15c0 a81a 45c0 2aac 7ebe
00000130: 0309 2f40 d29b 0241 dac1 b3bf d8b4 33c0
00000140: fb26 c4bf ace1 16c0 e9b5 2b41 9d8b 3b40
00000150: e8a6 dbbf fb3d 37c0 86e6 44bf e2a5 8f3e
00000160: d2a3 09c0 89f2 76c0 c344 7ebf bace 0740
00000170: fd16 92c0 4cd6 97c0 05ee 2bc0 0879 c1bf
00000180: f979 06c0 013d 4dc0 1c8f 4cc0 9530 1dc0
00000190: f33e 393f 889f a9bd a4a9 0ec0 db37 3cc0
000001a0: c380 86be 622e 87c0 56ab c3bf ce51 60c0
000001b0: a185 1941 04f7 4140 4ceb febf 19cf 6f3f
000001c0: dcc0 98bf 7540 67c0 2a51 3ec0 7584 79c0
000001d0: 0f47 febd 1475 04c0 3555 1941 b711 84bf
000001e0: f57f 21c0 86f5 e5bf 3057 12bf b42c 1bc0
000001f0: dcde 01bf b3d7 03c0 9c66 2640 5b35 57bf
00000200: 61e5 2ec0 6cbd 0a41 9292 87bf 60ba 27bf
00000210: a95c 51c0 f8a7 673e 2f5b 93c0 5b9b f9bd
00000220: 6732 4ec0 8733 893b 51de 11c0 2920 eebe
00000230: 68e3 4bc0 f861 3abf e00f b3bf 4eff e4bf
00000240: 84ba 90bf ae8e 1bc0 b3b0 65c0 bfdf 6cc0
00000250: 2528 45bf 12b1 ef40 f450 ebbf ddb8 f9bf
00000260: 05de 0ac0 16c5 6bc0 5d62 84c0 d087 35c0
00000270: 8f14 993f 5cd6 083f ca4e a1bf b7f2 cabf
00000280: e32c 25c0 7d62 acbf 8f4c 3fc0 8717 33c0
00000290: 17ea 85bf 398b 0941 01f8 2fc0 0415 34b9
000002a0: 3033 59c0 e817 72c0 966c 04c0 9890 04c0
000002b0: 7bae 35be e8b4 a73f d892 66c0 4bb9 c3be
000002c0: c528 1bc0 c3ab eebf 8918 b5bf 0d06 2fc0
000002d0: c126 da3f c4f2 bbbf da32 2ec0 f6e8 00bf
000002e0: eede 10c0 477d 86c0 c3ec 03c0 a6b3 22c0
000002f0: 9bb9 0641 fae4 ebbe 43c0 0abf 7314 96bf
00000300: 2da2 2dc0 040c 0441 8d68 a4bf 13d7 f13f
00000310: 75a1 2cc0 eedf 2d40 a1f4 6dc0 919b ee3f
00000320: 2d20 2bc0 5aaf e2bf 9993 2ec0 2640 85c0
00000330: e92b 7ec0 5927 0dc0 cbc1 a5c0 65b1 5dbc
00000340: 2953 f9bf c765 19c0 717a 14c0 9396 22c0
00000350: 9137 ed3d 6388 81c0 0426 f540 bb05 d4bf
00000360: 14f4 e3bf c1f6 75c0 d696 6fc0 aab7 80c0
00000370: 2db0 48bf 1516 fabf 3fae 55be 8b35 04c0
00000380: e3ca b4bf cf59 aec0 ab9e 97bf 69b9 2fc0
00000390: 623b 7bc0 7502 56c0 ea82 c5be 7b6e e8bf
000003a0: 0b01 8abf 42ba 24c0 c82d 6b40 0dd2 9ebf
000003b0: 61b7 bb3e ab78 4dc0 58c7 3641 4b69 343f
000003c0: 0bc4 36c0 78e5 5dc0 9d5b 84bd a41c cb3f
000003d0: 5bb0 69c0 7ce7 a6bf c52b 97c0 6f74 17c0
000003e0: 2247 a6bf 6feb 0ac0 5b1c 1440 12a8 0c41
000003f0: 2823 31c0 b342 0ac0 230a d6bf b185 6bc0
-2.109638 -3.177837 -5.287486 -4.599605 -0.27998453 6.7375712 -3.366092 -3.7139087
-2.9386513 -3.4015026 -2.9968944 -3.4905202 -0.297113 0.25556612 -3.3799183 -3.4628808
-2.5302067 8.553537 -2.8614824 -2.6549072 -1.4547831 2.2364063 -3.4000988 -0.90546423
-5.4450607 -2.0164669 -3.3331082 -1.5776479 -5.3897524 -0.24388309 -2.9146752 -2.4977894
-0.93230045 -1.2561086 8.692481 4.3717723 -2.0042863 -4.4075866 1.983359 -2.2067733
-2.140055 -3.2038481 0.72372615 -1.9223737 -3.4776852 -2.824333 -2.4524221 -1.5838219
-2.152188 -2.3098986 -1.2967126 0.65887004 -3.6996758 -3.0164819 -3.2444777 -2.250129
-1.1039174 -3.6984706 7.083791 3.0409937 -2.869093 -2.9983208 -1.0341054 -2.1604145
-1.1950974 -1.7787665 -2.461929 -1.5209076 -0.40334514 1.0507429 -2.1238477 -0.60607
-1.1516556 -2.3413363 -3.079752 -0.24870363 2.734925 8.163042 -1.4043534 -2.8079128
-1.5324396 -2.357524 10.731912 2.9303963 -1.7160311 -2.863158 -0.7691425 0.28056246
-2.1506238 -3.8585532 -0.9932367 2.1219926 -4.565306 -4.7449093 -2.6864026 -1.5115061
-2.1011946 -3.2068484 -3.1962347 -2.4560902 0.7236168 -0.08282381 -2.229104 -2.9409091
-0.26270112 -4.224412 -1.5286663 -3.504993 9.595124 3.0307016 -1.9915557 0.9367538
-1.1933856 -3.6133091 -2.9737039 -3.8987095 -0.12415897 -2.069646 9.5833025 -1.0317906
-2.5234349 -1.7965553 -0.5716429 -2.4246035 -0.5073068 -2.0600402 2.6000128 -0.8406579
-2.7327502 8.671246 -1.0591605 -0.6551876 -3.2712805 0.22622669 -4.604881 -0.12187835
-3.2218263 0.0041870507 -2.279194 -0.4650891 -3.1857548 -0.7280574 -1.398922 -1.7890413
-1.130692 -2.4305835 -3.5889099 -3.7011564 -0.7701438 7.490365 -1.838408 -1.9509541
-2.169801 -3.6839042 -4.137007 -2.8364143 1.1959399 0.53452086 -1.260217 -1.5855321
-2.5808647 -1.3467556 -2.9890478 -2.798311 -1.0462064 8.59649 -2.749512 -0.00017173967
-3.3937492 -3.7827091 -2.0691276 -2.0713253 -0.1774234 1.3102083 -3.6027126 -0.38227305
-2.4243634 -1.8646168 -1.4148113 -2.7347443 1.7043077 -1.4683461 -2.7218537 -0.5035547
-2.2636065 -4.2027926 -2.0613258 -2.5422149 8.420314 -0.46073133 -0.5419962 -1.1724991
-2.7130234 8.2529335 -1.2844406 1.889376 -2.6973546 2.7167926 -3.718056 1.8641225
-2.6738389 -1.7709763 -2.7277586 -4.1640806 -3.97143 -2.2055266 -5.1799064 -0.013531064
-1.9478503 -2.396837 -2.3199732 -2.5404403 0.11582864 -4.047899 7.6608906 -1.6564249
-1.7808862 -3.8431857 -3.7435813 -4.02242 -0.7839382 -1.9537989 -0.20867251 -2.065768
-1.4124416 -5.448463 -1.1845297 -2.7456915 -3.9254994 -3.3439 -0.38576442 -1.8158716
-1.0781568 -2.5738683 3.6746693 -1.2407852 0.36663345 -3.21049 11.423668 0.70473164
-2.8557155 -3.4671307 -0.06462786 1.5868115 -3.651389 -1.3039393 -4.724093 -2.3664815
-1.2990458 -2.1706197 2.3142307 8.791033 -2.7677708 -2.160321 -1.6721843 -3.6800349
