trained_models/mnist_trained_16x16/model_006.pth (torch, 822593 bytes, 4 tensors)

logic_layers.0.weights f4 [2560, 16]
000000 ed 08 90 c0 e1 fb 83 c0 ac 39 7e c0 d7 e0 7a c0
       -4.5010896 -4.124497 -3.97227 -3.9199731
000010 25 6f 79 c0 9d 5b bc c0 84 08 5e c0 c0 e9 a6 c0
       -3.8974087 -5.8861833 -3.4692698 -5.216034
000020 a9 33 5b c0 d9 a3 b7 c0 32 9d 8d c0 73 da a1 c0
       -3.425028 -5.738751 -4.425439 -5.057916
000030 a0 e7 89 40 bd 6b 28 41 2f 5d f0 bd 94 35 00 40
       4.3095245 10.526303 -0.11736523 2.0032701
000040 e7 35 c9 c0 47 07 b4 3e 17 0e 6a c0 00 c0 0f 41
       -6.28783 0.35161802 -3.65711 8.984375
000050 1b 7e c1 c0 3e ee 97 c0 ea f7 ec c0 62 b9 b0 c0
       -6.0466437 -4.7478323 -7.405263 -5.5226297
000060 e4 1d ad c0 dc 42 b2 c0 43 77 c5 c0 7e 77 49 c0
       -5.4098988 -5.5706615 -6.1708083 -3.1479182
000070 c3 7a e0 c0 4b fc ec c0 8c 9b b8 c0 c9 db aa c0
       -7.0149856 -7.4057975 -5.7689877 -5.3393292
000080 54 96 ab c0 70 26 b7 c0 c7 c0 d0 c0 38 b6 aa c0
       -5.3621006 -5.723442 -6.5235324 -5.3347435
000090 0b a3 15 c0 4a 5c 08 c0 e4 d3 4b c0 78 62 f7 40
       -2.3380764 -2.1306329 -3.1848078 7.73077
0000a0 b5 85 d2 c0 52 f0 9d c0 ec 11 94 c0 d3 38 dd c0
       -6.5788217 -4.935586 -4.6271877 -6.9131866
0000b0 02 a3 d9 c0 20 47 9b c0 e5 bf ab c0 6a 11 c1 c0
       -6.8011484 -4.8524323 -5.3671746 -6.0333757
0000c0 49 65 90 c0 cb 86 c2 bf 29 0e 93 c0 6d e3 53 c0
       -4.512364 -1.5197386 -4.5954785 -3.310756
0000d0 1d d5 6b c0 43 7b 8c bf 47 84 94 c0 a4 75 5b c0
       -3.6848824 -1.0975116 -4.641147 -3.4290552
0000e0 63 07 ee 3e 10 a1 72 40 d0 f6 a6 3f 78 b7 50 3f
       0.4649001 3.7910805 1.3044071 0.8152995
0000f0 84 ab 4d 40 36 db 9e 40 21 fe 70 40 56 46 f5 40
       3.2135935 4.964259 3.7655108 7.664836
000100 dc e5 c3 c0 48 2d e4 c0 4d 75 b3 c0 c5 a2 e5 c0
       -6.121809 -7.1305275 -5.608069 -7.1761193
000110 c7 71 cf c0 ea 78 cc c0 80 14 ee c0 ef 76 06 c1
       -6.482639 -6.38976 -7.4400024 -8.4040365
000120 3f 8e 0c 41 f3 5c 02 c0 e7 f7 19 40 de eb f3 be
       8.784728 -2.0369232 2.4057558 -0.4764089
000130 04 bc 87 c0 91 6e 54 c0 e5 eb 68 c0 65 0f a4 c0
       -4.241701 -3.3192484 -3.6393979 -5.126879
000140 cc 1e 4a c0 52 3f 13 3f 26 33 8a c0 56 97 35 c0
       -3.1581297 0.57518494 -4.3187437 -2.8373618
000150 23 38 20 be 3a f0 b0 40 a0 d5 25 c0 b4 2f 50 c0
       -0.15646414 5.5293245 -2.5911636 -3.2529116
000160 3a 4a 80 c0 d2 3a 65 c0 cf 88 8c c0 d4 ea 66 c0
       -4.009061 -3.581715 -4.3917003 -3.6080828
000170 f2 ea f1 bf d7 3f 25 3f 26 7c ba c0 e5 5b b0 c0
       -1.8899825 0.64550537 -5.827655 -5.5112176
000180 41 55 e1 c0 a9 4f ae c0 b2 58 bc c0 ab c6 af c0
       -7.041657 -5.447224 -5.885827 -5.4930015
000190 d8 51 b6 c0 d3 ed ca c0 72 2a ac c0 2b 92 8f c0
       -5.6974907 -6.3415313 -5.3801813 -4.486593
0001a0 5f 7b d8 3f a9 09 e0 bf b2 b4 90 3e 70 94 9d c0
       1.691265 -1.7502948 0.2826286 -4.92437
0001b0 59 9e 18 41 3e c4 8b 40 cd 95 bf 3f 9f c6 7a c0
       9.538659 4.3677053 1.496759 -3.9183729
0001c0 ab 2c 4a c0 41 bc a8 c0 f1 c1 85 c0 bb c3 5b c0
       -3.1589763 -5.27298 -4.1799245 -3.4338214
0001d0 6b 8f 94 c0 1f 45 40 c0 73 5e fb bf 8d 47 ab bf
       -4.642507 -3.0042188 -1.9638199 -1.338121
0001e0 3d cb 96 c0 46 58 9b c0 db a3 2d 41 ba c8 6f 40
       -4.7123094 -4.8545256 10.852504 3.7466264
0001f0 b3 5e 98 c0 8a 30 c6 c0 c0 94 9d 40 85 11 ae 3f
       -4.76156 -6.193425 4.924408 1.3599097
000200 bf cb 1f c0 6d e5 27 c0 6c 66 a8 c0 6e 72 87 c0
       -2.4968107 -2.623378 -5.2625027 -4.2327185
000210 2c 10 6a c0 45 17 14 c0 b1 1f 26 bf 42 97 82 be
       -3.657237 -2.3139203 -0.6489211 -0.25506026
000220 5a 51 44 c0 9d 50 7d c0 a1 e5 3b c0 2f 0c 77 be
       -3.0674653 -3.9580452 -2.9358904 -0.24125741
000230 d0 75 67 c0 ea 28 0c c0 cc d6 05 40 99 86 fc 40
       -3.6165657 -2.1899972 2.0912352 7.8914304
000240 63 d2 b8 c0 47 dd bb c0 dd 15 90 c0 00 02 3c c0
       -5.775682 -5.8707614 -4.502669 -2.937622
000250 e6 1b e4 c0 d5 a2 be c0 99 5f 88 c0 1b 87 a7 c0
       -7.1284056 -5.957377 -4.2616696 -5.2352424
000260 e9 95 85 bf a3 59 79 be 7e 51 14 41 70 85 64 3f
       -1.0436374 -0.243506 9.269896 0.8926611
000270 71 1a c2 c0 24 62 b3 c0 72 51 91 c0 55 e1 90 c0
       -6.0657277 -5.60573 -4.541192 -4.5275064
000280 4b cc d3 3f 35 fc 2f 41 1c 8c 19 3f eb 9c 7c 3d
       1.654672 10.999074 0.59979415 0.061673086
000290 01 5e 82 c0 55 79 53 3e 11 54 7e c0 99 24 2b c0
       -4.073975 0.20651753 -3.973881 -2.6741087
0002a0 89 2d 5c c0 07 60 4d c0 32 40 b2 c0 43 43 6c c0
       -3.4402792 -3.208986 -5.5703363 -3.6916053
0002b0 16 91 a3 c0 3a 54 12 c0 56 1d 89 c0 81 19 b3 c0
       -5.1114607 -2.2863908 -4.284831 -5.5968633
0002c0 51 1f a9 c0 1c 01 01 bf db 58 c9 c0 be f4 31 3f
       -5.285073 -0.5039232 -6.2920966 0.6951407
0002d0 bd e4 b8 c0 d4 1e 97 3f 16 2c 95 c0 4f a2 17 41
       -5.777922 1.1806283 -4.6616316 9.477126
0002e0 0e e6 c0 c0 db af 9e c0 da b1 b4 c0 4d 60 85 c0
       -6.028083 -4.9589667 -5.6467104 -4.1680055
0002f0 7c 05 a8 c0 ae 8f 84 c0 ae 67 9b c0 cf 9c c3 c0
       -5.2506695 -4.142539 -4.856406 -6.1128917
000300 7c 83 91 40 45 99 48 41 57 33 18 3f 97 1b 05 3d
       4.5473003 12.537419 0.5945334 0.032497015
000310 88 2c 76 c0 1e dc a3 bf 07 2c a4 c0 55 23 bb c0
       -3.846468 -1.280155 -5.1303744 -5.848063
000320 4d ec 55 c0 f1 3e d6 bf f7 b3 af c0 40 b7 ad c0
       -3.3425477 -1.6737958 -5.4907184 -5.4286194
000330 18 e2 87 c0 e1 47 9f c0 a2 4c 8c c0 7d 7f 8b c0
       -4.2463493 -4.9775243 -4.3843546 -4.3593125
000340 71 f0 b1 3f b0 fe 35 c0 b0 1f 35 41 9c 55 1b bf
       1.3901502 -2.84367 11.320236 -0.60677505
000350 69 f9 58 c0 2a 9a 25 c0 b0 8e b2 3c e6 12 e3 bf
       -3.3902228 -2.5875344 0.021796554 -1.7740142
000360 36 0b 4c 3f 3b 37 2e 3f fe 10 f9 3f db cb ce 3e
       0.79704607 0.68053025 1.9458311 0.40389904
000370 12 95 87 bf 8e 0c 7b c0 35 7f 71 bf 66 f0 61 bf
       -1.0592368 -3.9226413 -0.9433473 -0.88257444
000380 ae 8d 82 c0 48 63 93 c0 12 f3 b8 c0 5e c3 a8 c0
       -4.079795 -4.6058693 -5.7796717 -5.2738485
000390 57 9c a1 c0 d7 3b 75 c0 09 7b ac c0 a6 c7 6d c0
       -5.0503345 -3.8317773 -5.390019 -3.7153106
0003a0 c4 fe a6 40 81 85 71 40 ec dc 33 41 22 a8 9f 40
       5.2185993 3.7737734 11.241436 4.989274
0003b0 53 de a1 bf dc ee 1f 3f d0 0a 6e c0 c6 fe 6b c0
       -1.2645973 0.62473845 -3.71941 -3.6874251
0003c0 90 18 91 c0 97 80 b1 c0 25 11 47 c0 d7 bb cd bf
       -4.5342484 -5.546947 -3.1104214 -1.6072949
0003d0 83 41 db c0 c2 e0 9f c0 44 1e ca c0 c0 50 e3 c0
       -6.851747 -4.9961863 -6.3161945 -7.103607
0003e0 72 83 a7 c0 c9 2b ad c0 48 4c 23 bf fc 98 0b 41
       -5.2347956 -5.411595 -0.6378827 8.72485
0003f0 2e e0 b4 c0 a5 13 cd c0 e7 07 dc c0 07 31 a6 c0
       -5.6523657 -6.408648 -6.8759646 -5.193485

logic_layers.1.weights f4 [2560, 16]
000000 5b 8f 6a c0 88 b9 7a c0 38 91 e9 c0 90 e3 d4 c0
       -3.6649997 -3.917574 -7.298977 -6.6527786
000010 1d 6e 9f 3e 6c 87 00 41 cf a1 6c c0 2c 32 c7 c0
       0.31138697 8.033062 -3.697376 -6.2248745
000020 90 1c a9 c0 43 d3 e5 c0 6d 9d dc c0 cd 4e b8 c0
       -5.2847366 -7.182039 -6.894217 -5.759619
000030 08 7c 9f c0 e0 07 d3 c0 ec a2 d1 c0 29 9f ae c0
       -4.9838905 -6.5947113 -6.551138 -5.4569287
000040 ae 95 c5 bf 20 0c f2 40 f1 b1 7e c0 07 0b 4f c0
       -1.5436304 7.56398 -3.9796107 -3.235048
000050 10 72 1a c0 f0 f9 db bf ad e8 40 c0 84 29 a9 bf
       -2.4132118 -1.718565 -3.0142014 -1.3215795
000060 cd a6 67 c0 b6 dc 7f c0 b2 73 a2 c0 73 20 3e c0
       -3.6195557 -3.9978461 -5.076623 -2.9707305
000070 e0 c8 7f c0 a3 b1 84 c0 6f 52 83 c0 3a b3 87 c0
       -3.9966354 -4.146684 -4.1038127 -4.2406282
000080 a7 51 ac c0 55 12 6f c0 df 37 88 c0 43 26 a6 c0
       -5.3849673 -3.735494 -4.25682 -5.1921706
000090 72 ea 88 c0 7c 3e c1 c0 41 21 97 c0 3d 16 c2 c0
       -4.278619 -6.0388775 -4.7228093 -6.0652146
0000a0 9c e3 f0 3f 1e b5 1a 41 88 24 6c c0 b3 f0 95 c0
       1.8819461 9.669218 -3.6897297 -4.685632
0000b0 70 96 df be a1 52 e6 be 37 ac 93 c0 37 d7 54 c0
       -0.43669462 -0.44984916 -4.6147723 -3.3256357
0000c0 bc 72 3e c0 cc af c8 bf e7 6b 59 c0 33 ea 02 41
       -2.9757528 -1.5678649 -3.3972108 8.182178
0000d0 9b ee 98 c0 5a a5 eb bf 12 7a 81 c0 fa 61 0f 3f
       -4.7791266 -1.8409836 -4.046151 0.56008875
0000e0 0e 0c f0 c0 98 53 ff c0 a3 22 c8 c0 69 ab ba c0
       -7.5014715 -7.9789543 -6.254228 -5.833424
0000f0 12 73 c8 c0 ec d4 dc c0 d8 31 96 c0 ab bb 92 c0
       -6.2640467 -6.9009914 -4.6935844 -4.5854087
000100 e5 9a d5 c0 fe 6c 00 c1 76 8c ee c0 00 cd bf c0
       -6.675158 -8.026609 -7.454646 -5.9937744
000110 4e b3 b3 c0 d8 a9 da c0 37 30 e0 c0 ea 17 ac c0
       -5.615638 -6.833233 -7.0058856 -5.377919
000120 ee e4 d6 c0 55 af d6 c0 af 79 c4 c0 4d 2d b1 c0
       -6.7154455 -6.708903 -6.139854 -5.53678
000130 9e 65 63 c0 0c 1f 27 c0 87 0a 6f 3f 6f c4 fa 40
       -3.5530772 -2.61127 0.9337544 7.8364787
000140 0f 78 b2 c0 0d 15 e1 bf 30 a7 8b c0 73 fd 29 40
       -5.5771556 -1.7584549 -4.3641586 2.6560943
000150 23 7b a2 c0 8b 37 e4 bd 8f a9 cb c0 f3 50 f3 40
       -5.0775313 -0.111434065 -6.364448 7.6036315
000160 d5 0c 98 c0 7a 67 fd bf a5 9a 89 c0 d2 20 5b 40
       -4.7515664 -1.9797204 -4.3001275 3.4238782
000170 2d 1f 98 c0 65 a9 e4 bf 3a 02 9a c0 37 a0 98 40
       -4.7538056 -1.7864195 -4.812772 4.7695575
000180 fb 5e 65 c0 c2 65 ad c0 7b d3 ce c0 3f 38 c0 c0
       -3.5839221 -5.4186716 -6.4633155 -6.006866
000190 f2 1a 3f c0 d1 7d e8 c0 32 91 99 c0 7d ca 04 c1
       -2.9860196 -7.2653584 -4.798974 -8.299436
0001a0 c9 89 82 c0 c9 28 03 c1 23 00 cf c0 56 b7 d6 c0
       -4.0793195 -8.197457 -6.4687667 -6.70988
0001b0 de f9 fe 40 9a f2 19 c0 85 30 a9 c0 35 22 b3 c0
       7.9680014 -2.4054322 -5.287173 -5.5979257
0001c0 83 ec 84 c0 6e bd 82 c0 8f 39 26 41 4a 56 56 40
       -4.153871 -4.0856237 10.389052 3.3490167
0001d0 be 93 bd c0 08 b3 a0 c0 7f 3f 20 c0 ba 7c 0b 40
       -5.924285 -5.0218544 -2.5038755 2.1794877
0001e0 1f d6 b3 c0 0a 82 b8 c0 98 a2 92 c0 b9 ef 8c c0
       -5.619888 -5.765874 -4.582348 -4.404263
0001f0 79 0e 83 c0 de 8e af c0 09 60 a2 c0 e1 da 8e c0
       -4.0955167 -5.48619 -5.074223 -4.4642186
000200 83 d6 88 c0 74 53 8f 3f c7 d0 f1 c0 09 db b9 c0
       -4.2761855 1.1197343 -7.5567355 -5.8079877
000210 97 2a 90 c0 4d 5a e2 40 0c e2 dc c0 a2 8c ac c0
       -4.505199 7.073523 -6.9025936 -5.392167
000220 67 05 ba c0 51 81 26 c0 ce 46 d7 c0 71 61 dc c0
       -5.8131595 -2.6016428 -6.727393 -6.8868947
000230 b9 49 b9 c0 ca df 1a c0 bc 85 c8 c0 7e fe d6 c0
       -5.7902493 -2.419909 -6.266325 -6.718566
000240 fd 55 15 c0 f8 ce a2 c0 e6 97 99 c0 d4 19 9d c0
       -2.3333733 -5.0877647 -4.7997923 -4.909403
000250 e9 6c 90 bf 37 0e cc c0 7a 62 65 c0 e7 6e 9e c0
       -1.1283237 -6.376735 -3.5841355 -4.951038
000260 36 04 97 c0 f8 53 a7 c0 ec b2 8e c0 d6 2c 96 c0
       -4.719264 -5.229 -4.459341 -4.692973
000270 99 4f 04 41 5d 55 9a c0 be 1e 21 c0 2c a1 5a c0
       8.269433 -4.8229203 -2.5175014 -3.4160872
000280 1f f3 9b c0 36 5b 8e c0 0f ce c4 c0 6b a9 8b c0
       -4.873428 -4.448634 -6.1501536 -4.364431
000290 9b fa 2b c0 06 b0 5c c0 4c 13 96 c0 8a ad 5d c0
       -2.6871707 -3.4482436 -4.6898556 -3.463717
0002a0 f3 97 9d 3d cf b6 0a c0 b1 f7 91 c0 8a cb 6b c0
       0.07694998 -2.1674078 -4.561486 -3.684298
0002b0 e6 93 77 40 70 10 22 41 0a 09 49 c0 92 17 8e c0
       3.868402 10.129013 -3.1411767 -4.440377
0002c0 e7 d7 2c c0 4e 38 5d c0 56 72 64 c0 b3 6c c6 c0
       -2.7006776 -3.4565616 -3.5694785 -6.200769
0002d0 11 a9 b1 c0 95 da 9c c0 4e 8e bd c0 2d b5 8a c0
       -5.551888 -4.9016824 -5.923621 -4.334616
0002e0 cb 61 18 41 8e ec c6 bf d3 0a d7 bf 79 1e a5 c0
       9.523875 -1.5540941 -1.6800178 -5.15997
0002f0 ca fa 7b c0 ca 9f 60 c0 af 89 c6 c0 62 d2 88 c0
       -3.937182 -3.5097528 -6.204307 -4.2756815
000300 7f 18 35 c0 10 ee ce bf 3e d5 1d c0 9d 6a 2e c0
       -2.8296201 -1.6166401 -2.4661403 -2.7252572
000310 ec 7a 82 c0 a6 bc 9c c0 01 1d 83 c0 31 6b 78 c0
       -4.077505 -4.8980284 -4.0972905 -3.8815424
000320 7f be 35 41 83 46 af 3f 29 32 2e 40 52 12 b7 bf
       11.359008 1.3693393 2.7218115 -1.4302466
000330 24 09 73 c0 25 70 6b c0 89 b0 3e c0 a8 50 97 c0
       -3.797433 -3.6787198 -2.9795249 -4.7285957
000340 6b 1e 82 c0 e6 c2 88 c0 b0 3c b9 c0 d9 11 c2 c0
       -4.066213 -4.2737913 -5.788658 -6.0646787
000350 a0 13 58 c0 55 ee bd c0 a4 eb 8d c0 b6 54 ca c0
       -3.3761978 -5.9353433 -4.4350147 -6.3228407
000360 d3 d1 5c 40 88 8a 5f c0 fd 5e aa c0 ba 0e d9 c0
       3.4503067 -3.4928303 -5.3240952 -6.7830477
000370 7e 43 06 41 6d a2 6e 40 d3 05 9a c0 d6 72 96 c0
       8.391478 3.7286637 -4.813211 -4.701518
000380 48 db 6b c0 7f 3c a3 c0 61 de 7e c0 89 11 ab c0
       -3.6852589 -5.101135 -3.982323 -5.3458905
000390 ea 41 24 c0 40 db 9a c0 7b b1 68 c0 3a 38 af c0
       -2.566523 -4.839264 -3.6358325 -5.4756136
0003a0 16 2e a2 bf 6e 97 c8 c0 bb d4 33 bf d6 7c c8 c0
       -1.2670314 -6.268485 -0.70246476 -6.265239
0003b0 6c f5 1c bf 44 be 84 c0 a9 e8 0b 41 d1 b2 8d c0
       -0.61311984 -4.148226 8.744302 -4.428078
0003c0 86 47 10 c0 b4 b3 8c c0 0d 49 8d c0 08 48 90 40
       -2.2543654 -4.3969364 -4.4151673 4.508793
0003d0 c3 39 b0 c0 10 c4 c1 c0 a9 7e b7 c0 3c 84 51 c0
       -5.507051 -6.0551834 -5.7342114 -3.273696
0003e0 3d 10 80 c0 eb 23 41 c0 de 6b aa c0 74 92 1a 41
       -4.001982 -3.0178173 -5.3256674 9.660755
0003f0 a4 8a c1 c0 07 17 b1 c0 cc a2 a9 c0 61 2e 21 c0
       -6.048174 -5.534061 -5.3011227 -2.5184557

logic_layers.2.weights f4 [2560, 16]
000000 80 a1 20 c0 4f 9d 90 c0 32 93 c5 bf b6 13 cd c0
       -2.5098572 -4.5192027 -1.5435545 -6.408656
000010 2e 1d 8f c0 16 a9 9e c0 dd a1 a7 c0 85 60 81 c0
       -4.472312 -4.9581404 -5.2385087 -4.043032
000020 ac 22 b8 bf f7 cd 65 c0 db 45 0e 41 1d af 6c c0
       -1.4385581 -3.590696 8.892055 -3.698188
000030 f4 ab a0 c0 5a a2 9a c0 aa df 1a c0 bc 9e a3 c0
       -5.0209904 -4.8323183 -2.4199014 -5.1131268
000040 04 ac 40 c0 33 05 a5 bf 0c 3f 4f c0 7b 4d 08 41
       -3.010499 -1.2892212 -3.238223 8.518916
000050 8e 5f 9b c0 1d ea 74 3e 17 63 c2 c0 ac d4 59 bd
       -4.8554144 0.23917432 -6.074596 -0.053181335
000060 20 ff 85 c0 3f 1b 6c c0 01 e3 ce c0 86 e2 89 c0
       -4.187393 -3.689163 -6.4652104 -4.308902
000070 b9 14 a4 c0 32 6f 53 c0 7b 08 65 c0 6c ce 24 c0
       -5.1275296 -3.3036618 -3.5786426 -2.575099
000080 22 93 8e bf 42 8f 90 c0 77 a0 ac 3f 44 2d 53 c0
       -1.1138651 -4.5174875 1.348647 -3.2996378
000090 66 68 88 c0 94 10 84 c0 2c 9c 68 c0 59 a0 7a c0
       -4.262744 -4.1270237 -3.634532 -3.9160368
0000a0 b9 bd 79 c0 6d 1d a5 c0 9b ea 04 41 7d 5a c0 bf
       -3.9022048 -5.159842 8.307277 -1.5027615
0000b0 11 37 a5 c0 bd 7e e1 c0 2b b9 28 bf 6c 58 97 c0
       -5.162972 -7.046721 -0.65907544 -4.7295437
0000c0 26 6c be c0 df 2e aa c0 d3 67 51 c0 32 ff 3a bf
       -5.9507017 -5.3182216 -3.271962 -0.7304565
0000d0 43 bc b1 c0 97 a6 ad c0 24 35 b0 c0 b1 42 97 c0
       -5.554231 -5.4265857 -5.506487 -4.726891
0000e0 29 23 78 c0 3b f3 78 c0 b1 71 06 41 44 dd 26 c0
       -3.877146 -3.8898456 8.402757 -2.607255
0000f0 69 d4 ab c0 09 4b b7 c0 17 1e 9f c0 88 70 97 c0
       -5.369679 -5.7279096 -4.972423 -4.7324867
000100 35 f7 04 c0 6b 09 11 41 1b a9 86 c0 99 40 25 c0
       -2.0775883 9.064799 -4.2081428 -2.5820677
000110 29 81 56 c0 c1 f9 d4 3f b4 95 a3 c0 ee 2c a9 3d
       -3.3516333 1.6638719 -5.1120243 0.08260523
000120 f8 1b 8e c0 1c 1f 81 c0 36 89 c3 c0 b5 3f 6f c0
       -4.440914 -4.0350475 -6.1104994 -3.7382634
000130 92 d0 b3 c0 56 9f 03 c0 87 cf a2 c0 dc a2 7e c0
       -5.6192102 -2.0566 -5.087833 -3.9786901
000140 ac 2d 67 c0 9a 0e a3 c0 32 1d a7 c0 ad 2b 86 c0
       -3.6121626 -5.0955324 -5.222314 -4.1928315
000150 b3 05 50 bf d3 d9 3a bf 6e 94 d3 c0 9f 86 e7 c0
       -0.81258696 -0.72988623 -6.611869 -7.2351832
000160 78 f4 c9 c0 0a 3b 35 c0 46 7d a8 c0 17 d2 9d c0
       -6.3110924 -2.8317285 -5.265292 -4.9318957
000170 07 ce 2b c0 78 04 06 41 ad 3a 9e c0 c0 f7 81 c0
       -2.68445 8.376091 -4.9446626 -4.061493
000180 b7 e5 5b c0 9b f2 71 c0 c3 90 bb bf 64 9d 21 c0
       -3.4358957 -3.7804325 -1.4653553 -2.5252314
000190 ca 5b 75 c0 2f 05 6f c0 1d 2b 52 3e f9 b9 85 c0
       -3.8337274 -3.7346914 0.20524259 -4.1789517
0001a0 63 2f ee bf 28 42 8a c0 af 99 57 40 7a 8c 3e c0
       -1.8608211 -4.3205757 3.368755 -2.977324
0001b0 f8 2a 98 c0 ed a8 80 c0 42 91 3d 41 10 87 28 c0
       -4.755245 -4.020621 11.847963 -2.6332436
0001c0 f7 3a d1 c0 68 c7 9d c0 69 70 a8 c0 e6 94 a1 c0
       -6.538448 -4.9305916 -5.263722 -5.049426
0001d0 d2 31 5d c0 da 7f 2c c0 52 75 32 c0 a3 ab a7 be
       -3.4561658 -2.6953034 -2.7884107 -0.32748136
0001e0 6e 9a e3 c0 0a 18 c7 c0 00 46 b5 c0 71 0b ef c0
       -7.1126013 -6.2216845 -5.664795 -7.4701467
0001f0 3b 3c 3e c0 b8 c7 a8 40 61 0a 2e c0 86 8b e5 40
       -2.9724262 5.2743797 -2.7193835 7.1732817
000200 a4 4d 5f c0 73 2b db bf e1 a8 f9 bf b3 08 97 c0
       -3.4891138 -1.7122635 -1.9504663 -4.719812
000210 cc 22 86 3f de ec 92 3f a4 ce 11 c0 de 9e 73 bf
       1.0479369 1.1478536 -2.2782373 -0.9516429
000220 14 4e 4b c0 60 7a 0e c0 26 33 31 c0 92 2e 45 c0
       -3.1766405 -2.2262192 -2.7687469 -3.0809674
000230 c6 8f 96 bf 79 4f 39 41 93 64 9f bf 02 77 32 40
       -1.1762626 11.5819025 -1.2452568 2.7885137
000240 f8 e1 65 c0 4c 91 8f c0 3c 76 4c c0 d3 70 13 c0
       -3.591917 -4.4864864 -3.1947165 -2.3037612
000250 bd 01 9b c0 8d 6b 62 c0 11 32 81 c0 6b 9d 89 c0
       -4.843962 -3.5378144 -4.0373616 -4.300466
000260 ae e3 5b c0 23 cf 2a c0 eb eb a0 40 38 ef ad 40
       -3.4357715 -2.6688926 5.0287986 5.4354515
000270 86 29 50 c0 c7 05 4b c0 06 2b 79 40 eb ad 7a 40
       -3.2525344 -3.1722276 3.893251 3.916865
000280 77 50 95 c0 f2 70 90 c0 30 7f 70 c0 48 0b 3b c0
       -4.6660724 -4.5137873 -3.757763 -2.9225636
000290 01 d3 98 c0 13 ef ad c0 16 7f 5e c0 e5 66 9e c0
       -4.7757573 -5.435434 -3.4765067 -4.9500604
0002a0 59 c8 4e c0 0a 6d 46 c0 8b 65 16 41 78 97 19 bf
       -3.2309783 -3.1004052 9.399791 -0.5999675
0002b0 5e 21 b5 be 08 7b 43 c0 d8 0a 43 3f 37 0b 1f 3f
       -0.3537702 -3.0543842 0.7618842 0.6212649
0002c0 fe 96 86 bd ed 4e 73 3f ef 33 c8 3f 31 70 87 40
       -0.06571768 0.95042306 1.5640849 4.2324452
0002d0 ab c3 a7 3f eb 28 7d 3f a3 30 d0 3d 6e 26 96 3f
       1.3106588 0.9889056 0.10165527 1.1730478
0002e0 02 2f 0f c0 2d 8d 4a c0 e4 e1 1e c0 3d e9 65 bf
       -2.2372441 -3.1648667 -2.4825373 -0.8980902
0002f0 13 d2 ff bf 70 5a bb bf 0f 21 0e c0 c4 96 a0 bd
       -1.9985985 -1.4636974 -2.2207677 -0.07841256
000300 72 0f 6b c0 f8 f3 b1 c0 fc fa ae 3f ab d2 cd c0
       -3.6728177 -5.5610313 1.3670344 -6.4319663
000310 7c 6f 84 c0 5f de cc c0 92 d0 56 c0 db 03 a3 c0
       -4.138609 -6.402145 -3.3564801 -5.0942206
000320 6e 24 52 c0 37 d9 bb c0 3c 8f f3 40 a0 cb d1 c0
       -3.2834735 -5.8702655 7.6112347 -6.5561066
000330 d0 b4 b0 c0 3f 07 db c0 c3 07 94 c0 e2 51 ab c0
       -5.522072 -6.8446345 -4.6259475 -5.3537455
000340 0c 7a 71 c0 1c d9 ca bf 14 4f 3d c0 6e b7 8e bf
       -3.7730742 -1.5847507 -2.9579515 -1.1149728
000350 69 61 90 c0 d3 14 86 bf e5 41 81 c0 05 41 24 41
       -4.511891 -1.0475105 -4.039294 10.265874
000360 21 e4 91 c0 c4 75 1a c0 03 82 84 c0 a1 42 2c c0
       -4.559098 -2.4134378 -4.1408706 -2.6915667
000370 b6 9f 9b c0 e9 71 01 c0 ec 0e 3e c0 c9 45 3a 3d
       -4.863246 -2.0225775 -2.9696608 0.04547671
000380 35 fb 2e c0 ee ba c5 bf a0 c3 9d bf 34 2c 03 41
       -2.7340825 -1.5447671 -1.2325325 8.198292
000390 15 64 5c c0 de 02 ff bf a2 4b a8 c0 59 01 3e 40
       -3.4436085 -1.992275 -5.2592325 2.9688323
0003a0 b8 ad b7 c0 4e 65 8f c0 17 28 8d c0 75 c9 a9 c0
       -5.739956 -4.4811163 -4.411144 -5.305842
0003b0 f7 5a d7 c0 04 1e 81 c0 5e bf 97 c0 d1 26 1c c0
       -6.729854 -4.034914 -4.7421103 -2.4398692
0003c0 86 6e 6c c0 fe c5 51 c0 24 59 87 c0 cb 06 92 c0
       -3.6942458 -3.2777095 -4.2296314 -4.563329
0003d0 95 82 33 41 b2 49 62 40 cf ed 0a c0 73 af 37 3f
       11.21938 3.535748 -2.1707647 0.7175209
0003e0 32 92 38 c0 31 05 97 c0 ee fb a4 c0 23 af 92 c0
       -2.883923 -4.7193837 -5.155753 -4.583879
0003f0 14 4c 98 c0 a9 06 1c c0 d3 3b 9a c0 23 88 51 c0
       -4.759287 -2.4379065 -4.8198028 -3.2739341

logic_layers.3.weights f4 [2560, 16]
000000 ad b9 40 bf e6 95 b8 40 93 19 c4 bf 29 09 0d 40
       -0.7528332 5.768298 -1.5320305 2.203684
000010 50 7c d0 bf 7b 78 3e 41 9f a1 2a bf eb 5d 1a 40
       -1.6287937 11.904414 -0.66652864 2.4119823
000020 43 16 cb bf 54 ef 23 c0 cf 30 84 c0 af 54 c1 bf
       -1.5866169 -2.5614824 -4.130958 -1.5103968
000030 a9 6d 1b c0 22 b2 22 c0 98 26 4c bf fc 47 0b bf
       -2.4285681 -2.5421224 -0.7974639 -0.54406714
000040 b2 28 1a c0 f2 85 25 41 cf 64 9e bf 0b 18 38 40
       -2.4087338 10.3452015 -1.2374514 2.8764675
000050 dc df 2f c0 c1 94 4d 40 f7 88 97 c0 2a 9f 43 c0
       -2.7480383 3.2122042 -4.7354693 -3.0565896
000060 0e 42 73 c0 db ba 0c c0 15 39 3b c0 3f c7 18 c0
       -3.8009067 -2.1989048 -2.925359 -2.387161
000070 e4 e7 3c c0 2a 2e 37 bf 6b 96 75 c0 d1 30 0e c0
       -2.9516535 -0.71554816 -3.8373058 -2.2217295
000080 bd 47 7a c0 d3 fe 15 be 65 20 07 c0 45 0f 98 be
       -3.9106286 -0.14647989 -2.1113522 -0.2969915
000090 b6 0e 51 c0 9e 15 58 c0 70 cb f1 bf 4f 5c 9a bf
       -3.266523 -3.3763194 -1.8890209 -1.205942
0000a0 78 f9 ed bf ac 71 a8 bf 4d 69 81 c0 3e 9a 17 41
       -1.8591757 -1.315969 -4.044104 9.475157
0000b0 bb 7c 7b c0 53 95 67 bf c9 3b 3d c0 2b 99 58 be
       -3.929488 -0.90462226 -2.956774 -0.21152179
0000c0 58 e8 93 c0 92 2a eb bf 99 cb 22 c0 f4 18 a5 c0
       -4.6221123 -1.8372366 -2.5436766 -5.159296
0000d0 43 7f d2 bf 23 6f 02 41 04 32 2c c0 47 91 73 c0
       -1.6445087 8.152133 -2.6905527 -3.805742
0000e0 df 01 81 c0 b3 73 41 c0 e0 74 54 c0 62 96 68 c0
       -4.0314784 -3.0226867 -3.3196335 -3.6341786
0000f0 15 5c 91 c0 07 88 38 c0 1d 91 5c c0 b6 08 b4 bf
       -4.5424905 -2.8833025 -3.446357 -1.4065158
000100 34 40 51 be 6e 69 24 41 82 48 0d c0 e6 97 ce 3f
       -0.20434648 10.27574 -2.2075505 1.6140106
000110 95 13 78 c0 33 b8 25 bf f5 e4 45 c0 c9 ec 28 3f
       -3.8761952 -0.6473419 -3.0920994 0.65986305
000120 85 cb 4a c0 31 de 5a bf 64 88 5f c0 a9 d6 88 bf
       -3.1686718 -0.8549529 -3.4926996 -1.0690509
000130 8d a3 2c c0 04 69 e3 bf 91 d8 09 c0 db aa d6 bf
       -2.6974823 -1.7766423 -2.1538432 -1.6770891
000140 99 0f 36 c0 1a b0 0d c0 4f 43 f2 bf eb c9 f5 40
       -2.844702 -2.2138734 -1.8926791 7.680898
000150 f8 0b 43 c0 4c 59 20 c0 76 18 62 c0 2d 9b 9e be
       -3.0476055 -2.5054502 -3.532743 -0.30977765
000160 5e 78 6f c0 94 46 57 c0 38 2a 35 c0 80 6c 00 c0
       -3.7417216 -3.3636827 -2.8307018 -2.0066223
000170 2b 47 a4 c0 1b 4e 79 c0 5c 99 5d c0 f0 d0 1a c0
       -5.1336875 -3.8953922 -3.4624853 -2.4190025
000180 be 45 4b c0 2d 41 71 bf 34 65 83 c0 c7 40 46 c0
       -3.1761317 -0.94240075 -4.106104 -3.0977037
000190 14 08 2a c0 2a eb 1d 40 30 2f cb c0 3f 6a c9 bf
       -2.656743 2.4674783 -6.34951 -1.5735549
0001a0 a9 6e eb bf da 25 2a c0 92 3a 38 c0 7e 73 10 c0
       -1.8393146 -2.6585603 -2.8785748 -2.257049
0001b0 79 e7 05 3f d9 79 0c 41 5f 01 55 c0 38 46 56 c0
       0.52306324 8.779748 -3.3282087 -3.3480358
0001c0 a2 a1 a1 3e a6 7c 50 c0 e7 a0 d7 bf de ba 68 c0
       0.3156863 -3.257608 -1.6845978 -3.6364055
0001d0 a9 98 4e c0 f4 17 16 c0 82 eb 3b c0 dd 15 3e c0
       -3.2280676 -2.345212 -2.9362493 -2.9700844
0001e0 28 90 32 41 dd 22 32 bf 5f 4a 59 40 7e 82 a7 3f
       11.160194 -0.6958445 3.3951643 1.3086698
0001f0 80 9f 6b bf 0d 6c cc bf 6e fd ac bf c2 dc 67 c0
       -0.9204025 -1.5970474 -1.3514841 -3.622849
000200 23 52 44 c0 00 d3 5a c0 8b 84 83 c0 b2 58 40 c0
       -3.0675132 -3.4191284 -4.1099296 -3.0054135
000210 54 7b e0 be 7a 2a 07 41 12 d1 00 c0 79 03 e1 3f
       -0.43844092 8.44787 -2.0127606 1.7579185
000220 69 aa 37 c0 aa 17 90 c0 2f da 8d c0 26 9f 4f c0
       -2.869776 -4.5028887 -4.4328837 -3.2440886
000230 84 4b 90 c0 0d 01 1d c0 f6 ca 85 c0 cd 0e 45 bf
       -4.509218 -2.4531891 -4.1810255 -0.7697571
000240 aa 5d b2 be e9 04 05 c0 38 aa 8c bf d8 96 2e c0
       -0.34837085 -2.0784247 -1.0989447 -2.7279568
000250 c8 0e 98 40 35 bf 20 bf 8a 39 81 40 ad c1 61 bf
       4.7518044 -0.6279176 4.038274 -0.8818615
000260 37 f4 84 bf 61 5c 48 c0 72 0a 51 bf f4 2c 40 c0
       -1.0387028 -3.1306384 -0.81656563 -3.0027437
000270 8b d8 1b 41 75 f4 78 be 46 50 12 40 bf b6 4e bf
       9.740367 -0.24312003 2.2861495 -0.807476
000280 0b cd 31 c0 e9 2b 8c bf e5 6d ff bf 00 8a a4 c0
       -2.7781398 -1.09509 -1.9955412 -5.1418457
000290 a5 cd fd bf 3e 9e 8a 3e 48 ab a4 c0 d1 52 72 c0
       -1.9828383 0.27073854 -5.1459084 -3.7863047
0002a0 d4 da 76 3f 56 44 36 3e 89 80 44 c0 ce 72 1e be
       0.96427655 0.17799506 -3.0703452 -0.15473482
0002b0 57 6c 83 40 15 1a 32 41 56 86 a7 bf aa b4 b2 bf
       4.106975 11.131368 -1.3087871 -1.3961384
0002c0 8e c5 be bf df 67 2e c0 de 28 06 c0 fb 73 82 c0
       -1.4904039 -2.7250898 -2.0962443 -4.076658
0002d0 4a 6f bd 3f 64 9e fd 40 a0 b2 0e 41 6c 5e d7 3f
       1.4799588 7.925585 8.91861 1.682569
0002e0 74 d2 1d c0 1b a3 6c c0 b6 bf 81 c0 68 b8 c9 bf
       -2.46597 -3.6974552 -4.054652 -1.5759401
0002f0 50 26 53 c0 6d 19 e6 bf ac f6 f9 bf 42 c5 50 bf
       -3.2992134 -1.7976509 -1.9528403 -0.8155099
000300 56 8f 2a bf 49 c9 44 bf a2 9e b0 bf a1 19 15 41
       -0.66624963 -0.76869637 -1.3798411 9.318757
000310 5d 7c 16 c0 0c 4b 0d c0 e3 cf 1d c0 28 2d eb be
       -2.3513405 -2.2077055 -2.4658134 -0.4593289
000320 98 e4 a8 bf 80 1c 50 c0 af 06 5e c0 1c 24 b6 3e
       -1.3194761 -3.2517395 -3.469158 0.35574424
000330 88 2f 98 c0 c3 6b 48 bf 24 4b d9 bf 02 a5 48 c0
       -4.755802 -0.7828943 -1.6976056 -3.1350713
000340 2e 15 92 c0 e5 eb 82 c0 3e 15 0d 41 9d 12 c8 be
       -4.5650854 -4.0912957 8.817686 -0.390767
000350 bf e3 6f c0 cd e4 98 c0 9a fb 2d c0 df 3d 38 c0
       -3.7482755 -4.77793 -2.7184815 -2.8787763
000360 15 e1 8d c0 cb cd 23 c0 a7 51 02 3f bd b8 09 c0
       -4.433726 -2.5594356 0.5090584 -2.1519005
000370 01 84 8f c0 4b ce 83 c0 20 4c 1b c0 3e c0 15 c0
       -4.4848638 -4.1189322 -2.4265213 -2.3398585
000380 79 2c 27 bf 87 94 11 bf 70 65 aa 3f 94 a6 f1 3e
       -0.65302235 -0.5686726 1.3312206 0.47197402
000390 be e6 33 c0 a9 c9 41 c0 ec 84 20 41 bd 2d 60 bf
       -2.8109584 -3.0279334 10.032452 -0.8756979
0003a0 81 bb ca 3e bd 9a 92 bf 6e 4f 18 40 c4 e1 2e bf
       0.3959618 -1.1453472 2.379848 -0.6831324
0003b0 ea f8 eb bf 01 41 fd bf d7 74 bb 3f 80 c5 6c 3f
       -1.8435338 -1.9785463 1.4645032 0.9248886
0003c0 bf 8e cd bf 39 3a 1e c0 c0 2d 98 c0 bd b7 0f c0
       -1.6059188 -2.4723036 -4.7555847 -2.2455895
0003d0 a8 0c 1a c0 20 b0 9a c0 47 d2 95 c0 7a 24 23 c0
       -2.4070225 -4.8339996 -4.6819186 -2.5491014
0003e0 d9 40 17 c0 33 01 16 c0 b4 52 0d 41 94 a7 86 3f
       -2.363333 -2.3438232 8.832691 1.0519891
0003f0 4c 11 8b c0 6b d4 53 c0 4a eb 6c c0 47 68 0b c0
       -4.3458614 -3.30984 -3.701861 -2.1782396
