trained_models/mnist_trained_16x16/model_001.pth (torch, 411607 bytes, 2 tensors)

logic_layers.0.weights f4 [2560, 16]
00000000: 2000 90c0 e6fe bdc0 70eb 8ac0 5e23 8fc0
00000010: 6571 afc0 9b34 b8c0 934a 81c0 7a52 93c0
00000020: 7fe5 6fc0 fe7b 85c0 fb61 5f41 8f6f af3f
00000030: 9374 6fc0 a98c 96c0 46ec 7440 e464 953f
00000040: 54df a2c0 71e6 bec0 d886 bdc0 e9d1 c6c0
00000050: dbdf 1a41 27fc c3c0 69e5 9ec0 4d64 00c1
00000060: 66fa 7ec0 0db3 dec0 4240 e2c0 b88c b8c0
00000070: cb94 c13f 3103 a7c0 5f75 99c0 e2fc 67c0
00000080: 83b5 abc0 1bb9 81c0 7e14 8cc0 7671 50c0
00000090: b4f2 8cc0 8b2b 8dc0 8139 7ac0 8538 c2c0
000000a0: 6af4 5e41 0ae5 ed3f 6dd5 b4bf e90a 81c0
000000b0: e533 843f b0fe 6540 5063 24c0 63b9 7fc0
000000c0: bba0 c5c0 fc2a 9ec0 4807 ccc0 22be 92c0
000000d0: 0dcf 9fc0 125e 8bc0 f655 b4c0 98ed 9fc0
000000e0: 645e 93be e314 5241 c7de 06c0 fbbd 40c0
000000f0: 050d 71c0 6ebc 4bc0 1303 56c0 b2bc afc0
00000100: 5a69 80c0 a7df 8dc0 9543 71c0 8ffd c7c0
00000110: 7660 9cc0 2fe8 7cc0 66bb a0c0 1189 a6c0
00000120: 9167 bebf ed37 313f 2030 cbbf 6279 4741
00000130: 13e3 81c0 c002 46c0 b24e 6ac0 ea0f 45c0
00000140: 46e6 c6c0 b850 d5c0 38d9 cfc0 b27c e7c0
00000150: 0fab 9cc0 3be3 c3c0 552b bfc0 9e18 cfc0
00000160: 8538 2541 dedc a5c0 b134 a4c0 6f98 bcc0
00000170: 21e3 22bc e032 b0c0 4879 abc0 c5da cbc0
00000180: d59e 23c0 6210 bebf 7782 1f3f 9444 3540
00000190: a825 dcbf eb67 33c0 ce3f f13f 46f1 8341
000001a0: ca9e 5ec0 4374 55c0 5dbf dcbf de96 c2bf
000001b0: e826 fdbf 9569 11c0 ae48 38bf 1bf9 7fbf
000001c0: 1477 5dc0 7a4c c3c0 d0f5 89c0 a163 98c0
000001d0: 77d5 5641 b5d8 febd 5229 f2bf 5e2f 7fc0
000001e0: 354a afc0 b8e0 8ac0 6b76 abc0 d7e3 99c0
000001f0: 69d4 f4bf 8c7a 7ac0 c752 74c0 67cb 80c0
00000200: 5169 33c0 8127 73c0 984c 6ec0 0377 2dc0
00000210: 48e5 85c0 eb7a 31bf b270 3ac0 5fb3 1d3f
00000220: 0846 1bc0 9103 50c0 6d46 c5bf fd11 4e3d
00000230: 5e90 babf 45d6 dabf 8595 e13e 747c ff40
00000240: 2b22 c9c0 e890 abc0 4650 b8c0 4caf cdc0
00000250: 94ba bbc0 32b3 bfc0 5703 bac0 a3f4 c5c0
00000260: 1a33 3941 45d1 97c0 64a2 4ebf f185 66c0
00000270: b70e 89bf ff94 aec0 cecb 54c0 ef3b 8cc0
00000280: 42f3 f0bf 254e 44c0 d42a 60c0 79b1 4cc0
00000290: 1193 1140 cccf 4940 854f 3640 a96c 7f41
000002a0: c3c4 6ec0 c13e 0ac0 077b 03c0 ed57 95c0
000002b0: e697 27c0 6a61 29c0 1b0e 48c0 42e4 f9bf
000002c0: 527f 8cc0 ca64 5bc0 3269 2840 dd7e 5240
000002d0: 6742 bbc0 1496 81c0 fe5c 6b3e 1460 5c41
000002e0: b59f 4ec0 6daa 87c0 83fd 5bc0 d040 67c0
000002f0: 9e2c 7bc0 04b0 8fc0 a787 93c0 9035 84c0
00000300: 1bd3 61c0 16fc 80c0 69bd 2cc0 52e5 90c0
00000310: 4631 cfbf 6b31 70c0 d765 51c0 b305 5cc0
00000320: 6051 6a41 6816 823e f99b 05c0 f5f3 a0bf
00000330: b954 203e 101a bfbe 9de1 d7bf 3b52 f9bf
00000340: 16bb 2ec0 5956 afc0 f557 32c0 8622 88c0
00000350: e071 97c0 0148 7ac0 012a 8bbf ce96 09c0
00000360: 1f17 97c0 b6b9 71c0 5303 563f ee87 3e40
00000370: 64f4 91c0 e521 5ac0 e467 3840 9834 7d41
00000380: b70d 33bf 21d0 b5bf 654f b9c0 c756 50c0
00000390: 693b ba40 ae4c 4941 b2e7 89c0 2cd0 95c0
000003a0: 3250 25c0 a638 09c0 051d b2c0 dc4c a8c0
000003b0: 4549 e7bf ba9e 53c0 152e 92c0 5cab a6c0
000003c0: 4959 4d41 8c4d f03f fab6 933b d13a 1ec0
000003d0: c071 2dbf 98a9 32bf c6df a7bf 739c 23c0
000003e0: f0df 2cbf 411a 0cc0 bd70 92c0 25a3 b4c0
000003f0: 327e 01c0 5512 03c0 154e 8bc0 223f 6bc0
-4.5000153 -5.9373655 -4.34124 -4.4730673 -5.482592 -5.7564216 -4.0403533 -4.603818
-3.7483823 -4.171386 13.961421 1.370592 -3.7414901 -4.7046704 3.826921 1.1671414
-5.0897617 -5.96563 -5.9227104 -6.213124 9.679652 -6.1245303 -4.965504 -8.0244875
-3.984033 -6.959357 -7.070344 -5.7671776 1.5123533 -5.2191396 -4.7955775 -3.6248097
-5.365907 -4.053846 -4.3775015 -3.256925 -4.404627 -4.4115653 -3.9097598 -6.0693994
13.934671 1.8585522 -1.4127632 -4.032582 1.0328337 3.59367 -2.5685616 -3.99569
-6.1758704 -4.942747 -6.375889 -4.5857096 -4.9940248 -4.355233 -5.6354933 -4.997753
-0.28782952 13.130099 -2.1073472 -3.0115955 -3.7664196 -3.1833758 -3.3439376 -5.491784
-4.0128603 -4.4335513 -3.7697499 -6.249702 -4.886775 -3.9516714 -5.022876 -5.2042317
-1.4875356 0.6922596 -1.5874062 12.467134 -4.058969 -3.0939178 -3.6610532 -3.0790963
-6.2156096 -6.6661034 -6.495266 -7.2339716 -4.895881 -6.121488 -5.9740396 -6.471755
10.326299 -5.1832113 -5.131432 -5.8936076 -0.009941847 -5.5062103 -5.358555 -6.3704553
-2.5565693 -1.484875 0.6230845 2.8323107 -1.7198992 -2.8032176 1.8847597 16.49281
-3.4784417 -3.335221 -1.72459 -1.5202291 -1.9777498 -2.2720692 -0.719859 -0.9998948
-3.460393 -6.1030855 -4.3112564 -4.7621617 13.427115 -0.12443677 -1.891886 -3.987266
-5.4778085 -4.3399315 -5.3582053 -4.8090625 -1.9127322 -3.9137297 -3.8175523 -4.0248294
-2.803303 -3.7992861 -3.723425 -2.710389 -4.1842384 -0.6932818 -2.9131284 0.61601824
-2.4261494 -3.2502177 -1.5412117 0.050310124 -1.4575307 -1.709664 0.44059387 7.983942
-6.285421 -5.3614388 -5.759799 -6.4276485 -5.8665257 -5.9906244 -5.8129077 -6.186113
11.574976 -4.7442956 -0.8071654 -3.6019251 -1.0707616 -5.455688 -3.3249393 -4.382316
-1.8824236 -3.0672696 -3.502614 -3.198332 2.2746012 3.153308 2.8486035 15.964028
-3.7307594 -2.1600802 -2.054384 -4.666983 -2.6186461 -2.6465707 -3.125861 -1.9522784
-4.390542 -3.4280267 2.6314206 3.2889931 -5.8518558 -4.04957 0.22984692 13.773457
-3.2284977 -4.239554 -3.4373481 -3.6133308 -3.9245982 -4.4902363 -4.610309 -4.1315384
-3.5285099 -4.030772 -2.6990607 -4.527993 -1.6186912 -3.7530162 -3.2718408 -3.4378479
14.644867 0.2540772 -2.0876448 -1.257445 0.15657319 -0.37324572 -1.6865727 -1.947822
-2.7301688 -5.4792905 -2.7866185 -4.2542143 -4.7326508 -3.9106448 -1.0872194 -2.1498294
-4.7215724 -3.77696 0.8359882 2.9770465 -4.561083 -3.4083188 2.881341 15.82534
-0.699428 -1.4204141 -5.7909417 -3.2552965 5.819752 12.581221 -4.309533 -4.6816616
-2.5830197 -2.1440825 -5.5660424 -5.2593822 -1.8069235 -3.306563 -4.5681252 -5.208418
12.834298 1.8773665 0.0045078965 -2.4723399 -0.67751694 -0.6979003 -1.3115165 -2.556424
-0.675292 -2.1891024 -4.576262 -5.644915 -2.0233274 -2.047994 -4.3532815 -3.6757283

logic_layers.1.weights f4 [2560, 16]
00000000: b178 59c0 0dea 3dc0 4c54 61c0 d18c 6ac0
00000010: dc3c 8e40 d0e6 6141 c8ae 0ec0 19a4 7b3f
00000020: 7b1b 5ac0 180a 7ac0 b54a 9dc0 d8af 74c0
00000030: 247f 9cc0 f5a1 67c0 a316 2ac0 88cf d0bf
00000040: 489d e1bf 7ca6 58c0 308e 1ec0 0f94 7fc0
00000050: e5b2 71c0 032d 40c0 3e1d 09c0 084d 43c0
00000060: e272 c7bf 1238 5bc0 5f2c aabf 236d 18c0
00000070: 62ee 5941 9dd3 a0be b2b8 e5be c798 40c0
00000080: 5733 56c0 361a 75c0 ff90 3fc0 5721 46c0
00000090: cde1 13c0 9cdf aac0 f8cb 71c0 efb2 99c0
000000a0: a0e3 5841 10d7 ae3f d64a d5be 55c1 873f
000000b0: 48f1 86c0 a91d 95c0 1341 70c0 d086 0dc0
000000c0: 8ff4 6ac0 a9f1 8fc0 0e19 78c0 cc3d a7c0
000000d0: 00f6 88c0 1abb 2c41 0d75 87c0 462d 0dc0
000000e0: 223d 81c0 3ea3 cac0 0f22 cac0 f7ae a3c0
000000f0: 9583 a8c0 6a74 aac0 b964 b4c0 c3ac 88c0
00000100: 2e72 b2c0 3fbf 93c0 9910 bec0 ec09 8dc0
00000110: bdf9 55c0 77ab 8bc0 a94b abc0 7986 95c0
00000120: 4028 99c0 41c6 92c0 24d8 9ac0 f185 6bc0
00000130: e2ce 65be 4206 3c41 1ba9 c0c0 1fa9 a6c0
00000140: d22c c1bc 891a 44c0 13e4 48c0 097f 3cc0
00000150: dd80 5fc0 b74c 43c0 2a9b 8ec0 5ea9 82c0
00000160: 097e 9940 ef45 5e41 d26d a540 74f7 50bf
00000170: 87f1 8dbf 7a2c 5dbf b541 bfbe 4a3f 0cbd
00000180: c851 3fc0 211f 5dc0 729b a4c0 14c0 89c0
00000190: 93d3 c3bf 08dd e8be b345 8ec0 9e3a 5dc0
000001a0: afe9 e4bf 586d 68c0 e12b 8cc0 55a5 91c0
000001b0: 44e1 5d41 2d67 b83e 1d41 24c0 c099 37c0
000001c0: 4709 cdc0 5e62 b7c0 c0cb b1c0 37f8 cec0
000001d0: 3191 cdc0 9eab c7c0 47d5 f9c0 7b5a d0c0
000001e0: 88f7 3241 76be 9dc0 cdf2 b4c0 13bd afc0
000001f0: e29b 1ac0 02c6 a6c0 0ba6 aec0 8893 53c0
00000200: 9c1f 03c0 0e5e 1dc0 2626 5cc0 f363 81c0
00000210: 8d55 52c0 d61d aec0 66ff 8ec0 1b49 adc0
00000220: c249 1540 6890 b4c0 85fd c73e aef3 5ec0
00000230: 200b 6041 f42d 6dc0 a13e 8b3e d89f 99bf
00000240: 0485 62c0 ebf9 09c0 c7ff a5c0 e11e d7bf
00000250: 4436 b1c0 3182 37c0 fd79 66c0 ff21 3d41
00000260: 3750 51c0 24a1 c7c0 602c d7c0 e5e2 8ac0
00000270: fccc cbc0 28f9 8dc0 ba99 d1c0 7723 b0c0
00000280: ddb3 32c0 e135 fdbf 0e16 8c41 c5b4 a940
00000290: 0866 5bc0 e4ca 57c0 a3aa dfbf 6c2c dc3e
000002a0: ee43 03c0 801e a4c0 7c8e 51c0 3095 23c0
000002b0: 1607 8bc0 ab4a 83c0 8e03 09c0 89bb f3bf
000002c0: 9c78 95c0 ce8a a9bf 9835 96c0 7a3b 3441
000002d0: 6cfe 68c0 f159 9bc0 6c81 aac0 38d8 a1c0
000002e0: d4ff cec0 f430 83c0 5286 91c0 50c7 4ac0
000002f0: 9afb bdc0 d9c0 bcc0 85a0 9ac0 2615 75c0
00000300: 922c 38c0 c8af 54c0 8d1a 6fc0 ee45 89c0
00000310: 9414 83c0 6722 94c0 98c0 93c0 6a7c 97c0
00000320: 7e74 7c41 60d2 98c0 94ba 3940 312c 8bbf
00000330: c869 f7bf 8265 a3c0 60d7 c3bf 0650 18c0
00000340: 4e85 83c0 fd5e 54c0 cd81 81c0 d2a0 07c0
00000350: 21d2 80c0 07c0 6ec0 09c2 b4c0 89a0 76c0
00000360: 8e3c e3bf 5a38 6b41 9741 81c0 ff3b 9040
00000370: 990e 87c0 3ea7 7ec0 8e49 b3c0 c301 22c0
00000380: 2340 83c0 abcd b1bf 850c 4bc0 a9fb 4641
00000390: 37e9 71c0 a782 a1c0 c053 90c0 161f cfbf
000003a0: d9a3 30c0 68a0 6bc0 a812 55c0 2e11 d8bf
000003b0: de07 80c0 7424 96c0 1c32 4ac0 8450 fbbf
000003c0: ec15 4fc0 8922 22c0 1cdb fbbf a95a 83c0
000003d0: da81 1dc0 e9fa 94c0 9321 e9bf 0231 a6c0
000003e0: 822c 12bf cec2 34c0 8e6e 6841 4f93 4dc0
000003f0: 064e 61be 3f5e 91c0 3475 8b3d 5e42 f0be
-3.3979914 -2.9674103 -3.52077 -3.6648448 4.444929 14.118851 -2.2294178 0.9829727
-3.4079273 -3.906866 -4.9153695 -3.8232327 -4.89052 -3.61926 -2.6576316 -1.6313334
-1.7626123 -3.3851614 -2.4774284 -3.9934118 -3.7765439 -3.0027473 -2.1424098 -3.0515766
-1.5581934 -3.4252973 -1.3294791 -2.3816612 13.620699 -0.31411448 -0.44867474 -3.0093248
-3.3468835 -3.8297248 -2.9932249 -3.095785 -2.3106568 -5.339796 -3.7780743 -4.8030925
13.5555725 1.3659382 -0.41658658 1.0605875 -4.2169533 -4.6598706 -3.7539718 -2.2113533
-3.6711767 -4.4982495 -3.8765292 -5.2262936 -4.2800293 10.795679 -4.2330384 -2.2058883
-4.0387125 -6.332427 -6.3166575 -5.115108 -5.2660623 -5.3267107 -5.6372952 -4.271089
-5.576438 -4.6170955 -5.939526 -4.407461 -3.3433678 -4.364681 -5.352986 -4.672665
-4.7861633 -4.586701 -4.8388844 -3.6800501 -0.22442201 11.751528 -6.0206428 -5.2081447
-0.023580942 -3.0641196 -3.1389205 -2.9452536 -3.4922402 -3.0515573 -4.456441 -4.0831747
4.796635 13.892074 5.169656 -0.81627584 -1.1089333 -0.8639599 -0.37354818 -0.034240045
-2.9893665 -3.455025 -5.1439753 -4.304697 -1.5298942 -0.45481133 -4.446008 -3.4567027
-1.7883815 -3.6316738 -4.3803563 -4.551432 13.8674965 0.36016217 -2.5664742 -2.8687592
-6.4073825 -5.7307577 -5.556122 -6.4677997 -6.4239736 -6.2396994 -7.807285 -6.511045
11.185432 -4.9294996 -5.654639 -5.4918303 -2.4157643 -5.211671 -5.457769 -3.3058796
-2.0488043 -2.4588656 -3.4398284 -4.043451 -3.2864716 -5.441142 -4.4686766 -5.415174
2.3326268 -5.6426277 0.39060608 -3.483623 14.002716 -3.7059298 0.2719622 -1.2001905
-3.5393686 -2.1558788 -5.187473 -1.6806298 -5.537874 -2.8673213 -3.6011956 11.8208
-3.270521 -6.2384205 -6.724167 -4.340197 -6.3687725 -4.4366646 -6.5500154 -5.504329
-2.792228 -1.9782068 17.510769 5.3033166 -3.4281025 -3.3717585 -1.7473949 0.4300264
-2.051021 -5.128723 -3.2743216 -2.5559807 -4.344615 -4.1028647 -2.140842 -1.9041606
-4.670973 -1.3245485 -4.694042 11.264521 -3.6405287 -4.854729 -5.3282986 -5.057644
-6.468729 -4.0997257 -4.5476465 -3.168415 -5.936963 -5.898541 -4.8320947 -3.8294158
-2.8777204 -3.3232288 -3.7359955 -4.2897863 -4.096262 -4.6291995 -4.61726 -4.7339373
15.77844 -4.7756805 2.9020128 -1.0872861 -1.9329157 -5.106141 -1.5300102 -2.3798842
-4.1100225 -3.3182976 -4.047095 -2.1191907 -4.0256505 -3.7304704 -5.648686 -3.8535483
-1.7752855 14.701258 -4.0392566 4.5073237 -4.220532 -3.9789577 -5.602729 -2.5313575
-4.101579 -1.389089 -3.1726391 12.43644 -3.7798593 -5.047199 -4.5102234 -1.6181362
-2.7600005 -3.6816654 -3.3292637 -1.6880243 -4.0009604 -4.69195 -3.1593084 -1.9633946
-3.235713 -2.5333579 -1.9676242 -4.104817 -2.4610505 -4.6556287 -1.8213371 -5.1934824
-0.57099164 -2.82439 14.526991 -3.212116 -0.2200242 -4.5427547 0.06809464 -0.46925634
