trained_models/mnist_trained_16x16/model_006.pth (torch, 822593 bytes, 4 tensors)

logic_layers.0.weights f4 [2560, 16]
-2.986924 -1.070022 -2.521302 -2.9608245 6.9124384 3.670036 1.4128096 1.2960871
-6.183766 -6.464783 -5.9474177 -6.7642055 -5.3783326 -6.53983 -4.787398 -4.869615
0.5225522 6.936323 -1.3456674 -2.1513462 0.23056138 1.2964257 -1.3151351 -1.4565276
-4.7575784 -2.858338 -3.298506 -3.77244 -5.130334 -4.3886166 -5.014318 -4.1752276
-4.15186 -3.5294201 -2.6767051 -4.9209867 -4.5696416 -6.133388 -5.818529 -3.761212
5.9112124 7.1691437 7.0449915 7.611211 -2.4229012 -1.856388 -1.4640975 0.93394464
-4.7767463 -4.895689 -2.187397 -0.8131517 -3.6451597 -4.1647916 3.1940212 8.320156
-3.9074566 -4.726537 -3.7233121 -4.6960993 -5.4701805 -5.794299 -4.6211514 -2.9656131
-2.574912 -4.2477565 -4.527146 -4.2464876 -4.423745 -4.746023 -1.9751078 -4.861156
5.79492 4.122656 7.203921 5.3260875 -2.904312 -3.8301961 -2.9733076 -4.5977488
3.0485141 3.7054446 2.7958207 0.60062826 5.1261973 4.03062 2.5479736 1.0608537
-3.1776228 -2.600856 -1.5336351 -4.178068 -2.2885137 -3.179442 -2.7588308 -2.677244
-3.8481965 -5.975532 -4.29989 -4.763198 -4.7524705 -5.567723 -4.6516933 -6.253181
7.355839 3.6737535 4.1899633 4.7742314 -1.4766029 -1.1517218 -1.1181266 -2.2314243
-5.227821 -3.7006483 6.3469834 5.938607 -2.8555713 -4.3195963 5.3249664 5.8907046
-3.6580431 -4.7310266 -4.463288 -6.0111017 -4.2398543 -4.359466 -4.5184894 -4.957845
-3.5419815 -3.5665324 -3.8326974 -2.8684185 -3.480207 -4.9616036 -3.431273 -2.748469
3.8509257 6.1106176 3.715333 1.6561067 6.2932005 3.8028233 2.9477081 1.7809803
-3.8112283 -4.080126 -3.4755921 -4.474743 -3.40168 -5.2137904 -4.0315714 -5.3068657
9.360409 4.1258426 0.54137605 -0.19397481 1.4116629 1.8784386 1.5086434 0.07594989
-2.870052 -4.5886297 2.4229884 4.732513 -2.4788399 -3.844216 4.597153 10.035131
-6.2358932 -4.0126586 -3.052291 -3.0767388 -5.2901936 -5.6560717 -1.6512547 -3.7808254
-4.3545218 -3.7755468 -2.8013341 -5.327043 -4.598953 -5.5079203 -5.1302714 -2.913257
-3.7796528 -5.3749065 3.6309743 1.9609395 -3.3643205 -3.2729492 6.3538237 3.8844755
-3.2290735 -3.763041 -3.7265594 -4.5245705 -3.3368225 -3.8323712 -2.876245 -5.8295574
-0.26547337 0.56470436 -1.336347 -2.6664417 8.018351 7.7223563 0.2152335 -0.26549873
-3.1111834 -1.7141294 -4.3692784 -3.3866222 -4.5636144 -4.8662233 -6.5807214 -4.4130764
4.01454 4.856892 -4.1172867 -5.9919662 5.405034 6.9414463 -4.896792 -3.4032183
-7.4854584 -7.090799 -5.4947333 -4.7950616 -6.872501 -4.9465904 -5.2288413 -5.854308
2.6262193 3.8208523 2.2347226 2.1825893 5.1138654 5.441176 -0.95371574 0.9437553
6.263124 5.2726736 3.2588294 1.2898328 -3.3779738 0.64221 0.79654795 -1.7298261
-3.3122883 -5.0187917 -3.0922205 -4.5790777 -4.242168 -4.305304 -5.2533097 -5.839442
00000000: c329 3fc0 7bf6 88bf 035d 21c0 267e 3dc0
00000010: b232 dd40 dfe1 6a40 f2d6 b43f 2fe6 a53f
00000020: 69e1 c5c0 81df cec0 3f51 bec0 5f74 d8c0
00000030: 4d1b acc0 4a46 d1c0 5d32 99c0 e3d3 9bc0
00000040: fbc5 053f 5cf6 dd40 d43e acbf a8af 09c0
00000050: 4818 6c3e 47f1 a53f 5956 a8bf 7f6f babf
00000060: 153e 98c0 03ef 36c0 b91a 53c0 a86f 71c0
00000070: b22b a4c0 8c6f 8cc0 4b75 a0c0 779b 85c0
00000080: 0adc 84c0 05e2 61c0 234f 2bc0 b978 9dc0
00000090: 813a 92c0 b744 c4c0 6431 bac0 b3b7 70c0
000000a0: a728 bd40 a069 e540 9270 e140 0a8f f340
000000b0: d010 1bc0 1f9e edbf 8c67 bbbf ff16 6f3f
000000c0: 1bdb 98c0 7ca9 9cc0 50fe 0bc0 b62a 50bf
000000d0: 4c4a 69c0 f945 85c0 d86a 4c40 5c1f 0541
000000e0: c513 7ac0 cb3f 97c0 bf4a 6ec0 7246 96c0
000000f0: b80b afc0 e66a b9c0 79e0 93c0 9bcc 3dc0
00000100: 5ccb 24c0 9fed 87c0 61de 90c0 3ae3 87c0
00000110: 528f 8dc0 6cdf 97c0 55d0 fcbf 978e 9bc0
00000120: fc6f b940 ccec 8340 8586 e640 4f6f aa40
00000130: 3fe0 39c0 ef21 75c0 ac4a 3ec0 c220 93c0
00000140: db1a 4340 0126 6d40 baee 3240 c6c2 193f
00000150: cf09 a440 d7fa 8040 0012 2340 0eca 873f
00000160: 2c5e 4bc0 6d74 26c0 284e c4bf bcb2 85c0
00000170: 0277 12c0 fa7b 4bc0 af90 30c0 f757 2bc0
00000180: da48 76c0 8f37 bfc0 b398 89c0 1e6c 98c0
00000190: 3d14 98c0 c92a b2c0 acda 94c0 0f1a c8c0
000001a0: 0863 eb40 c71e 6b40 2e14 8640 81c6 9840
000001b0: 5301 bdbf 9f6b 93bf c61e 8fbf a8cf 0ec0
000001c0: 4f4a a7c0 6cd7 6cc0 7d1a cb40 1209 be40
000001d0: aec1 36c0 223a 8ac0 2066 aa40 a780 bc40
000001e0: 611d 6ac0 9264 97c0 41d3 8ec0 f25a c0c0
000001f0: e3ac 87c0 bf80 8bc0 7797 90c0 aba6 9ec0
00000200: d3af 62c0 1142 64c0 ea4a 75c0 2b94 37c0
00000210: b6bb 5ec0 75c5 9ec0 fa99 5bc0 ebe6 2fc0
00000220: 9175 7640 2e8a c340 04c8 6d40 4efb d33f
00000230: e661 c940 7561 7340 40a7 3c40 2af7 e33f
00000240: 2aeb 73c0 6490 82c0 1a70 5ec0 1831 8fc0
00000250: 20b5 59c0 5fd7 a6c0 a202 81c0 d8d1 a9c0
00000260: 3cc4 1541 e706 8440 9f97 0a3f 55a1 46be
00000270: 5fb1 b43f ad70 f03f 3a1b c13f 9e8b 9b3d
00000280: efae 37c0 0ed6 92c0 3e12 1b40 bf70 9740
00000290: 50a5 1ec0 a307 76c0 e11b 9340 e68f 2041
000002a0: 708c c7c0 b367 80c0 bc58 43c0 4ae9 44c0
000002b0: 4449 a9c0 8afe b4c0 505c d3bf 0bf9 71c0
000002c0: 3e58 8bc0 8fa2 71c0 0f49 33c0 2377 aac0
000002d0: 9f2a 93c0 e240 b0c0 2f2b a4c0 cd72 3ac0
000002e0: d5e5 71c0 3cff abc0 e261 6840 1100 fb3f
000002f0: 0751 57c0 0078 51c0 8652 cb40 3f9b 7840
00000300: 24a9 4ec0 aad5 70c0 f37f 6ec0 48c9 90c0
00000310: 808e 55c0 9245 75c0 6614 38c0 bc8b bac0
00000320: 20ec 87be 7790 103f 6b0d abbf fba6 2ac0
00000330: 2a4b 0041 8b1d f740 2c66 5c3e 73ef 87be
00000340: a11d 47c0 9868 dbbf 21d1 8bc0 6bbe 58c0
00000350: 2109 92c0 1ab8 9bc0 4595 d2c0 ec37 8dc0
00000360: 1d77 8040 a96b 9b40 d0c0 83c0 30be bfc0
00000370: 0af6 ac40 5420 de40 85b2 9cc0 54ce 59c0
00000380: e088 efc0 d3e7 e2c0 dbd4 afc0 2571 99c0
00000390: 87eb dbc0 784a 9ec0 ab52 a7c0 7e56 bbc0
000003a0: fa13 2840 d888 7440 b205 0f40 8baf 0b40
000003b0: c9a4 a340 1d1e ae40 b726 74bf f399 713f
000003c0: 836b c840 beb9 a840 a990 5040 3e19 a53f
000003d0: b930 58c0 e067 243f 91ea 4b3f f16a ddbf
000003e0: 88fc 53c0 f199 a0c0 f1e6 45c0 ce87 92c0
000003f0: d7bf 87c0 0dc5 89c0 1d1b a8c0 b5dc bac0

logic_layers.1.weights f4 [2560, 16]
-3.0696812 -4.461797 -3.408133 -4.2943735 -3.2120714 -3.8510609 -4.4514785 -4.9917107
-4.0110493 -4.45583 -4.414622 -4.258431 6.4255753 -1.6624222 -3.081814 -4.834902
0.8057158 0.89899683 4.9824953 2.191422 -3.709862 -3.5066848 -3.484444 -3.3515284
1.9740933 -2.3579566 1.5433667 -0.37310287 -2.4226608 -2.7459393 -2.6878421 -1.308062
-5.52186 3.7587426 -4.7770543 -3.266619 -3.253222 7.220333 -4.768747 -2.2781684
-5.0683613 6.3992934 -4.8341393 -1.9402068 -5.457499 6.2171683 -4.838441 -3.7281508
-4.2460194 -1.9367543 -3.8924618 -6.5551662 -3.6131554 -3.19335 -5.7471786 -6.3103275
6.072394 2.5429003 -1.6500235 -2.619744 5.8670893 2.7980828 -2.6211748 -3.5264328
-4.352491 -1.8807002 -5.1992755 -1.4629742 -5.194277 7.0729856 -4.915683 2.3084152
-4.6558795 -5.131995 -6.5424924 -4.6785326 -4.2241435 -4.554413 -6.118651 -5.5832334
-4.484929 -1.6728933 -3.891484 2.7394397 -4.439598 0.6760036 -3.937778 5.4840765
-4.7228613 -1.526026 -3.3512006 2.2639725 -2.5455246 -0.27059644 -5.1836176 4.515707
-3.3007991 -3.9096885 -5.745802 -3.948376 -3.515651 -4.9050894 -3.6946986 -4.5335326
1.2904292 -3.8706343 7.8404064 -4.6548367 -0.6601486 -2.517183 -0.8842726 -4.317701
2.2798789 7.28548 -1.1404743 -2.30475 -3.753206 -3.905196 -4.5749493 -3.06285
-5.5523453 -5.4661274 -5.662868 -4.4299316 -6.004378 -7.3735228 -4.95302 -5.942496
-4.485233 -4.091287 -5.5172777 -6.139746 -3.6652536 -4.301103 -4.370639 -4.914586
5.1377296 3.3182049 -2.5414674 -2.598465 7.79749 2.5819848 -2.1978586 -1.7334951
-3.9979234 -1.3335519 -3.2243805 -4.081882 -1.6296822 6.6088085 -4.182187 -3.669182
-4.9045725 -4.1142845 -4.405423 -2.7021654 -2.7121542 -2.4143286 -3.0933294 -3.8247402
-0.051341556 3.6068342 -0.2204942 6.322216 -5.4904914 -6.544852 -6.1185527 -4.2910457
-0.6914833 4.3485837 0.964783 3.6611202 -3.9088707 -4.4825153 -4.4181623 -4.914719
-4.233238 -0.48614883 -6.909549 -2.3950152 -5.8311033 2.409327 -4.1838627 5.7476315
-7.1995096 -6.2657886 -5.113784 -4.251089 -4.1489787 -4.673975 -6.171314 -5.0182366
5.448498 0.13891937 -0.929983 -0.7284126 2.3872912 -0.60420257 1.883881 -2.039623
-0.36296746 -1.678429 -0.9273656 -2.9857564 -2.0394967 -2.3434465 -1.5599077 -0.50155765
-4.6358232 2.1878703 -3.7163749 -4.8178983 -2.7681334 2.543461 -4.51872 -3.8332534
-7.1248093 2.6788325 -4.8060074 -5.1014047 -4.702014 8.673298 -4.9972115 -4.349356
-3.8747897 -5.9970264 -4.4285574 -4.136619 2.4482863 -2.7647917 7.906401 -3.2042153
-2.80044 -3.7028074 -3.33049 -4.031811 3.5918567 -2.8979216 1.1712922 -1.725281
-3.8867211 -2.2356915 -3.814481 -2.8321357 -0.7926567 3.1291878 -2.7645981 -1.2259468
-2.783953 -3.1322005 -3.328494 -1.6465074 -1.164062 5.662309 -2.7584822 -1.9587532
00000000: a875 44c0 0bc7 8ec0 da1e 5ac0 826b 89c0
00000010: 9492 4dc0 c877 76c0 8372 8ec0 18bc 9fc0
00000020: 845a 80c0 2996 8ec0 9544 8dc0 1145 88c0
00000030: 509e cd40 40ca d4bf 713c 45c0 84b7 9ac0
00000040: 6443 4e3f a824 663f 9a70 9f40 4240 0c40
00000050: 616e 6dc0 866d 60c0 2101 5fc0 717f 56c0
00000060: 17af fc3f c3e8 16c0 0a8d c53f 5707 bfbe
00000070: e00c 1bc0 78bd 2fc0 9b05 2cc0 936e a7bf
00000080: 14b3 b0c0 3d8f 7040 a1dd 98c0 4910 51c0
00000090: ca34 50c0 f80c e740 9399 98c0 83cd 11c0
000000a0: 0430 a2c0 03c7 cc40 45b1 9ac0 b258 f8bf
000000b0: d5a3 aec0 0bf3 c640 82d4 9ac0 069a 6ec0
000000c0: 64df 87c0 91e7 f7bf 181e 79c0 ecc3 d1c0
000000d0: f03d 67c0 d95f 4cc0 e3e8 b7c0 34ee c9c0
000000e0: 0d51 c240 e1be 2240 f833 d3bf e3a9 27c0
000000f0: 32bf bb40 ca13 3340 54c1 27c0 13b1 61c0
00000100: 9b47 8bc0 c9ba f0bf 7760 a6c0 bd42 bbbf
00000110: 8437 a6c0 e655 e240 464d 9dc0 13bd 1340
00000120: f7fc 94c0 4e39 a4c0 195c d1c0 8ab6 95c0
00000130: 2f2c 87c0 c0bd 91c0 fdcb c3c0 d9a9 b2c0
00000140: 8a84 8fc0 5e21 d6bf 130e 79c0 fb52 2f40
00000150: 3011 8ec0 920e 2d3f 8e04 7cc0 8e7d af40
00000160: ae21 97c0 d254 c3bf 127a 56c0 ede4 1040
00000170: e0e9 22c0 9e8b 8abe 32e0 a5c0 ac80 9040
00000180: 4b40 53c0 5638 7ac0 9cdd b7c0 31b2 7cc0
00000190: 6d00 61c0 7ef6 9cc0 f175 6cc0 b312 91c0
000001a0: c92c a53f 79b8 77c0 9ce4 fa40 6cf4 94c0
000001b0: 80ff 28bf 8719 21c0 b05f 62bf 9b2a 8ac0
000001c0: 89e9 1140 a722 e940 10fb 91bf 0681 13c0
000001d0: 8734 70c0 bbee 79c0 fc65 92c0 bc05 44c0
000001e0: d0ac b1c0 84ea aec0 3736 b5c0 00c2 8dc0
000001f0: dd23 c0c0 e6f3 ebc0 247f 9ec0 ed28 bec0
00000200: 0787 8fc0 d3eb 82c0 8a8d b0c0 cd78 c4c0
00000210: 8493 6ac0 a3a2 89c0 46dc 8bc0 4a44 9dc0
00000220: 4868 a440 785d 5440 67a7 22c0 404d 26c0
00000230: 0a85 f940 3d3f 2540 b7a9 0cc0 2be3 ddbf
00000240: fadd 7fc0 d4b1 aabf 405c 4ec0 c79e 82c0
00000250: 6d99 d0bf 5c7b d340 7ad4 85c0 e1d3 6ac0
00000260: 42f2 9cc0 38a8 83c0 3af9 8cc0 47f0 2cc0
00000270: ef93 2dc0 5c84 1ac0 1cf9 45c0 8bc8 74c0
00000280: 864b 52bd 5fd6 6640 3bc9 61be 984f ca40
00000290: 1bb2 afc0 6d6f d1c0 2fcb c3c0 3f50 89c0
000002a0: 0d05 31bf 9927 8b40 05fc 763f cb4f 6a40
000002b0: f02a 7ac0 c470 8fc0 9661 8dc0 6145 9dc0
000002c0: b076 87c0 80e8 f8be 071b ddc0 ee47 19c0
000002d0: 6698 bac0 6a32 1a40 34e2 85c0 99ec b740
000002e0: 6262 e6c0 5781 c8c0 1ea4 a3c0 ec08 88c0
000002f0: 6fc4 84c0 3491 95c0 677b c5c0 6595 a0c0
00000300: 185a ae40 e140 0e3e 5e13 6ebf 4079 3abf
00000310: 61c9 1840 05ad 1abf 0323 f13f 2f89 02c0
00000320: dfd6 b9be c3d6 d6bf d567 6dbf a216 3fc0
00000330: 1d87 02c0 07fb 15c0 0eab c7bf 1566 00bf
00000340: aa58 94c0 1106 0c40 16d9 6dc0 392c 9ac0
00000350: 1929 31c0 11c8 2240 5b99 90c0 0654 75c0
00000360: 70fe e3c0 fe71 2b40 d0ca 99c0 b53e a3c0
00000370: e676 96c0 d4c5 0a41 28e9 9fc0 ed2d 8bc0
00000380: 8efc 77c0 a4e7 bfc0 beb6 8dc0 2f5f 84c0
00000390: b9b0 1c40 59f2 30c0 3d01 fd40 dd11 4dc0
000003a0: 693a 33c0 ccfa 6cc0 c026 55c0 9904 81c0
000003b0: fbe0 6540 8c77 39c0 e7ec 953f 02d6 dcbf
000003c0: 0ac0 78c0 9215 0fc0 7520 74c0 b641 35c0
000003d0: 8deb 4abf 9d44 4840 2def 30c0 d3eb 9cbf
000003e0: 492c 32c0 f975 48c0 0c06 55c0 c1c0 d2bf
000003f0: fcff 94bf a331 b540 f98a 30c0 6db8 fabf

logic_layers.2.weights f4 [2560, 16]
-3.0877845 -2.3655334 -2.7746348 -0.69715995 -4.238418 -3.3055768 -5.53249 -3.5413647
6.3635263 5.0548153 5.116887 6.311904 -3.1559112 -4.0635433 -4.0943165 -2.8822646
-1.6020566 -3.9910173 -0.79514426 -6.2861824 -2.1303463 -3.2930894 -4.0856156 -4.09278
8.0172825 -1.2557529 1.300191 -2.1426933 -0.68619496 -3.1294262 -1.6376523 -1.9515783
-3.0785866 -4.5657887 -2.8300595 -4.2267885 -2.1400616 -4.257229 -5.008725 -3.5171435
2.5359952 -3.090523 -0.9184085 -3.8072393 6.742471 -0.8394073 -0.7034426 -4.4373455
3.592503 6.249066 -0.22222017 -5.5733347 -0.5023341 0.1369927 -3.5061166 -3.1843061
-1.8310908 -2.8953369 -4.384683 -4.335926 -3.7216976 -3.699737 -3.9139516 -3.7679784
2.721358 -0.40084887 -5.001409 -4.60194 4.9130964 0.7770578 -2.4162338 -4.5812736
3.6100316 -1.20474 -4.2881994 -2.8891938 7.2930427 -1.7400547 -5.1507874 -4.387951
0.8289828 0.21201228 -2.1233222 -2.0978124 3.7114987 4.094648 2.3804164 3.045628
-2.5173302 -2.5588086 -4.673027 -3.8765697 -1.8852123 -2.775018 -1.8517007 -1.9113218
-3.4110239 -4.6283383 -3.17831 -4.3288383 -3.2096722 -4.5218997 -3.4533482 -4.8603063
5.8766055 -1.7593893 2.6625576 -3.0128477 -4.524732 -5.2029963 -3.2032957 -5.137065
-2.5195684 -2.766479 -5.1910415 -5.3043714 7.37086 -2.1804585 -1.7497027 -3.432313
-1.8719995 -4.6861305 -5.432108 -5.0394583 3.461418 -3.4985728 1.8071015 -1.7499938
-2.404367 11.808042 -5.4634976 -2.8916507 -2.194183 4.6644716 -4.3205614 -3.9016883
-4.4385266 0.335438 -6.0015893 -4.2195005 -4.5322747 -0.012672719 -3.5768993 -2.7246962
-1.4130641 1.4133394 -0.5910287 5.5738664 -2.361926 -2.7097492 -2.9836297 0.12950309
-3.8971913 -2.8378801 -3.6285133 -1.6256422 -4.899243 -3.2742698 -3.9575293 -3.7542813
-2.2827554 -2.8431587 -4.60297 -4.607523 -3.8908193 6.484635 -3.2579215 -2.62093
-3.257947 -3.9593132 -4.0757647 -4.5851903 -2.445732 -1.2681215 -3.4035478 -2.8199372
-2.4607482 2.8481662 -2.7071924 5.7790265 -3.9209056 -2.5651197 -4.124623 -3.4210835
-3.8969958 -3.3540604 -2.9992394 2.3880332 -4.4932575 -4.860619 -5.288168 -3.0988047
-3.7611108 -4.0565 -4.6981964 -4.261254 -2.291355 -2.5343637 -4.932981 -2.891617
0.82025 -3.036465 -4.4388375 -3.0904696 6.0613112 7.0352345 -3.9960716 -2.0841794
-0.19700298 -4.811002 7.8030763 -0.597933 -4.0292034 -3.956657 -3.8864887 -4.5671086
-2.2322357 -4.6784925 2.4394338 -1.9794402 -3.8555708 -4.213545 -2.540987 -3.9823785
-4.742368 -1.9611092 -3.5609977 6.3661284 -5.838882 -2.602848 -4.181929 -2.4151633
-2.7764733 -4.1013055 -3.6294558 0.025562163 -5.412519 -3.8868937 -4.6756225 -3.2079072
-1.4657305 -3.8858576 7.2747436 -1.8572314 -3.4698772 -4.9502597 -2.9226782 -5.0365577
-2.4199648 -3.5793283 1.4142163 -2.2702599 -2.5353935 -4.6898127 -1.8320407 -3.8866165
00000000: 439e 45c0 e664 17c0 9e93 31c0 1379 32bf
00000010: 1fa1 87c0 928e 53c0 280a b1c0 b8a5 62c0
00000020: 02a2 cb40 0cc1 a140 8abd a340 1efb c940
00000030: 73fa 49c0 8c08 82c0 a404 83c0 0677 38c0
00000040: 3110 cdbf d46c 7fc0 938e 4bbf 6828 c9c0
00000050: 9857 08c0 fac1 52c0 5dbd 82c0 0ef8 82c0
00000060: ca46 0041 83bc a0bf a96c a63f e321 09c0
00000070: 79aa 2fbf 8548 48c0 979e d1bf 51cd f9bf
00000080: 9007 45c0 f11a 92c0 b21f 35c0 da41 87c0
00000090: c5f6 08c0 383b 88c0 7a47 a0c0 e118 61c0
000000a0: bf4d 2240 21cb 45c0 d21c 6bbf cfa9 73c0
000000b0: 53c2 d740 66e3 56bf d014 34bf bcfe 8dc0
000000c0: 92eb 6540 59f8 c740 af8d 63be c258 b2c0
000000d0: f898 00bf d047 0c3e 3764 60c0 accb 4bc0
000000e0: 2f61 eabf 334d 39c0 534f 8cc0 e8bf 8ac0
000000f0: 4b30 6ec0 7ec8 6cc0 2f7e 7ac0 8f26 71c0
00000100: bb2a 2e40 103c cdbe 8b0b a0c0 1843 93c0
00000110: 1638 9d40 43ed 463f 93a3 1ac0 cb99 92c0
00000120: c20a 6740 ec34 9abf ee38 89c0 8de8 38c0
00000130: 9b60 e940 1dba debf 40d3 a4c0 186a 8cc0
00000140: 3738 543f bf19 593e 83e4 07c0 8f42 06c0
00000150: 3289 6d40 5b07 8340 be58 1840 92eb 4240
00000160: f01b 21c0 85c3 23c0 7089 95c0 b819 78c0
00000170: a34e f1bf e599 31c0 8704 edbf 31a6 f4bf
00000180: 374e 5ac0 591b 94c0 6e69 4bc0 d885 8ac0
00000190: 456b 4dc0 67b3 90c0 a803 5dc0 a187 9bc0
000001a0: 270d bc40 ab33 e1bf 5867 2a40 7fd2 40c0
000001b0: 9bca 90c0 f27e a6c0 cc02 4dc0 d662 a4c0
000001c0: 9c40 21c0 fe0d 31c0 031d a6c0 69bd a9c0
000001d0: 16de eb40 a28c 0bc0 42f6 dfbf 04ab 5bc0
000001e0: ae9d efbf c8f4 95c0 d4d3 adc0 3e43 a1c0
000001f0: df87 5d40 9ee8 5fc0 1a4f e73f ccff dfbf
00000200: 26e1 19c0 bded 3c41 f9d4 aec0 ce10 39c0
00000210: 7f6d 0cc0 5a43 9540 0a42 8ac0 43b5 79c0
00000220: 6908 8ec0 88be ab3e 050d c0c0 2606 87c0
00000230: 6508 91c0 3ca1 4fbc ebeb 64c0 6c61 2ec0
00000240: 49df b4bf 4ee8 b43f a84d 17bf 1d5d b240
00000250: cc29 17c0 886c 2dc0 caf3 3ec0 759c 043e
00000260: 956b 79c0 d49f 35c0 9039 68c0 0b15 d0bf
00000270: 99c6 9cc0 a38d 51c0 2948 7dc0 2546 70c0
00000280: aa18 12c0 50f6 35c0 884b 93c0 d470 93c0
00000290: 2f03 79c0 2182 cf40 c981 50c0 51bd 27c0
000002a0: 3482 50c0 6365 7dc0 aa6c 82c0 e1b9 92c0
000002b0: e086 1cc0 ce51 a2bf bad3 59c0 da79 34c0
000002c0: e67c 1dc0 5b48 3640 a442 2dc0 c9ed b840
000002d0: 1ef0 7ac0 ec2a 24c0 e9fc 83c0 08f3 5ac0
000002e0: 6168 79c0 eda8 56c0 8af3 3fc0 89d5 1840
000002f0: c4c8 8fc0 318a 9bc0 ac38 a9c0 d152 46c0
00000300: 0ab6 70c0 d9ce 81c0 a057 96c0 315c 88c0
00000310: 8fa5 12c0 0433 22c0 fbda 9dc0 4110 39c0
00000320: e7fb 513f 7155 42c0 f50a 8ec0 41ca 45c0
00000330: 43f6 c140 a420 e140 a3bf 7fc0 3263 05c0
00000340: 26bb 49be baf3 99c0 cdb2 f940 2312 19bf
00000350: 3cef 80c0 de39 7dc0 3bbc 78c0 c125 92c0
00000360: f3dc 0ec0 36b6 95c0 af1f 1c40 4c5e fdbf
00000370: acc1 76c0 5cd5 86c0 889f 22c0 4adf 7ec0
00000380: 7bc1 97c0 a005 fbbf 63e7 63c0 53b7 cb40
00000390: 1fd8 bac0 1095 26c0 5dd2 85c0 0992 1ac0
000003a0: bdb1 31c0 e53d 83c0 0149 68c0 be67 d13c
000003b0: 5b33 adc0 dec2 78c0 b39e 95c0 5a4e 4dc0
000003c0: 0f9d bbbf e4b1 78c0 b3ca e840 c2b9 edbf
000003d0: 7812 5ec0 8768 9ec0 290d 3bc0 7b2b a1c0
000003e0: b4e0 1ac0 b713 65c0 0a05 b53f f04b 11c0
000003f0: e343 22c0 f212 96c0 4f80 eabf 53be 78c0

logic_layers.3.weights f4 [2560, 16]
-2.0024517 -2.0387714 -2.8772366 -5.179531 1.3194101 -0.93062633 -3.5188727 -2.701402
0.022897124 -3.047104 -3.666096 -1.9394702 8.227236 2.1040587 -1.1873157 -1.1821359
-2.7406533 -2.821444 1.0280294 -0.33447298 -3.3143253 -3.6305072 -3.8986819 -2.1307764
-1.3267407 -1.8913283 5.5083814 5.4339104 -4.7617874 -2.256194 -3.5638726 -0.44911912
-2.887237 -1.1681472 -4.74662 -2.8716364 -0.93163776 6.0441003 -3.0493793 -1.3726313
-3.279898 1.811753 -5.8729873 -2.4182608 -2.343999 4.6868043 -2.556869 -2.411149
-1.4783108 -6.4141765 4.257605 -2.7168941 -4.4681964 -3.3634791 -3.5463834 -2.0788667
-1.4223136 -3.9973445 5.4206862 -0.5976943 -3.6242619 -4.02937 1.2181007 -1.4556348
-0.15513068 9.247239 -2.8696349 -2.3453615 -3.3043563 2.8236432 -3.4360862 3.499836
-2.6394775 -3.092826 -4.3284407 -4.4494224 -4.9200797 -0.9058634 -3.1015897 -2.045117
-1.9046805 -2.581357 -3.683234 -3.7929318 6.587306 -1.1097279 -1.3539662 -3.7294514
-5.5346303 -2.1472738 -2.6769707 -4.0804915 1.0992895 -0.21765651 -0.63930535 -4.2530675
-2.8545983 -1.7014934 8.268768 2.311956 -1.5671546 -4.3473415 -2.1314082 0.31159574
-2.7934213 -3.788441 -1.9078662 0.43300512 -4.1599317 -4.2827816 -2.7226949 -1.2902606
-0.16415408 -3.4822433 -1.4414093 -2.7378633 -0.73316485 -2.6925793 -2.676939 0.2843919
-0.92387813 -2.3128722 -2.6105428 -4.2884507 7.2299943 -0.6421693 0.21654591 -0.69998646
-2.1951163 -1.2124383 1.7528069 5.075529 -3.485736 -3.6736479 2.7630064 6.008454
-2.4606702 -2.1574614 -0.36366186 -0.5052781 -5.6580825 -4.2158136 -2.1722088 -2.003205
-2.345679 6.4793105 -3.608272 -1.5873929 -1.6008772 0.9704217 -2.5293133 -0.45288035
-2.7395694 -3.453492 -4.3384056 -2.0828714 -4.221916 -2.075082 -5.4246573 -3.0377731
-1.5641083 -2.8782995 -0.84529805 -5.156368 -0.034718726 -1.3403089 2.9096298 0.7230717
-0.57501036 -3.3853965 -2.3236759 -3.3129926 6.271048 -0.6295375 3.7085004 -0.072198644
-4.0644274 -3.4535408 -3.5959182 -4.0822825 -1.7038695 -3.7340546 -2.719146 -3.757719
1.0918626 -1.2843165 -2.9725566 -1.9021891 3.865254 5.6970596 -4.2798524 -2.1645627
-0.8369899 -2.8638473 -1.3965647 -2.3235142 -0.24286303 0.43403015 -0.9060205 1.2226852
-1.1953938 -4.1959505 -1.3408258 -2.4800627 0.11278679 6.2946396 0.44038782 0.86300075
-1.3047725 -2.767053 0.7344449 -2.7534068 -2.7159455 -2.7958872 -2.247132 -3.2505782
-1.5477256 -1.3116373 8.283269 2.331675 -4.1923914 -2.0664878 -2.40106 -1.92931
-1.1198188 0.235578 -2.4744878 -2.2898972 -0.93242383 6.595639 -3.0527234 -0.6723712
-2.1022978 -2.534253 -3.8099685 -2.2712507 -1.1278478 1.7162212 -1.6730701 -1.5426927
-3.1463268 -3.0041049 3.8792446 5.5906 -3.2918756 -4.2168574 -4.37962 -0.39836872
-1.8099747 -4.054181 1.5390842 0.9215013 -4.312205 -2.7037597 -3.6511147 -1.3090892
00000000: 2b28 00c0 3b7b 02c0 a524 38c0 b8be a5c0
00000010: 6ee2 a83f 873d 6ebf 3635 61c0 c5e3 2cc0
00000020: c092 bb3c c003 43c0 51a1 6ac0 8f40 f8bf
00000030: c2a2 0341 e6a8 0640 f6f9 97bf 3b50 97bf
00000040: dd66 2fc0 8a92 34c0 7896 833f 0b40 abbe
00000050: e81d 54c0 3b5a 68c0 0184 79c0 a45e 08c0
00000060: a4d2 a9bf 0c17 f2bf a944 b040 98e2 ad40
00000070: 9060 98c0 7c65 10c0 7d16 64c0 f1f2 e5be
00000080: 7ec8 38c0 d985 95bf 50e4 97c0 e4c8 37c0
00000090: d07f 6ebf 4569 c140 0829 43c0 62b2 afbf
000000a0: d9e9 51c0 86e7 e73f 83ef bbc0 c9c4 1ac0
000000b0: 1404 16c0 4dfa 9540 bea3 23c0 4450 1ac0
000000c0: 4a39 bdbf ef40 cdc0 4d3e 8840 98e1 2dc0
000000d0: 77fb 8ec0 3e43 57c0 f2f7 62c0 270c 05c0
000000e0: 5f0e b6bf 7ed4 7fc0 4376 ad40 7e02 19bf
000000f0: e8f3 67c0 99f0 80c0 b9ea 9b3f 3e52 babf
00000100: 94da 1ebe b1f4 1341 19a8 37c0 671a 16c0
00000110: 937a 53c0 92b6 3440 d6e8 5bc0 50fd 5f40
00000120: 33ed 28c0 dcf0 45c0 9682 8ac0 ab61 8ec0
00000130: 4b71 9dc0 aae6 67bf 7280 46c0 32e3 02c0
00000140: 92cc f3bf f434 25c0 1bba 6bc0 65bf 72c0
00000150: 36cb d240 900b 8ebf c44e adbf 55af 6ec0
00000160: b11b b1c0 ef6c 09c0 7d53 2bc0 6393 82c0
00000170: 85b5 8c3f 59e1 5ebe 84a9 23bf 2119 88c0
00000180: bdb1 36c0 89ca d9bf e04c 0441 16f7 1340
00000190: 8698 c8bf 6c1d 8bc0 fe68 08c0 7a89 9f3e
000001a0: 6ac7 32c0 d175 72c0 f634 f4bf d9b2 dd3e
000001b0: 291e 85c0 8c0c 89c0 a240 2ec0 4227 a5bf
000001c0: 0218 28be 13dd 5ec0 1a80 b8bf 2739 2fc0
000001d0: b1b0 3bbf 3853 2cc0 f852 2bc0 d19b 913e
000001e0: 4783 6cbf 1906 14c0 2213 27c0 fd3a 89c0
000001f0: 1d5c e740 3565 24bf 36be 5d3e 5032 33bf
00000200: c97c 0cc0 2e31 9bbf fa5b e03f bc6a a240
00000210: 4c16 5fc0 0c1d 6bc0 19d5 3040 4145 c040
00000220: 9f7b 1dc0 d913 0ac0 e331 babe e859 01bf
00000230: 030f b5c0 f2e7 86c0 7805 0bc0 8334 00c0
00000240: 9b1f 16c0 8356 cf40 eeed 66c0 b12f cbbf
00000250: 8be9 ccbf 8e6d 783f 45e0 21c0 efdf e7be
00000260: 1b55 2fc0 0306 5dc0 38d4 8ac0 c44d 05c0
00000270: f019 87c0 25ce 04c0 cb96 adc0 e06a 42c0
00000280: b334 c8bf 0f36 38c0 7465 58bf f700 a5c0
00000290: 3935 0ebd 3e8f abbf 6037 3a40 3a1b 393f
000002a0: e133 13bf 56aa 58c0 1bb7 14c0 1208 54c0
000002b0: 6dac c840 5f29 21bf 1258 6d40 e2dc 93bd
000002c0: ca0f 82c0 d006 5dc0 8623 66c0 0fa2 82c0
000002d0: 6518 dabf c0fa 6ec0 7d06 2ec0 787e 70c0
000002e0: 27c2 8b3f 7c64 a4bf 5e3e 3ec0 ef7a f3bf
000002f0: 5260 7740 504e b640 8df4 88c0 3288 0ac0
00000300: f844 56bf 4649 37c0 a2c2 b2bf 75b4 14c0
00000310: 16b1 78be 3339 de3e f6f0 67bf f380 9c3f
00000320: aa02 99bf 3a45 86c0 2ea0 abbf 59b9 1ec0
00000330: c3fc e63d b06d c940 837a e13e 9eed 5c3f
00000340: c902 a7bf 6517 31c0 9504 3c3f d137 30c0
00000350: 0dd2 2dc0 d1ef 32c0 03d1 0fc0 7909 50c0
00000360: df1b c6bf bbe3 a7bf 4588 0441 2a3a 1540
00000370: 1228 86c0 5641 04c0 f8aa 19c0 a1f3 f6bf
00000380: 3956 8fbf 5c3b 713e 025e 1ec0 ad8d 12c0
00000390: 54b3 6ebf 7a0f d340 d25f 43c0 8520 2cbf
000003a0: 0c8c 06c0 3331 22c0 86d6 73c0 2c5c 11c0
000003b0: 515d 90bf 23ad db3f 2927 d6bf f476 c5bf
000003c0: 6b5d 49c0 4143 40c0 8b45 7840 32e6 b240
000003d0: 17ae 52c0 7ff0 86c0 d925 8cc0 fcf6 cbbe
000003e0: 40ad e7bf dabb 81c0 b600 c53f 82e7 6b3f
000003f0: 95fd 89c0 660a 2dc0 ddab 69c0 3c90 a7bf
