trained_models/mnist_trained_32x32/model_001.pth (torch, 411607 bytes, 2 tensors)

logic_layers.0.weights f4 [2560, 16]
0	0xc024e9d1	-2.576771
1	0xc0211b0f	-2.5172765
2	0xbf9fc6c4	-1.2482533
3	0xbf95fa0b	-1.1716932
4	0xc084a736	-4.1454115
5	0xbf9d518a	-1.2290509
6	0xc0548257	-3.3204553
7	0xc037d564	-2.8723993
8	0x3ff48745	1.9103781
9	0x40899579	4.299496
10	0x404db4f3	3.2141693
11	0x402ea731	2.7289546
12	0xc006106e	-2.0947528
13	0x3ef4cdad	0.47813168
14	0x3e3d5f0a	0.18493286
15	0xbf7ba698	-0.98301077
16	0x409c8b9d	4.8920426
17	0x40570e47	3.3602464
18	0xbf85757a	-1.0426476
19	0x3ffa6585	1.9562231
20	0x3fe477be	1.7849042
21	0x402af47e	2.6711726
22	0xbf245ff7	-0.6420893
23	0xbd0f3dff	-0.034971233
24	0xc0399d0f	-2.900211
25	0xc083efb5	-4.123011
26	0xbfa88de2	-1.3168299
27	0xc093db38	-4.62051
28	0xc022aea6	-2.5419097
29	0xc08d403a	-4.41409
30	0xc02217d5	-2.5327046
31	0xc0756329	-3.8341773
32	0x40aa8642	5.328889
33	0x403c2a3f	2.9400785
34	0x400c9c74	2.1970491
35	0x408ae1f8	4.340084
36	0x401d03fe	2.4533687
37	0x402d34ce	2.706348
38	0x403ceb41	2.9518588
39	0x4066b99c	3.6050787
40	0xc01c8d4b	-2.4461238
41	0xc0052b9c	-2.0807867
42	0xc00ee2f5	-2.2326024
43	0xc023e6ca	-2.5609612
44	0xc06327ae	-3.5492969
45	0xc089a54f	-4.3014293
46	0xc062d1cf	-3.5440557
47	0xc05c7ff9	-3.4453108
48	0xbfd09e70	-1.6298351
49	0xc086e8f5	-4.215937
50	0xc0a6e7da	-5.215802
51	0xc0b85626	-5.760516
52	0x403697ca	2.8530145
53	0xc0176fb8	-2.3661938
54	0xc0170aac	-2.3600264
55	0xc0404839	-3.0044081
56	0xbf235d0a	-0.6381384
57	0xc06514f3	-3.5794036
58	0xc035eae1	-2.8424609
59	0xc07aa953	-3.9165847
60	0x40f7c193	7.7423797
61	0x3eed1196	0.4630248
62	0x3ea4e78a	0.322079
63	0xc081ac63	-4.0522933
64	0xc05589ca	-3.336535
65	0xc06d272e	-3.7055163
66	0xbfd1f0e0	-1.6401634
67	0xc02db59c	-2.7142096
68	0xc0429f76	-3.0409827
69	0xc060ae52	-3.5106397
70	0xbff9e492	-1.9522879
71	0xc0616e4e	-3.5223575
72	0xbf6ed408	-0.93292284
73	0x3fbd0d25	1.4769636
74	0xbfd67a48	-1.6756067
75	0x3f852947	1.0403222
76	0x40810613	4.0319915
77	0x4027785d	2.6167214
78	0x409198d8	4.5499077
79	0x40890a4a	4.282506
80	0xc0447cda	-3.0701203
81	0xc0675c6b	-3.6150157
82	0x40236ca0	2.553505
83	0x40ac5bb6	5.386195
84	0xc0404e3e	-3.0047755
85	0xc0949ec7	-4.644382
86	0x40a73ac8	5.2259254
87	0x405f3885	3.4878247
88	0xc0462ad7	-3.0963647
89	0xc074de9e	-3.8260875
90	0xc018db4a	-2.3883843
91	0xc02f7b13	-2.7418869
92	0xc0785831	-3.8803828
93	0xc08cdad6	-4.4017134
94	0xc030e3fb	-2.7639148
95	0xc031cd6e	-2.7781634
96	0xbd8bd4d6	-0.068277046
97	0xc0230738	-2.5473156
98	0xbfa641df	-1.2988852
99	0xc00f756c	-2.2415419
100	0xbfc9112a	-1.5708363
101	0xbf15fbee	-0.5858754
102	0xc0188724	-2.3832483
103	0xbfbc58d4	-1.4714608
104	0x40d87ae1	6.765
105	0x40e8c893	7.274484
106	0xbf882311	-1.0635701
107	0xbfde7ac9	-1.7381221
108	0x3fc44aee	1.5335367
109	0x409ea051	4.95707
110	0xc01eea0a	-2.4830346
111	0xc085bc06	-4.179202
112	0xc053cec4	-3.309495
113	0xc05c4a3e	-3.4420314
114	0xc02b8b35	-2.6803715
115	0xc07945b3	-3.894879
116	0xc0130360	-2.297081
117	0xc02d056c	-2.703456
118	0xc00362f3	-2.0529144
119	0xc02d42d9	-2.707205
120	0x40157e18	2.3358212
121	0x3e66e3d0	0.22547841
122	0x40107f4c	2.2577696
123	0x3fcc2cf4	1.5951219
124	0x40301451	2.75124
125	0x402eb00c	2.729495
126	0x3f6b9f13	0.92039603
127	0x4017a511	2.3694499
128	0x3f4479c5	0.76748306
129	0xbf3c520c	-0.73562694
130	0x3f7d92ee	0.9905232
131	0xbde8218a	-0.11334522
132	0x4069241e	3.6428294
133	0x404383ca	3.0549188
134	0x40ac7fdb	5.3906074
135	0x4105bda2	8.358797
136	0xc060b9fd	-3.5113518
137	0xc030fdf2	-2.7654996
138	0xc066dfd2	-3.607411
139	0xc0210afc	-2.5162954
140	0xbff8f5bb	-1.9449991
141	0xc044d858	-3.0757046
142	0xc0244273	-2.5665557
143	0xc06c0cc4	-3.6882792
144	0xc0074146	-2.113359
145	0xbfad5381	-1.3541108
146	0x4082dd08	4.0894814
147	0x40966363	4.699632
148	0xbfe767e2	-1.8078578
149	0xc030724f	-2.7569768
150	0x402ad071	2.6689723
151	0x40562e92	3.3465924
152	0xc080f172	-4.0294733
153	0xc065acef	-3.58868
154	0xc07a54bb	-3.9114215
155	0xc099b6df	-4.803573
156	0xc03642dd	-2.847831
157	0xc08033f8	-4.006344
158	0xc01fa789	-2.4946005
159	0xc02f8479	-2.7424605
160	0xbf2ced2c	-0.67549396
161	0xc01470d6	-2.319387
162	0xbf9f49e2	-1.2444422
163	0xc02c822b	-2.6954448
164	0x403f9609	2.9935324
165	0x4089cba0	4.3061066
166	0x401021aa	2.2520547
167	0x40570666	3.3597655
168	0xbfd1f9a4	-1.6404309
169	0xc088ae75	-4.271296
170	0xbfb571e7	-1.4175385
171	0xbfa31830	-1.2741756
172	0x3f77bfa8	0.9677682
173	0xbfc85e77	-1.5653828
174	0xbfef85bb	-1.8712686
175	0xbf5bc8e4	-0.8585341
176	0xbf74787d	-0.9549635
177	0xc0114da5	-2.270364
178	0x40f538f4	7.6632023
179	0x40903cf9	4.507443
180	0xc058fbc3	-3.3903663
181	0xbff6529e	-1.9243963
182	0x3f1ecbb7	0.62029594
183	0x3f8b8517	1.0899991
184	0xbfe7ba33	-1.8103698
185	0xc01f7541	-2.4915316
186	0xbf8d1d03	-1.1024479
187	0xc0210f27	-2.5165498
188	0xc081916d	-4.049002
189	0xc05043ee	-3.254146
190	0xbff975fa	-1.9489129
191	0xbe25ae04	-0.16179663
192	0xc04e1cd7	-3.2205102
193	0xc04e69a3	-3.2251976
194	0xc05e5dc6	-3.4744735
195	0xc0763328	-3.8468723
196	0x40c6ef4f	6.2167125
197	0x404f49ee	3.2388873
198	0x407f1780	3.9858093
199	0x40aeabb1	5.4584584
200	0xc053c977	-3.3091714
201	0xc04572c6	-3.0851302
202	0xc081ab04	-4.052126
203	0xc01ff105	-2.4990857
204	0xc066fec7	-3.6093004
205	0xc043d651	-3.0599558
206	0xc04e4ee7	-3.2235658
207	0xc0167b65	-2.3512814
208	0xbf316c39	-0.6930576
209	0x3f338e4b	0.70138997
210	0xbf8e0b3f	-1.1097182
211	0x3f55b967	0.83486027
212	0xbe6ddce9	-0.23228802
213	0x3e2cb07e	0.16864201
214	0x3c04fa57	0.008116326
215	0xbcc824eb	-0.024431666
216	0xbe41e8f7	-0.18936525
217	0x3f764075	0.96192104
218	0x3f4cbdf7	0.79977363
219	0x3ea6517f	0.32484052
220	0x3f6a8ab1	0.91617876
221	0xbc896a98	-0.01677446
222	0x3f825695	1.0182673
223	0xbf3cd01c	-0.7375505
224	0xc037b04a	-2.8701348
225	0xc0370083	-2.8594062
226	0xc09ba7f9	-4.8642545
227	0xc07a6ff2	-3.9130826
228	0xc037fabe	-2.874679
229	0xc07a5878	-3.9116497
230	0xc0c2a6ef	-6.0828776
231	0xc026fff7	-2.6093729
232	0x40d31cf1	6.597283
233	0x408047cb	4.008764
234	0x404a5263	3.1612785
235	0x3f4a1ad4	0.78947186
236	0xc06c2304	-3.6896372
237	0xc09868c2	-4.762788
238	0xc021bd97	-2.5271966
239	0xc027bba3	-2.6208274
240	0xc021819b	-2.5235355
241	0xbfdc0ce3	-1.7191433
242	0xc01e7a09	-2.4761984
243	0xbfd43146	-1.6577537
244	0xc00c5ec7	-2.1932847
245	0xc009c722	-2.152779
246	0xc048bc86	-3.1365066
247	0xc04e7604	-3.225953
248	0x40b9e309	5.8089643
249	0x408ee2d0	4.465187
250	0x406f7713	3.7416427
251	0x408fbba4	4.4916553
252	0x3fc27937	1.5193242
253	0xbf052745	-0.52013046
254	0x3fcd6318	1.6045866
255	0x3f1b078e	0.605584

logic_layers.1.weights f4 [2560, 16]
0	0xc04a31c5	-3.1592877
1	0xbfdd90c6	-1.7309806
2	0x40170e0f	2.360233
3	0xc058bd2f	-3.3865469
4	0xc009ab1a	-2.1510682
5	0xc09b78ba	-4.858487
6	0xbfdb8143	-1.7148823
7	0xc06838cd	-3.6284668
8	0xc01cc86b	-2.4497325
9	0xc0b8e7ed	-5.7783113
10	0x40bee97a	5.9660006
11	0xbfd2c96f	-1.6467723
12	0xc070f4a3	-3.7649314
13	0xc09714db	-4.721296
14	0xbfaca8c2	-1.3489001
15	0xc0566f6c	-3.3505507
16	0xc005260f	-2.080448
17	0x40d69185	6.7052636
18	0xbf299d9e	-0.6625613
19	0x4096ac5f	4.7085414
20	0xc0896547	-4.293613
21	0xbfefc0ec	-1.873075
22	0xc0136ab2	-2.3033872
23	0xbfab426a	-1.3379643
24	0xc03e0902	-2.9692998
25	0x406e5201	3.7237551
26	0xc0533164	-3.2998896
27	0x403023d5	2.752187
28	0xc0909ed9	-4.5193906
29	0xbf13c153	-0.57716864
30	0xc01c7535	-2.4446537
31	0xc009eba2	-2.155007
32	0xc00d0cdb	-2.2039096
33	0xc05e1c4f	-3.4704778
34	0x40358dd4	2.8367815
35	0xc0a03cce	-5.0074224
36	0xc0171d91	-2.3611796
37	0xc0803166	-4.00603
38	0x40ddaf3a	6.92764
39	0xbfc6a432	-1.5518858
40	0xbff25b38	-1.8934088
41	0xc06dcb4a	-3.7155328
42	0x408366cb	4.106298
43	0xbfaae712	-1.3351767
44	0xc087c55f	-4.242843
45	0xc0391cf6	-2.8923926
46	0x40328386	2.7892776
47	0xc01f2f1f	-2.487251
48	0xc01c485b	-2.4419162
49	0xc03dbac1	-2.9645236
50	0x41171fc3	9.445254
51	0x408ab62b	4.3347373
52	0xc021e308	-2.529482
53	0xbf91be3c	-1.138618
54	0x3fc94475	1.5724016
55	0x4008b15d	2.1358254
56	0xc021ef53	-2.5302322
57	0xc05296d4	-3.2904558
58	0xc01db0db	-2.4639194
59	0xc01698a8	-2.3530674
60	0xc03d2fb0	-2.9560356
61	0xc08cdb3d	-4.4017625
62	0x3a83904a	0.0010037508
63	0xc022d187	-2.5440385
64	0xbfe63737	-1.79856
65	0xbfdffefa	-1.7499688
66	0x407af7bd	3.9213707
67	0x40d7e6eb	6.746938
68	0xbfe9b0c8	-1.8257074
69	0xbfa186e3	-1.2619289
70	0x3fed8d32	1.8558714
71	0x406f92ca	3.7433343
72	0xc08afaa0	-4.343094
73	0xc0310828	-2.7661228
74	0x3ec85818	0.3912971
75	0xbf81c560	-1.0138359
76	0xc038cbe2	-2.887444
77	0xc0b1d58d	-5.557318
78	0xbfa5dc12	-1.2957785
79	0xbfa800f4	-1.3125291
80	0xc0404c5e	-3.004661
81	0xbf6a27db	-0.91467065
82	0xc063e383	-3.5607612
83	0xc049dab6	-3.153974
84	0x406ed1d8	3.7315578
85	0x4095ccc8	4.6812477
86	0x4084c0bf	4.1485286
87	0x40b018b4	5.5030155
88	0xc0509ba0	-3.2594986
89	0xc0848595	-4.1413064
90	0xc023d271	-2.5597193
91	0xc0878cf6	-4.235957
92	0xc09a76de	-4.82701
93	0xc0670fe2	-3.6103444
94	0xc0355d08	-2.8338032
95	0xbfc9bfab	-1.5761617
96	0xbfa0d07c	-1.2563624
97	0xc032a96b	-2.7915905
98	0xc0233867	-2.5503175
99	0xc044cc54	-3.0749712
100	0xc035b432	-2.8391232
101	0xbfff42d2	-1.9942267
102	0xc08dc9c9	-4.430882
103	0xc080bf64	-4.023363
104	0x3f8b423e	1.087959
105	0xc026361b	-2.5970523
106	0x40dfcb26	6.9935484
107	0xc0379f51	-2.869099
108	0xbef720b6	-0.48267144
109	0xbfa63916	-1.2986171
110	0x3f04a4a8	0.51813745
111	0xbb6ae944	-0.0035844604
112	0xbff863c6	-1.9405448
113	0xc04ee11e	-3.23249
114	0xc08055a0	-4.0104523
115	0xc054322c	-3.3155622
116	0xbf4db227	-0.80349964
117	0xc0861e5d	-4.1912065
118	0xc088c556	-4.274089
119	0xc08c8cee	-4.3922033
120	0xbfac618f	-1.3467273
121	0xc065dc04	-3.5915537
122	0xc00496c0	-2.071701
123	0xc044c4e6	-3.0745177
124	0x40df2e4d	6.974402
125	0x3ff8d79a	1.9440796
126	0xbf01434b	-0.50493306
127	0xc0802177	-4.004085
128	0xc014c5d0	-2.3245735
129	0xbfe85197	-1.8149899
130	0xc064d3de	-3.5754313
131	0xc080f149	-4.0294538
132	0x3f9fedc2	1.2494433
133	0x408d2473	4.4106994
134	0xc028b8ae	-2.636272
135	0xc03675f5	-2.8509495
136	0xc00985c9	-2.1487906
137	0xc04b9c21	-3.1814044
138	0xc07a70f7	-3.9131448
139	0xc04138af	-3.0190847
140	0x3fdddb9d	1.7332646
141	0x408aeb91	4.3412557
142	0xbfa54f25	-1.2914778
143	0xbfdfeaa6	-1.7493484
144	0xc07b40f5	-3.9258397
145	0xc013325c	-2.2999487
146	0xc00aa174	-2.1661043
147	0xc05e9f5b	-3.4784763
148	0xbfcafb5f	-1.5857962
149	0xbfc2a154	-1.5205483
150	0xc0806f74	-4.013605
151	0xc02dc389	-2.7150595
152	0x40d921fb	6.785398
153	0x3e1bccef	0.15214895
154	0xc0515c77	-3.2712686
155	0xc01a3820	-2.4096756
156	0x406ce4d6	3.701467
157	0x4065fa74	3.5934114
158	0xc00e27b5	-2.2211735
159	0xc024d6cd	-2.5756104
160	0xbbe209c7	-0.006898138
161	0x40a46a27	5.137958
162	0xc00bfe15	-2.187383
163	0xc0431e27	-3.0487154
164	0xc0266d56	-2.6004233
165	0x40d0880c	6.5166073
166	0xc05f9e68	-3.4940434
167	0x3f082a82	0.5318986
168	0xc0940cfd	-4.6265855
169	0x3e2a004c	0.16601676
170	0xc00bdf5d	-2.185508
171	0xbffa4737	-1.9552983
172	0xc01d35d7	-2.4564111
173	0x3fb9b429	1.4508106
174	0xc0474457	-3.1135461
175	0xbf022eca	-0.50852644
176	0xc04d005a	-3.2031465
177	0x40b196c4	5.549654
178	0xbfe74be7	-1.8070039
179	0x4078bf41	3.8866732
180	0xc09872d5	-4.7640176
181	0xc00f11ef	-2.2354696
182	0xc066f569	-3.6087286
183	0xbfabe493	-1.342913
184	0xc0365166	-2.8487182
185	0x403d17c7	2.9545763
186	0xc04bf4e0	-3.186821
187	0x4095ec16	4.685069
188	0xc07793aa	-3.8683877
189	0xc001e77a	-2.0297532
190	0xbfe93277	-1.8218526
191	0xc056de86	-3.3573318
192	0xbfb98f5a	-1.4496872
193	0xbf7c182e	-0.98474395
194	0x3ead81e0	0.3388815
195	0x3ecd6e11	0.40123037
196	0xbf9cd275	-1.2251726
197	0xbf3af76b	-0.7303378
198	0x3f8d77d4	1.1052194
199	0x40e1835b	7.0472846
200	0xc086fd0b	-4.218389
201	0xc03e3fe4	-2.9726496
202	0xc04afaa7	-3.1715486
203	0xc008a449	-2.1350272
204	0xc089682c	-4.2939663
205	0xc02f24c6	-2.7366195
206	0xbff3259b	-1.8995851
207	0xbfcd8461	-1.6056024
208	0xc01cc7f8	-2.4497051
209	0xc09c8b83	-4.8920302
210	0xbf2b3fe1	-0.66894346
211	0xc027704b	-2.6162288
212	0x40d5dfa7	6.6835513
213	0xc01f7315	-2.491399
214	0xbf5cf9be	-0.86318576
215	0xbfe2afad	-1.7709862
216	0xc0539881	-3.306183
217	0xc08f370b	-4.475469
218	0xc05dbc5c	-3.4646215
219	0xc04f696e	-3.24081
220	0x3f52fe0e	0.82418907
221	0xc03041b4	-2.7540102
222	0xbfe9b399	-1.8257934
223	0xbfb8a7d7	-1.4426221
224	0xbf4c5abc	-0.7982595
225	0x40aaff7f	5.3436885
226	0xc04cdce5	-3.2009823
227	0xbf8c3c10	-1.095583
228	0xbf9e2b18	-1.2356901
229	0x40809b49	4.0189557
230	0xc0a77def	-5.2341228
231	0xbfe301f1	-1.7734967
232	0xbfc996f1	-1.5749189
233	0x40a2d350	5.088295
234	0xc06237cd	-3.5346558
235	0xc000f395	-2.014867
236	0xc054e051	-3.3261912
237	0x4028768f	2.6322362
238	0xc006d5d7	-2.1068017
239	0xbf92e9d2	-1.1477606
240	0xc0512ed8	-3.268484
241	0xbecbac01	-0.39779666
242	0xbf2a4174	-0.66506124
243	0xbfa8a88d	-1.3176438
244	0x4031cf3b	2.7782733
245	0x40e11526	7.0338316
246	0xbf00caea	-0.5030962
247	0x3fb79581	1.43425
248	0xc01dcd6e	-2.4656634
249	0xc08438ac	-4.131918
250	0xc0a30fc2	-5.0956736
251	0xc0168b4b	-2.3522518
252	0x3f117f9f	0.5683536
253	0xbe23ba0e	-0.15988943
254	0xc01ac833	-2.4184692
255	0x3db408e2	0.08790757
