trained_models/mnist_trained_32x32/model_006.pth (torch, 822593 bytes, 4 tensors)

logic_layers.0.weights f4 [2560, 16]
00000000: 9e14 08c1 d20c 07c1 63e5 0ec1 9f9f 0cc1
00000010: fd83 13c1 2022 10c1 23c5 07c1 55d1 03c1
00000020: c8cb 72c0 d44c 6bc0 a00d 4fc0 2427 3741
00000030: 814c bec0 ca25 c1c0 4084 a7c0 aef9 77c0
00000040: ca4d b9c0 6edb c8c0 3b76 01c1 0634 e8c0
00000050: 42be cac0 670d d6c0 732f f4c0 3eff e3c0
00000060: 2337 6641 0774 2941 66d7 a4c0 27f0 b2c0
00000070: a89d a63f 972d 0240 cf4c 8bc0 1648 9ec0
00000080: a643 bfc0 845e 5bc0 28d3 d1c0 0b5c c8c0
00000090: 93d1 10c0 d0a8 3ec0 1655 e5c0 4702 f0c0
000000a0: 6283 f83f a1ac 8541 a2a6 8bc0 e467 b2c0
000000b0: 88c7 6fbf 4aae 09bf 0c27 97c0 fe98 adc0
000000c0: 085c 68c0 d073 75c0 f23b 4cc0 694a 89c0
000000d0: a39e 8d41 8cbf 033f 85b8 54bf 50fc d9bf
000000e0: c500 55c0 fc88 46bf 228f 55c0 ba38 23c0
000000f0: f0c4 653e 8153 6ebf 5b39 27c0 5a84 b4bf
00000100: 137d b0c0 58c9 76c0 07ad 8bc0 2652 88c0
00000110: 26b4 a0c0 1ad1 b3c0 0233 87c0 9e77 92c0
00000120: 75cb 1340 8c6a ae40 b90a 5040 5f84 bf40
00000130: ba44 af3e ff55 6940 1ba5 8e40 19cd bc40
00000140: 0b14 e6c0 747a cbc0 5459 d6c0 3e67 ebc0
00000150: 4f8e 7041 520a 5b40 cfd4 6a40 04b1 2440
00000160: 8101 eec0 23bd f0c0 7da7 02c1 1ff5 efc0
00000170: 527f d9c0 ada8 eac0 0736 edc0 26b3 b3c0
00000180: c968 c540 c2d2 a940 d93f 5340 d71a 9a40
00000190: bfcf 6740 5e01 7b40 66c1 8640 0d83 6640
000001a0: 35b1 98c0 1804 8cc0 a13a 66c0 cd4f 3cc0
000001b0: 4ba5 94c0 b4d7 66c0 24e0 96c0 ce08 62c0
000001c0: 37c3 b5c0 69b7 9fc0 1414 c1c0 fc19 d0c0
000001d0: 07ce 0c41 d6ea 4841 c242 f340 691f 3f41
000001e0: 206f 0dc1 84ea f5c0 c71a 0ec1 ab7c 0cc1
000001f0: d010 07c1 feff 04c1 d381 e9c0 bde7 02c1
00000200: 42c9 cdc0 346c bfc0 71ac edc0 7db0 e6c0
00000210: f582 d2c0 8a9a cfc0 15f0 c5c0 3d77 d7c0
00000220: 1ede d4be d335 6e3f 283c 94c0 d290 9cc0
00000230: d092 2640 f160 6441 dc99 afc0 f9a2 b0c0
00000240: e264 ad40 bb48 f140 cb1c 9e40 3a08 2a40
00000250: 88d0 55bf f288 b9bf c69d cebf b528 d3bf
00000260: d5b0 3cc0 c219 8cc0 8f48 7cc0 a5af 03c0
00000270: dfbc 90c0 1e01 80c0 7d9e 82c0 9f06 a2c0
00000280: 8fba 28c0 223e c5c0 5790 bcc0 d4f1 c0c0
00000290: feac c5c0 d310 cec0 460e d7c0 31a5 d6c0
000002a0: d32b 7741 8e7f 42c0 f208 b2c0 832b f3c0
000002b0: 989e 99bf 830c 61c0 6965 89c0 9777 a9c0
000002c0: 3bac 64c0 5777 9cc0 c6e7 93c0 40c0 80c0
000002d0: 16ea 8ac0 21cc 87c0 7bb6 9fc0 cda5 a7c0
000002e0: 2ed6 b2be e880 0fc0 2e2f ee40 e231 f640
000002f0: 4f39 723d 194e 10c0 bf2d a340 4fa9 a640
00000300: d78e 00c0 fa50 36c0 8843 6bc0 c0fc 96c0
00000310: 918a 5ac0 669a c5bf 0a74 4cc0 562a 34c0
00000320: c936 1cbf f7e7 12bf 4157 8340 745a 5240
00000330: 1c1c 4e3e 5e70 c6bf 5d26 6240 bd65 9c40
00000340: 4538 fcc0 3bbe 05c1 d3a7 b9c0 5573 4d41
00000350: d2f1 0cc1 393e 03c1 529f e4c0 39ce eac0
00000360: 00fd 0fc1 974f 06c1 d62f 15c1 38e1 fcc0
00000370: 0ed4 12c1 3ca0 16c1 04cf 0cc1 117b 0dc1
00000380: 8802 01c1 5206 f2c0 91c4 f9c0 0614 f8c0
00000390: e27f c5c0 8bb6 d7c0 7f20 cec0 51aa ccc0
000003a0: ee56 fbc0 1d25 f6c0 d25c e8c0 eb22 f2c0
000003b0: 85ae 3c41 0519 92c0 671c 86c0 d106 99c0
000003c0: 3afe 1dbf 03a7 d1bf 491a 8641 1032 bd3f
000003d0: a0a2 a5bf b413 febf fced 993f 281a b2bf
000003e0: e0c4 4ec0 1b19 87c0 07e9 8ac0 6375 4ac0
000003f0: d5c9 53c0 3f12 5dc0 32f7 2ec0 e3d4 7bc0
-8.5050335 -8.44063 -8.931003 -8.78897 -9.219724 -9.008331 -8.485629 -8.238606
-3.7936878 -3.6765642 -3.2352066 11.447056 -5.946839 -6.035863 -5.234894 -3.8746142
-5.7907457 -6.276786 -8.091365 -7.2563505 -6.335725 -6.689136 -7.630792 -7.1249075
14.388461 10.590827 -5.1512938 -5.5918155 1.3016863 2.0340326 -4.353126 -4.9462996
-5.977008 -3.4276438 -6.557026 -6.2612357 -2.2627914 -2.9790535 -7.1666365 -7.500278
1.9415095 16.709291 -4.364091 -5.575182 -0.93663836 -0.5378157 -4.7235165 -5.424926
-3.6306171 -3.8351936 -3.1911588 -4.2903333 17.70246 0.5146415 -0.83094054 -1.7030125
-3.328172 -0.7755277 -3.3368611 -2.5503373 0.22438407 -0.93096167 -2.6128757 -1.410289
-5.515268 -3.856039 -4.3648715 -4.260028 -5.021991 -5.619275 -4.2249765 -4.5771017
2.309293 5.450506 3.2506545 5.9849086 0.34232122 3.6458738 4.4576545 5.9000363
-7.1899467 -6.358698 -6.6984043 -7.356353 15.034743 3.422505 3.6692388 2.5733042
-7.4376836 -7.523088 -8.165891 -7.498672 -6.796792 -7.3330903 -7.412845 -5.6156187
6.169041 5.3069773 3.300772 4.8157763 3.6220548 3.9219584 4.211108 3.6017487
-4.7716317 -4.3754997 -3.5973284 -2.9423707 -4.6451774 -3.6069155 -4.714861 -3.5317874
-5.68008 -4.991139 -6.033701 -6.503172 8.8003 12.557333 7.601899 11.9451685
-8.83963 -7.6848774 -8.881537 -8.7804365 -8.441605 -8.312498 -7.2970977 -8.181577
-6.4308176 -5.9819584 -7.4273 -7.209044 -6.578486 -6.4876146 -6.185557 -6.7333055
-0.41575712 0.9305088 -4.6323433 -4.8926783 2.6027107 14.273667 -5.4875317 -5.519894
5.418565 7.540128 4.941015 2.656752 -0.8352132 -1.4494917 -1.6141899 -1.6496798
-2.948293 -4.3781443 -3.9419286 -2.0575955 -4.5230556 -4.0001364 -4.0818467 -5.0633082
-2.6363866 -6.1638346 -5.8926196 -6.02952 -6.177367 -6.4395537 -6.7204924 -6.707665
15.448199 -3.0390353 -5.563592 -7.5990615 -1.2001524 -3.5163887 -4.293629 -5.2958484
-3.573012 -4.889568 -4.6220427 -4.023468 -4.341075 -4.243668 -4.9910254 -5.2389894
-0.3492903 -2.2422428 7.4432592 7.693589 0.059136685 -2.2547667 5.0993342 5.2081676
-2.0087183 -2.8486924 -3.6759968 -4.7183533 -3.4147074 -1.5437744 -3.1945825 -2.815084
-0.61021096 -0.573852 4.104401 3.2867708 0.2012791 -1.5503042 3.5335915 4.887419
-7.881869 -8.358943 -5.8017364 12.840657 -8.809038 -8.202691 -7.1444483 -7.3376737
-8.999268 -8.394431 -9.324179 -7.9024925 -9.176771 -9.41412 -8.800541 -8.8425455
-8.063118 -7.5632715 -7.805245 -7.7524443 -6.1718607 -6.741033 -6.441467 -6.3957906
-7.8543615 -7.6920304 -7.2613306 -7.5667624 11.792607 -4.565554 -4.190967 -4.782082
-0.61716044 -1.6379093 16.762835 1.4780903 -1.2940254 -1.9849763 1.2025752 -1.3914232
-3.2307663 -4.2218146 -4.3409457 -3.1634147 -3.3091938 -3.4542387 -2.7338376 -3.9348686

logic_layers.1.weights f4 [2560, 16]
00000000: 9fb2 bcc0 4638 44c0 b530 d7c0 e546 5c41
00000010: ef82 f6c0 101e c2c0 72d6 dfc0 82b1 b7c0
00000020: d0f1 d4c0 b591 a0c0 f0d8 d5c0 f3af 82bf
00000030: bf2c dcc0 47e3 d7c0 f8ba e5c0 5b2d c3c0
00000040: cc20 2fc0 de17 93c0 8519 2bc0 f42e 88c0
00000050: 80d2 15c0 7be7 a4c0 ad74 5d40 e122 91c0
00000060: 6865 1ac0 c927 b1c0 cc8d 2dc0 79cd a3c0
00000070: 1204 5cbf 6947 b0c0 8c0f 8241 1a14 8ac0
00000080: 8ece 2841 dfa2 5541 ba16 d840 5d74 c640
00000090: 7128 91c0 6cbf 92c0 075d 21c0 c602 68c0
000000a0: 6297 e4c0 4c74 86c0 16db d6c0 cd2b a3c0
000000b0: fd0c bcc0 519d d2c0 cb9d dbc0 73a3 a5c0
000000c0: 826f 3c40 c1b0 8bc0 cdd8 89c0 45ad 85c0
000000d0: 1d82 6c41 b2a4 9dc0 9971 8bc0 d92f 93c0
000000e0: ae25 ac3f 0119 90c0 03b8 9ec0 4455 adc0
000000f0: da49 5fbf 567d 98c0 1175 9ac0 e47e 92c0
00000100: e546 c73d b9b5 41bf 4af1 1dbf 9e89 9e3f
00000110: 536c 873f d16c 9340 d14c 1641 3c00 9441
00000120: b8c2 b8c0 cf0f 39c0 b12f 89c0 35b0 b4bf
00000130: f2de 87c0 76ff 36c0 5dfb 40c0 fe63 36c0
00000140: 4e8b 25bf 172a 8bbf 4f99 93c0 7af5 9ac0
00000150: e632 c53f a5fe fdbf a8a9 86c0 3bfe 72c0
00000160: 4f26 1f40 2b7e d03f fa50 6dc0 8211 89c0
00000170: 4b72 7241 1a7e a43f 9682 99c0 76b7 67c0
00000180: ad69 adc0 4247 bac0 1039 8ec0 4477 b7c0
00000190: a427 92c0 6cdf c5c0 4da9 f5c0 af1b a8c0
000001a0: 843e 7ac0 c32d aac0 5b32 9b41 bd08 1040
000001b0: 8f74 2bc0 8c4b e93e d97b d440 f193 c740
000001c0: 8825 f8c0 ac1e 07c1 209b 4241 8e50 7abf
000001d0: 5928 08c1 3d9b 01c1 6a1f 03be 79ba 96bf
000001e0: 9e8d 09c1 ed27 0bc1 702b 03c1 7a8a e5c0
000001f0: 06fc 08c1 7bf0 03c1 90d6 f6c0 6409 f1c0
00000200: 96f0 69c0 682c 6cc0 8008 66c0 a015 7fc0
00000210: dfeb 3fc0 f092 87c0 d2c2 85c0 9cd6 8ec0
00000220: 6d48 0f40 2461 8341 96ec 8f40 dc77 9a40
00000230: 4bf9 3d3f c234 b23f 17ff 933f 467b 1140
00000240: c77f d2c0 fead 5b41 1b21 d2c0 4daa 0dbf
00000250: a6c5 e7c0 ec2d bcc0 c337 fcc0 546e 78c0
00000260: 1724 dcc0 1d36 36c0 e0bb ddc0 3d8f 13c0
00000270: 140c f9c0 3579 a2c0 873b f8c0 f199 92c0
00000280: 5741 7fc0 661a 9ec0 82bb 36c0 deca 01bf
00000290: 76b8 a0c0 f86a cfc0 1e7e 50c0 ff82 77bf
000002a0: 8479 92c0 252f b3c0 560c fbbf 73ef 0c3f
000002b0: bfb5 b1c0 0ace b2c0 ac38 9341 19a6 913f
000002c0: bd57 87c0 b183 b3c0 d57d eec0 25d4 f3c0
000002d0: 21c7 b9c0 96a3 c6c0 6756 dbc0 91d6 e4c0
000002e0: 2e28 6041 7d8d c5c0 385d e2c0 fb87 ebc0
000002f0: 2db0 81c0 e82c ecc0 7a21 c8c0 ce68 c8c0
00000300: 6d52 9ac0 2e92 10c0 a29e 79c0 798a 7741
00000310: 0986 6ac0 03f5 07c0 70e1 91c0 a83c f4bd
00000320: a480 90c0 fe26 36c0 aa5c 91c0 542f a540
00000330: b279 41c0 2737 06c0 d67e 6ec0 1380 933f
00000340: fe73 37c0 2146 a3c0 70ac 4e40 6a3a c1c0
00000350: 9398 1dc0 f2b2 8ec0 a607 66bf 3f91 90c0
00000360: bcd4 eebf 4dd4 bbc0 4c27 8041 5bcc a6c0
00000370: 8f22 64c0 a0fa 78c0 0237 01c0 2096 99c0
00000380: 3837 0ac1 eda8 02c1 159a d3c0 0bed 3e41
00000390: 1168 1ec1 3229 1fc1 f49f 1dc1 1d0d 18c1
000003a0: cf8a fac0 8699 07c1 502e d4c0 b46a c33f
000003b0: 4225 27c1 81d5 1bc1 9069 07c1 3a7f 0ec1
000003c0: b66c 3bc0 cd7b aac0 1131 b3be 0c00 90c0
000003d0: 1c31 81c0 4134 d1c0 9240 4840 46be 90c0
000003e0: cf47 25c0 b9b2 c0c0 2014 14be d3ea 7cc0
000003f0: 7c86 6cc0 91fb 8cc0 80c5 7e41 8fc4 72c0
-5.8968043 -3.0659347 -6.7246957 13.767308 -7.703483 -6.0661697 -6.9949274 -5.7404184
-6.654518 -5.0177865 -6.6827316 -1.0209945 -6.880462 -6.746494 -7.1790733 -6.0992866
-2.7363768 -4.5966635 -2.6734326 -4.2557316 -2.340973 -5.153257 3.4602463 -4.5355077
-2.4124393 -5.5361066 -2.7117796 -5.118832 -0.8594371 -5.508717 16.257591 -4.314954
10.550428 13.352263 6.7527742 6.2017045 -4.5361867 -4.585867 -2.521303 -3.6251693
-7.1434793 -4.2016964 -6.714244 -5.099097 -5.8765855 -6.5817037 -6.863012 -5.1762023
2.944306 -4.3653264 -4.307715 -4.177401 14.781766 -4.9263544 -4.357617 -4.599591
1.3448999 -4.503052 -4.9599624 -5.4166584 -0.87222064 -4.7653 -4.8267903 -4.5779896
0.09730319 -0.7566791 -0.616963 1.2385747 1.0579933 4.6070333 9.393754 18.500114
-5.7737694 -2.8915899 -4.2870717 -1.4116274 -4.245965 -2.859342 -3.015342 -2.849853
-0.6466569 -1.087222 -4.6124644 -4.8424654 1.5406158 -1.9843336 -4.20821 -3.796767
2.4867132 1.6288503 -3.7080674 -4.283387 15.152904 1.2850983 -4.7971907 -3.6205726
-5.41915 -5.8211985 -4.4444656 -5.733309 -4.567339 -6.183523 -7.6769166 -5.2533793
-3.9100657 -5.318086 19.399588 2.2505333 -2.6789892 0.4556545 6.640118 6.2368093
-7.7545815 -8.444988 12.162872 -0.97779167 -8.5098505 -8.1004 -0.12804952 -1.1775657
-8.5970745 -8.6972475 -8.198105 -7.173154 -8.561529 -8.246211 -7.7136917 -7.5323963
-3.6553092 -3.6902103 -3.5942688 -3.985695 -2.9987714 -4.2366867 -4.180032 -4.4636974
2.2387955 16.422432 4.49763 4.8271313 0.74208516 1.392235 1.1562222 2.273149
-6.578098 13.729979 -6.566541 -0.55337983 -7.242877 -5.8806057 -7.881807 -3.881734
-6.8794055 -2.8470528 -6.929184 -2.3056176 -7.7827244 -5.077296 -7.7572665 -4.5812917
-3.988363 -4.9407225 -2.8551946 -0.50700176 -5.022517 -6.4818077 -3.2576976 -0.9668426
-4.5773335 -5.599505 -1.961314 0.5505287 -5.553436 -5.5876513 18.402672 1.1378814
-4.2294602 -5.6098256 -7.4528604 -7.6196465 -5.8055577 -6.207469 -6.854297 -7.151192
14.0098095 -6.1735215 -7.0738792 -7.360349 -4.052756 -7.3804817 -6.2540865 -6.2627935
-4.8225617 -2.258922 -3.9003072 15.471307 -3.6644309 -2.1243293 -4.558769 -0.11925632
-4.515703 -2.84613 -4.5425615 5.1620274 -3.0230527 -2.0971162 -3.7264915 1.152346
-2.8664546 -5.1023107 3.2292747 -6.0383806 -2.4624374 -4.459344 -0.8985542 -4.51773
-1.8658671 -5.8696656 16.019188 -5.2124457 -3.5646093 -3.890297 -2.0189824 -4.799576
-8.638481 -8.166242 -6.612559 11.932872 -9.900407 -9.947557 -9.851551 -9.5032015
-7.8294444 -8.474981 -6.6306534 1.5266938 -10.446596 -9.739625 -8.463272 -8.906061
-2.9285102 -5.3276124 -0.34998372 -4.5000057 -4.037245 -6.5376287 3.128941 -4.5232267
-2.5825078 -6.0218167 -0.14460802 -3.9518325 -3.6957083 -4.405709 15.923218 -3.793247

logic_layers.2.weights f4 [2560, 16]
00000000: de4a 97c0 3208 bbc0 2b10 b6c0 9951 b3c0
00000010: 3350 a241 e621 5140 81c4 0fc0 b689 60c0
00000020: 748d a4c0 6aac a0c0 17bf d8c0 ad5e 8cc0
00000030: 2046 1441 5491 c2bf f94d 4d3f 7b85 6ec0
00000040: 816e acc0 936f c6c0 d47d bfc0 cfe3 acc0
00000050: dfd7 85c0 15d1 d7bf a01f c6c0 6de3 bbc0
00000060: 06d2 c8c0 4500 9dc0 e6e5 cac0 0a07 bec0
00000070: b9bc 79c0 8430 6f41 067c d9c0 2cc4 b7c0
00000080: fa12 17c1 ee77 fac0 fdc9 9bc0 bc0f 07c1
00000090: a2be fbc0 984c 0bc1 d514 c5c0 974f 04c1
000000a0: f8bf 0bc1 272c 06c1 1c48 3c41 3701 e7c0
000000b0: c1e2 f9c0 3563 19c1 4bc1 70c0 ec4a eec0
000000c0: 079e 8cc0 fb73 9fc0 d235 a9c0 8b4d 95c0
000000d0: e7b3 0abe da9b a9bf d701 6041 fcfa a840
000000e0: ecff a4c0 7308 c3c0 e2ba a6c0 5b6e aac0
000000f0: f0c2 a9c0 74fc a4c0 cfc6 a4c0 de61 92c0
00000100: 2865 a6c0 8fa0 a7c0 e7be bbc0 89b2 c8c0
00000110: f784 b2c0 fa22 b2c0 b79d b0c0 7af3 bac0
00000120: 6ba0 41c0 8827 14c0 f1e3 c7c0 4229 8fc0
00000130: acc4 0dc0 9a0a 6641 f2f9 aec0 2460 93c0
00000140: c7fa c0c0 cc32 a9c0 d85b afc0 b418 bcc0
00000150: 8869 26c0 e71e 1dc0 afed 1a40 6ff7 10c0
00000160: 85f2 bec0 ffd4 a9c0 e6d7 a1c0 7b74 9fc0
00000170: 1c8a 6041 a3c2 14c0 ab95 a240 5320 6fc0
00000180: 52b8 d5c0 ca6a 2ec0 0caf ecc0 d751 d4c0
00000190: 2f8d b0c0 f2b6 4741 78a9 ddc0 efd8 dac0
000001a0: e273 b8c0 7054 8dc0 7c1f fbc0 79df d6c0
000001b0: 7b62 f1c0 d5e7 84c0 2163 cec0 75e2 d9c0
000001c0: e1f5 86c0 69c6 cfc0 5459 7641 151e 93c0
000001d0: 49b5 80c0 b75a a1c0 3eff 87c0 b11b 85c0
000001e0: a297 52c0 9e45 b5c0 4ab3 b4be 40b2 65c0
000001f0: a8ae 8fc0 1bc9 98c0 7161 85c0 079b 84c0
00000200: b923 46c0 3c6f 7441 deca 70c0 a99f 68c0
00000210: 03d3 6fc0 e659 7c3f 519c a5c0 0910 37c0
00000220: cfbe 96c0 0489 7c3f 5964 bbc0 e291 36c0
00000230: e8c2 91c0 645f f1bf 75f4 82c0 de59 0bc0
00000240: 0e2f d5c0 ee9a f9c0 18aa aac0 2c70 d0c0
00000250: 0b83 d3c0 5529 f5c0 bee0 a0c0 e4a7 f0c0
00000260: d648 e4c0 08b2 fdc0 3b7f 1540 4bf4 d9c0
00000270: 4884 c1c0 9ad0 f3c0 8834 5241 3058 c9c0
00000280: 3205 9cc0 209d 18c0 d5e7 b1c0 9bc7 6a41
00000290: 0db1 8cc0 9a8a b1c0 6a96 abc0 d167 ca3f
000002a0: bf73 90c0 51c7 31c0 3023 c7c0 2f96 5240
000002b0: c835 9fc0 04c0 5dc0 d1c6 65c0 e9f8 2b40
000002c0: d452 c9c0 b609 93c0 2fe9 ebc0 4bbf e1c0
000002d0: 3ff4 97c0 b981 5a41 5bb0 b5c0 469b c3c0
000002e0: d485 d1c0 e0f9 9dc0 14e2 f6c0 3ad0 fac0
000002f0: 9c53 8cc0 12e4 f7bf e8c5 ebc0 38a6 cfc0
00000300: 998f 87c0 afcf bfc0 90d3 b3c0 7e15 dfc0
00000310: 78ed eb3e 0fe3 bac0 7d44 8a3d e7e3 cbc0
00000320: cef0 94c0 5b8f f5c0 2a6b c4c0 9627 ccc0
00000330: df58 5041 86a4 d6c0 0ea4 a33e 6789 bdc0
00000340: df48 1cc0 536b be40 4392 bbc0 95ce 88c0
00000350: 80b9 11c0 b276 b140 7f45 c7c0 ca7b 76c0
00000360: ea14 3ac0 eff1 7c41 b5f0 98c0 864b 66c0
00000370: ad72 34c0 baf4 3540 e12e d3c0 d379 8bc0
00000380: 3688 63c0 6ced 75c0 1916 cac0 de05 c8c0
00000390: 8fd0 8241 df1e 7bbf be40 c4c0 bcca a7c0
000003a0: 9af6 45c0 4532 83c0 8bab afc0 7b97 adc0
000003b0: e925 503f 32c2 c7bf d07e 98c0 7645 63c0
000003c0: d3e2 2ac0 c968 6441 2114 85c0 7c2f 09c0
000003d0: 9dc3 90c0 8a4a 3bc0 c018 cec0 8e27 b6c0
000003e0: 156e bfc0 ae7e d3c0 208d d0c0 dc20 bdc0
000003f0: ac02 cdc0 3cb2 dec0 044d d8c0 a9c8 c4c0
-4.727889 -5.8447504 -5.6894736 -5.6037107 20.28916 3.267694 -2.2463686 -3.5084052
-5.142267 -5.0210466 -6.7733264 -4.386557 9.26712 -1.5200601 0.801971 -3.726897
-5.3884892 -6.20112 -5.98411 -5.4028087 -4.1826015 -1.6860682 -6.1913605 -5.871512
-6.2756376 -4.906283 -6.340564 -5.9383593 -3.9021437 14.949345 -6.7963896 -5.742697
-9.442133 -7.82714 -4.868407 -8.441341 -7.8670206 -8.7062 -6.158793 -8.269431
-8.734367 -8.385779 11.767605 -7.2188983 -7.80893 -9.58672 -3.7617977 -7.4466457
-4.3942904 -4.982908 -5.28782 -4.6657157 -0.1354519 -1.3250687 14.000449 5.2806377
-5.1562405 -6.0947814 -5.210313 -5.325971 -5.305046 -5.155817 -5.1492686 -4.5744467
-5.199848 -5.2383494 -5.8670535 -6.271794 -5.578731 -5.5667696 -5.5192523 -5.8422213
-3.0254161 -2.3149128 -6.246575 -4.4737864 -2.215129 14.377588 -5.468011 -4.605486
-6.0306125 -5.287451 -5.4799614 -5.8780155 -2.600191 -2.4550111 2.420757 -2.2651021
-5.9671044 -5.3072505 -5.057605 -4.982969 14.033718 -2.3243797 5.08077 -3.736348
-6.67875 -2.725268 -7.396368 -6.63499 -5.5172343 12.482164 -6.926937 -6.838981
-5.764146 -4.4165573 -7.8475933 -6.7147794 -7.5432715 -4.1533 -6.4496007 -6.8088937
-4.2175145 -6.49297 15.396809 -4.597422 -4.0221295 -5.0423236 -4.2499075 -4.1596303
-3.290505 -5.664748 -0.35293037 -3.5890045 -4.4900703 -4.774549 -4.1681447 -4.143924
-3.0959303 15.277157 -3.762382 -3.634745 -3.7472541 0.98574674 -5.1753316 -2.8603537
-4.710792 0.9864657 -5.8559995 -2.852654 -4.5550423 -1.8857236 -4.092341 -2.17736
-6.661994 -7.8001623 -5.3332634 -6.513693 -6.6097465 -7.6612954 -5.0274343 -7.5204945
-7.133891 -7.9279823 2.3358905 -6.811071 -6.0473976 -7.619214 13.137825 -6.292015
-4.875634 -2.3845901 -5.55955 14.673732 -4.3966126 -5.548169 -5.362111 1.5812932
-4.514129 -2.7777903 -6.2230453 3.2904165 -4.975315 -3.4648447 -3.5902598 2.6870673
-6.291361 -4.5949354 -7.372215 -7.054601 -4.748565 13.656671 -5.677778 -6.1127043
-6.5475864 -4.9367523 -7.7150974 -7.8379183 -4.385206 -1.9366477 -7.3679085 -6.4890404
-4.236279 -5.994102 -5.6195755 -6.9713736 0.46079612 -5.840217 0.06751344 -6.37157
-4.654395 -7.6737494 -6.1380816 -6.3798323 13.021697 -6.7075834 0.319611 -5.9230227
-2.4419477 5.950601 -5.861604 -4.2752175 -2.276947 5.545739 -6.2272334 -3.8513055
-2.9075265 15.809066 -4.779383 -3.5983596 -2.8194993 2.843062 -6.5994725 -4.358621
-3.5551887 -3.842616 -6.3151975 -6.250716 16.351835 -0.9809398 -6.132903 -5.243498
-3.0931764 -4.0998864 -5.4896903 -5.4247413 0.81307846 -1.5606139 -4.76548 -3.5511146
-2.6700943 14.275582 -4.158707 -2.1435232 -4.5238786 -2.9264245 -6.4405212 -5.6923285
-5.9821877 -6.609214 -6.517227 -5.910261 -6.406576 -6.959257 -6.7594013 -6.1494946

logic_layers.3.weights f4 [2560, 16]
00000000: c0c2 8bc0 0f66 7a41 dfe4 83c0 cc6c e8bf
00000010: 6a86 91c0 f156 48bf 230f 80c0 bc28 3fc0
00000020: e50d b3c0 f667 9ac0 6518 b0c0 edc4 6fc0
00000030: e71a a6c0 b11a 4fc0 722f 7dc0 2d77 23c0
00000040: 955e 4dc0 909a c4bf a31c ecbf 2f03 65c0
00000050: 505c 86c0 75c5 80c0 1596 6dc0 0a3c 55c0
00000060: 5076 f4bf a21d 62bf 08f3 d1bf f134 8341
00000070: 645a 6ec0 86e8 f7bf 5703 eebf 4c5c b4bf
00000080: c5c7 56c0 1851 8dc0 d811 61c0 b7aa 8dc0
00000090: 2aa8 84c0 126c a2c0 460a 4fc0 67bd c3c0
000000a0: 96ff 3dc0 bdb4 51c0 9c44 c53f 9b15 68c0
000000b0: 0f19 4bc0 c8e1 28c0 3de9 7f41 5ac9 1cc0
000000c0: b1c7 11c0 f00e 6dc0 eb24 83c0 7837 3fc0
000000d0: b3c2 be3f 14d8 6c3e 7c8e ebbf 3cef cabf
000000e0: febb 4cc0 e70a 47c0 2bbf 8dc0 38db 41c0
000000f0: 266d 8c41 d21e 4abf 0108 b9bf 1b7f b5bf
00000100: cacb 5ec0 c3c7 9cc0 48b8 86c0 8a29 96c0
00000110: 30e3 93c0 26ea d6c0 4173 bbc0 646f 99c0
00000120: 3f8d 5bc0 004a b1c0 f250 6241 9b2a 6dc0
00000130: 3499 95c0 933f aec0 8f77 36c0 bdc1 89c0
00000140: aa03 16c0 efee 98bf d7f0 82c0 954e 7b41
00000150: ccae 6ec0 aeb3 17c0 e936 2bc0 7060 2440
00000160: 0b19 22c0 01af 7dc0 b6f9 82c0 d991 b9bf
00000170: 8169 a1c0 f539 89c0 3a7f 8fc0 986c 3dc0
00000180: b58a 8ac0 9230 7141 e976 c1c0 095a 433f
00000190: 3e44 c9c0 0e8c bdc0 5e9c cac0 6e7b c6c0
000001a0: abe2 97c0 c7b1 8dbf f29d a1c0 c97f a0bf
000001b0: 93cb cac0 3ef3 a7c0 e658 d3c0 0357 bcc0
000001c0: 23bf 1cc0 4976 863f 7a47 51c0 5ab2 8e40
000001d0: 5e7b 06c0 f384 71c0 f142 88c0 d88c cebf
000001e0: 754e 5ec0 bc04 6440 b05c 9bc0 4364 8241
000001f0: 2ffd 87c0 8069 22c0 2309 48c0 6374 33bf
00000200: f8a3 9bbf 8c92 3bc0 7980 1240 f9a3 31c0
00000210: c54a 46c0 1db8 5bc0 69fd 0a40 5c99 b8bf
00000220: 817a 0cc0 507b 1fc0 a3d5 8741 9920 e5bf
00000230: 3c18 3cc0 f873 00c0 53e3 fc3f 6fdc cabf
00000240: 4fda a7c0 2c80 d5c0 24d1 96c0 e748 afc0
00000250: 5a44 7341 fefb b6c0 cc60 7bc0 52a2 5dc0
00000260: 3ca6 97c0 7138 bcc0 7ae2 96c0 8bad 99c0
00000270: 01b6 5e40 9bfa 98c0 24a8 73bf 2822 4fc0
00000280: ddf9 07c0 6ea7 2dc0 ece8 2ec0 26a8 89c0
00000290: c826 febf 9920 20c0 224c 1dc0 b366 2bc0
000002a0: 7c0d 66c0 3f92 38c0 901d 55c0 6092 93c0
000002b0: 660a 8141 fc10 b1be 9ae1 e6bf a42b 1bc0
000002c0: 348f c3bf 9df5 8cbf 3215 3fbf ca69 e73e
000002d0: a0a2 58c0 4e95 43c0 3ff2 2bc0 3fac 36c0
000002e0: e0c7 1bc0 28ac 46bf fb53 04bf 1ede 8841
000002f0: 7e48 4cc0 e802 1ac0 7ce4 3ac0 aef7 14c0
00000300: c0c8 6ec0 0883 98c0 7393 53c0 98da 5ec0
00000310: fbe3 7341 f22e ce3e fd2a f7bf 33c8 2fc0
00000320: 26a8 32c0 f0bd 94c0 e0a5 98c0 5449 8bc0
00000330: 9bb2 b9bf c127 25c0 507b 64c0 5f3e 7ac0
00000340: e6f8 19c0 56bc 17c0 b875 8c41 d75e c83f
00000350: c8b9 0cc0 45e6 6fc0 fada 10bf 6ea1 213e
00000360: bf2f cebf af40 8bc0 a11a 6c3f 18c2 3bbf
00000370: b863 94c0 f0e6 89c0 248f 51c0 4127 47bf
00000380: cb32 16c0 aa99 88c0 966f 4ec0 4545 afc0
00000390: 98ac 2bc0 ef9b 8bc0 9016 6bc0 7281 52c0
000003a0: 32fd edbe cba0 7dc0 7414 7841 2823 4ac0
000003b0: fbab 01c0 523b 23c0 a776 3ac0 9afb cbbf
000003c0: 92bd 61c0 8f08 dcbf 345b 87c0 902e 6e41
000003d0: 3f69 47c0 e6c2 92c0 179b acc0 e5a6 63c0
000003e0: 3e54 92c0 9394 cfbf 11a3 a1c0 0b8a 26bf
000003f0: 1ee1 b2c0 ec6a 8bc0 6088 85c0 0211 1dc0
-4.367523 15.649917 -4.1216884 -1.8158202 -4.547658 -0.7825766 -4.0018477 -2.9868612
-5.595446 -4.8251905 -5.502978 -3.7463944 -5.190784 -3.236004 -3.9560208 -2.554149
-3.2088978 -1.5359669 -1.8446239 -3.5783193 -4.1987686 -4.0241036 -3.7122853 -3.3317895
-1.9098606 -0.88326466 -1.6402292 16.40085 -3.724267 -1.9367836 -1.8594769 -1.4090667
-3.355943 -4.416149 -3.516714 -4.427089 -4.145528 -5.075692 -3.235002 -6.1168704
-2.9687247 -3.2766564 1.5411563 -3.6263187 -3.1734045 -2.6387806 15.994443 -2.4497895
-2.2778132 -3.7040367 -4.0982566 -2.9877605 1.4903167 0.23129302 -1.8402858 -1.5854259
-3.1989741 -3.1100404 -4.429586 -3.029005 17.553295 -0.7895328 -1.4455568 -1.4179415
-3.4811883 -4.899385 -4.2099953 -4.6925707 -4.621483 -6.7160826 -5.857819 -4.7948475
-3.430496 -5.540283 14.144762 -3.7057254 -4.6749516 -5.4452605 -2.8510473 -4.3048997
-2.3439736 -1.1947917 -4.0918994 15.706685 -3.7294188 -2.3703418 -2.6752264 2.568386
-2.5327785 -3.9638064 -4.0929823 -1.4497634 -5.044129 -4.288325 -4.4842806 -2.959753
-4.329432 15.074358 -6.0457654 0.7630926 -6.2895803 -5.9233465 -6.331588 -6.202567
-4.7464194 -1.1069878 -5.0505304 -1.2538997 -6.3373504 -5.2484426 -6.604602 -5.8856215
-2.449166 1.0504848 -3.2699876 4.4592714 -2.1012797 -3.7737396 -4.2581716 -1.6136732
-3.4735386 3.562789 -4.8550644 16.298956 -4.249656 -2.5376892 -3.1255577 -0.7009947
-1.2159414 -2.9308195 2.2890913 -2.775633 -3.0983136 -3.4331124 2.171717 -1.4421802
-2.194977 -2.4919014 16.979315 -1.7900573 -2.9389791 -2.0070782 1.9756874 -1.5848521
-5.245399 -6.671896 -4.71303 -5.477649 15.204187 -5.718261 -3.927783 -3.4630322
-4.7390423 -5.88189 -4.715146 -4.8024344 3.4798586 -4.7805915 -0.9517844 -3.2364597
-2.1246254 -2.713344 -2.7329664 -4.301776 -1.9855585 -2.5019896 -2.4577718 -2.6781433
-3.594573 -2.8839262 -3.3299294 -4.611618 16.130077 -0.3458327 -1.8037598 -2.4245386
-1.5278077 -1.1012455 -0.74641716 0.45197898 -3.3849258 -3.0559878 -2.6866605 -2.854263
-2.4340744 -0.7760644 -0.51690644 17.108456 -3.1919246 -2.4064274 -2.9201956 -2.3276172
-3.7310028 -4.765995 -3.3058746 -3.482092 15.243159 0.4027019 -1.9309994 -2.7465942
-2.791513 -4.6481857 -4.7702484 -4.352701 -1.4507631 -2.5805514 -3.5700264 -3.9100568
-2.4058166 -2.37087 17.55748 1.5653943 -2.1988392 -3.7484295 -0.5658413 0.15784237
-1.6108321 -4.351646 0.9222813 -0.7334304 -4.6371727 -4.3094406 -3.2743616 -0.7779427
-2.3468502 -4.268758 -3.2255607 -5.4772058 -2.6824093 -4.362785 -3.673252 -3.2891507
-0.46482235 -3.962939 15.504993 -3.1583958 -2.0261219 -2.5504956 -2.913492 -1.5936158
-3.5271955 -1.7190112 -4.229883 14.886368 -3.1157987 -4.5862913 -5.393932 -3.5570614
-4.5727835 -1.6217216 -5.0511556 -0.65054387 -5.58998 -4.356802 -4.1728973 -2.454163
