trained_models/mnist_trained_32x32/model_002.pth (torch, 821207 bytes, 2 tensors)

logic_layers.0.weights f4 [5120, 16]
-2.0474787 -0.5914214 1.5614346 1.5504591 -1.3216206 -0.15469413 6.384423 5.1758685
-2.6799123 -2.2465081 -2.249492 -1.719173 -2.994605 -2.595126 -2.053653 -2.216039
-1.4362546 -2.8842556 -4.2737064 -3.5064106 -3.817228 -2.805799 -3.6795661 -3.1830237
4.9756413 4.2465544 -1.4251248 -0.82097816 4.1426883 4.999959 -0.9141639 -1.8500762
3.4816673 4.225589 -3.6049697 -2.863682 5.7114763 3.3369238 -2.9051867 -0.73293805
-0.6602441 -2.0758193 -2.63343 -3.138564 -1.746792 -2.251469 -1.9237994 -3.2184386
6.5825305 3.2209122 -4.4529037 -3.720865 4.1238503 5.2981257 -3.4744353 -1.282691
-3.8535497 -3.7047465 -4.360358 -3.064777 -1.6029861 -3.2886448 -2.475917 -3.7931209
-2.5335097 -1.8207846 -0.06322837 -0.62518024 -1.8560784 -3.539819 -1.1211922 -1.999573
3.246179 3.8056247 4.2517624 4.502557 -0.4931439 0.748423 1.2929646 -0.371252
-1.8507634 -2.7018266 -4.4915714 -3.441638 -4.153135 -1.1801822 -5.2970243 -3.7381256
4.69371 4.331068 -2.3930447 -2.077537 4.586722 4.3797393 -2.974708 -3.9755952
-1.0780281 -3.8131568 1.8995178 3.1801782 -1.1756477 -0.83170265 4.7117424 8.027693
-3.4216485 -3.952346 -1.0799257 -2.2572045 -2.839941 -2.3161104 -2.1310475 -1.2583408
-2.5415473 -3.4775906 -2.1495829 -3.1594098 3.1388412 4.479197 5.553952 3.471691
-2.1839082 -4.347029 -4.508802 -2.1692803 -2.7484608 -1.5953377 -3.0957491 -3.5322943
-2.4973972 -1.7086806 -2.0199594 -2.084679 -3.768431 -3.1355531 -2.75747 -3.5975146
1.1379317 1.866501 1.2518301 0.16126409 5.2439456 4.344545 4.708549 4.313678
-3.008947 -1.9192642 -3.4108412 -2.6729014 -4.1774006 -1.7414944 -3.7432072 -3.4784284
4.747762 3.7113676 -1.9839753 -1.0287052 3.9505777 5.6006813 -1.2779905 -3.3711655
-1.4167899 -3.4139433 -3.488817 -2.4518602 -1.6539365 -4.018848 -2.160832 -2.8189373
2.3589082 0.9844538 3.029137 2.5086634 2.217776 3.2382972 2.4866083 4.0290546
0.55495316 -1.5793915 1.2996002 -0.3968196 2.6909695 3.0584307 7.150981 7.6845527
-3.6224797 -1.429547 -3.5442479 -4.0140753 -3.2583764 -1.4819452 -2.6298764 -4.0502815
1.4902785 2.8820546 -1.1820797 -1.7962315 0.5576846 2.9808002 -0.9393966 0.8162585
-1.5631758 0.7945576 -2.0782437 -2.9828167 -2.1438107 -0.34145218 -2.8680851 -2.6799154
0.020436294 -1.6287421 -0.8256444 -1.0171639 -0.9172194 -1.8760666 -1.8428545 -0.72713923
2.2479491 2.0519748 -0.9085124 0.6423863 2.1724343 -0.89728594 -1.1979496 1.118718
-5.263042 -1.5355847 -1.3441894 -1.5294251 4.2611356 6.224413 2.239078 0.8776586
-3.754085 -4.5431685 -1.8760654 -3.3685699 0.7813454 1.7269329 -0.53905284 -1.3270961
-1.9276166 0.78708124 -3.8923063 -2.9982839 -0.7607846 -1.209317 -0.6839763 -1.7233522
1.8349032 -1.3365262 -3.683605 -2.100019 3.6777527 4.500801 -1.5014355 -0.39730188
00000000: e409 03c0 6567 17bf 17dd c73f 7275 c63f
00000010: dd2a a9bf 2368 1ebe 314d cc40 b7a0 a540
00000020: af83 2bc0 cac6 0fc0 adf7 0fc0 dc0d dcbf
00000030: 9ca7 3fc0 8b16 26c0 0d6f 03c0 95d3 0dc0
00000040: 31d7 b7bf a597 38c0 34c2 88c0 0869 60c0
00000050: 774d 74c0 3692 33c0 037e 6bc0 a9b6 4bc0
00000060: 7438 9f40 c6e3 8740 7d6a b6bf a02b 52bf
00000070: e790 8440 aaff 9f40 a506 6abf 4ccf ecbf
00000080: a3d3 5e40 0638 8740 d3b7 66c0 9146 37c0
00000090: 6ac4 b640 2990 5540 94ee 39c0 d4a1 3bbf
000000a0: c205 29bf 39da 04c0 1e8a 28c0 3cde 48c0
000000b0: e196 dfbf 1118 10c0 0f3f f6bf e6fa 4dc0
000000c0: 17a4 d240 6d23 4e40 307e 8ec0 a722 6ec0
000000d0: 95f6 8340 3f8a a940 265d 5ec0 382f a4bf
000000e0: 8fa0 76c0 911a 6dc0 0e88 8bc0 4e25 44c0
000000f0: a62e cdbf 2879 52c0 6d75 1ec0 7ec2 72c0
00000100: 0625 22c0 780f e9bf e07d 81bd d00b 20bf
00000110: fa93 edbf 658c 62c0 3a83 8fbf 02f2 ffbf
00000120: 66c1 4f40 5b8f 7340 700e 8840 f214 9040
00000130: 5b7d fcbe a698 3f3f dd7f a53f be14 bebe
00000140: d1e5 ecbf baea 2cc0 f4ba 8fc0 cc43 5cc0
00000150: 7be6 84c0 3610 97bf 3981 a9c0 733d 6fc0
00000160: df32 9640 1c98 8a40 a527 19c0 5ef6 04c0
00000170: 6dc6 9240 d326 8c40 9e61 3ec0 2770 7ec0
00000180: d3fc 89bf c30a 74c0 6623 f33f 0a88 4b40
00000190: a07b 96bf 77ea 54bf 98c6 9640 6e71 0041
000001a0: 4afc 5ac0 3df3 7cc0 013b 8abf 0a76 10c0
000001b0: 98c1 35c0 273b 14c0 1563 08c0 5011 a1bf
000001c0: b6a8 22c0 d890 5ec0 c492 09c0 c533 4ac0
000001d0: c6e2 4840 9555 8f40 fab9 b140 2f30 5e40
000001e0: 27c5 0bc0 dd1a 8bc0 1b48 90c0 7dd5 0ac0
000001f0: c8e6 2fc0 0734 ccbf c120 46c0 1c11 62c0
00000200: 5bd5 1fc0 0cb6 dabf 0447 01c0 616b 05c0
00000210: f92d 71c0 e7ac 48c0 637a 30c0 ae3d 66c0
00000220: bfa7 913f 81e9 ee3f f83b a03f 6a22 253e
00000230: 67ce a740 8306 8b40 6fac 9640 a609 8a40
00000240: 9692 40c0 73aa f5bf 394b 5ac0 d110 2bc0
00000250: 44ad 85c0 4ae9 debf b590 6fc0 929e 5ec0
00000260: abed 9740 0c87 6d40 e7f2 fdbf 9dac 83bf
00000270: 44d6 7c40 c838 b340 3195 a3bf 2dc1 57c0
00000280: 5f59 b5bf 0c7e 5ac0 c748 5fc0 47eb 1cc0
00000290: 31b4 d3bf 679a 80c0 124b 0ac0 7869 34c0
000002a0: 5af8 1640 2a05 7c3f 61dd 4140 f18d 2040
000002b0: 0bf0 0d40 4340 4f40 9724 1f40 04ee 8040
000002c0: 6911 0e3f 8029 cabf 4d59 a63f f02b cbbe
000002d0: d838 2c40 54bd 4340 d6d4 e440 dbe7 f540
000002e0: b5d6 67c0 65fb b6bf f5d4 62c0 4e73 80c0
000002f0: 3d89 50c0 61b0 bdbf e54f 28c0 e89b 81c0
00000300: 72c1 be3f 9573 3840 634e 97bf eaea e5bf
00000310: 6bc4 0e3f 6ec5 3e40 4c7c 70bf 51f6 503f
00000320: 2516 c8bf 2068 4b3f f201 05c0 78e6 3ec0
00000330: 3234 09c0 d2d2 aebe b58e 37c0 bc83 2bc0
00000340: 046a a73c 9f7a d0bf 6e5d 53bf 6d32 82bf
00000350: e4ce 6abf f322 f0bf a8e2 ebbf cc25 3abf
00000360: 66de 0f40 8e53 0340 4594 68bf 6e73 243f
00000370: 2a09 0b40 88b4 65bf 6a56 99bf 2732 8f3f
00000380: d76a a8c0 0a8e c4bf 660e acbf 34c4 c3bf
00000390: 395b 8840 642e c740 0e4d 0f40 3cae 603f
000003a0: ee42 70c0 a361 91c0 e922 f0bf a696 57c0
000003b0: 4106 483f 230c dd3f 5eff 09bf 49de a9bf
000003c0: 24bc f6bf 287e 493f 8c1b 79c0 e2e3 3fc0
000003d0: c8c2 42bf e6ca 9abf 1219 2fbf ce96 dcbf
000003e0: 1cde ea3f 4a13 abbf 2fc0 6bc0 b666 06c0
000003f0: 4d60 6b40 9006 9040 0a2f c0bf 276b cbbe

logic_layers.1.weights f4 [5120, 16]
-2.7830925 -2.4830072 -0.916178 0.087372646 -2.2343798 -1.8912401 -1.2573447 -5.4435143
-1.52198 -1.1788555 1.1029897 -0.58316964 -4.2321267 -1.7718846 6.823326 -1.3746952
-0.6883723 -2.594254 5.3397427 -1.4587469 -1.9144841 -1.5539918 5.5774117 -2.6437597
-1.0076642 -4.181934 3.5223618 -0.7910382 -0.47652364 -4.070657 5.1501684 -2.2021816
-1.8706495 -2.0331166 -2.00497 -0.7207465 -2.066927 -3.0828867 -1.4015579 -2.9644268
3.6322904 -0.4759032 5.5862565 -1.4519573 -2.3538585 -2.821173 1.5040978 -0.31035012
-0.9429881 -1.0351392 0.8208034 -2.4409385 -0.23588216 -1.2573607 -0.504372 -0.14441846
1.3303668 0.57413393 -0.014156626 0.4210896 1.7855507 1.2449892 0.8981578 0.89778495
-1.8819274 -0.065220006 -3.5128841 -3.0364287 -2.1937168 1.8801353 -2.7217515 -1.8793983
-1.1860512 0.20342082 -2.001973 -0.83889675 0.9289797 7.105671 -2.2809262 -0.85654503
-2.4971166 0.019419057 -2.2541726 -1.1038426 -1.5525275 0.5930711 5.440846 -0.72017765
-0.10436684 -3.504179 -1.8832028 0.10924198 -0.6960294 -0.95301133 0.69031084 -0.8120919
0.59280884 -1.4344922 -1.3116534 -4.379075 -3.2170355 -3.4582198 -1.6885129 -2.108216
-0.318974 -3.38809 -1.944501 -1.8017341 -1.4972098 -1.8929659 5.2349324 -0.862355
-1.0700058 5.4279904 -2.395366 2.239559 1.5485756 5.4113374 -2.963976 2.1109834
-0.6263151 3.516919 -1.9082603 -1.2771126 -2.4747832 1.825858 -2.1984332 -1.1465871
-1.0984713 -3.3228846 -1.7169064 -0.108801045 -3.2384422 -5.075553 -2.6885123 -2.9760556
4.1799135 6.8661275 3.4525707 2.8896277 -2.4143796 -0.4209523 -1.8436958 -0.23351441
0.7195013 -1.9874321 -2.2179625 0.4301604 -0.3470785 -1.2401208 3.3035989 -2.543536
-1.3304256 0.31454384 6.1880946 -1.2555916 0.044492826 -1.9784515 2.222378 0.6974506
-1.0730608 0.36990938 -1.2640039 0.74937785 -0.66353315 -0.8177373 -0.18996653 2.3365638
-0.012781849 0.19214728 -0.54079074 3.4934664 -1.6256138 1.0345647 -0.67971075 3.323779
-1.9860708 -2.330756 -2.851344 -2.1580637 -2.5580823 6.623544 -1.6429555 -0.66823405
-0.29559734 -4.5174174 -2.5244248 -0.92612875 -3.0909443 1.433551 -3.5816019 -2.3863232
-1.3044498 0.4294282 -0.7187721 5.276331 -4.309387 1.0253026 -0.9554162 4.4946647
-3.000318 -2.9383926 -1.9751573 -1.1959523 -3.823199 -2.495027 -1.4431939 -2.2140844
-0.5699456 -0.2370965 -0.81450415 0.5286543 -0.547407 -1.6142001 -0.5036453 -2.074635
-1.675172 0.9966524 1.1057558 -0.13439459 1.7271606 1.4337354 2.9709299 2.674061
-3.10695 -1.6265738 -0.87538606 -1.6068879 -3.3489468 -3.5074182 -3.7219412 -2.9997506
2.9716127 6.0144424 5.0333962 3.4875531 -2.2336595 -2.8656332 -1.6982466 0.2610746
-0.67444104 -0.8198754 -0.6209393 -1.9099251 -0.75788933 7.589223 -0.43839622 0.76737595
0.5546524 3.100246 -3.3439085 1.5624491 -1.1915947 0.560073 -1.0779217 -1.3079532
00000000: 301e 32c0 97e9 1ec0 a48a 6abf 6ef0 b23d
00000010: 1400 0fc0 2814 f2bf acf0 a0bf 4531 aec0
00000020: 3ed0 c2bf bde4 96bf c42e 8d3f 9b4a 15bf
00000030: 956d 87c0 1dcd e2bf b058 da40 03f6 afbf
00000040: 2b39 30bf 4208 26c0 2cdf aa40 38b8 babf
00000050: d10d f5bf 34e9 c6bf 287a b240 5c33 29c0
00000060: 24fb 80bf 67d2 85c0 606e 6140 7b81 4abf
00000070: e8fa f3be d242 82c0 2ece a440 8bf0 0cc0
00000080: 7171 efbf 951e 02c0 6e51 00c0 d882 38bf
00000090: 8848 04c0 044e 45c0 4066 b3bf 2bb9 3dc0
000000a0: 7277 6840 96a9 f3be 9dc2 b240 bdd9 b9bf
000000b0: 9ea5 16c0 198e 34c0 4786 c03f 36e6 9ebe
000000c0: ab67 71bf 717f 84bf 2c20 523f 5638 1cc0
000000d0: 188b 71be 32f1 a0bf 861e 01bf 6fe2 13be
000000e0: 7649 aa3f 71fa 123f 31f1 67bc 0e99 d73e
000000f0: ed8c e43f ce5b 9f3f abed 653f 3cd5 653f
00000100: ffe2 f0bf 1192 85bd 18d3 60c0 d954 42c0
00000110: db65 0cc0 46a8 f03f 2d31 2ec0 2090 f0bf
00000120: 87d0 97bf 8c4d 503e 5320 00c0 f0c1 56bf
00000130: 9dd1 6d3f a861 e340 b2fa 11c0 8946 5bbf
00000140: c2d0 1fc0 b714 9f3c 5d44 10c0 b74a 8dbf
00000150: 39b9 c6bf 82d3 173f 691b ae40 905d 38bf
00000160: 48be d5bd 7844 60c0 ca0c f1bf 42ba df3d
00000170: fc2e 32bf 8df8 73bf 36b8 303f 41e5 4fbf
00000180: 52c2 173f 719d b7bf 42e4 a7bf 6221 8cc0
00000190: e9e3 4dc0 7953 5dc0 3121 d8bf 03ed 06c0
000001a0: 8f50 a3be 77d6 58c0 69e5 f8bf 399f e6bf
000001b0: 92a4 bfbf b54c f2bf 9184 a740 4cc3 5cbf
000001c0: f3f5 88bf 19b2 ad40 ad4d 19c0 ef54 0f40
000001d0: ba37 c63f ad29 ad40 c8b1 3dc0 5a1a 0740
000001e0: 3056 20bf 3315 6140 e041 f4bf 6d78 a3bf
000001f0: d962 1ec0 b7b5 e93f 21b3 0cc0 5ec3 92bf
00000200: b59a 8cbf 24aa 54c0 97c3 dbbf 15d3 debd
00000210: a342 4fc0 ee6a a2c0 9610 2cc0 b277 3ec0
00000220: dac1 8540 51b7 db40 ebf6 5c40 a9ef 3840
00000230: 3285 1ac0 0f87 d7be 39fe ebbf 671e 6fbe
00000240: 3d31 383f 2d64 febf 19f3 0dc0 fc3d dc3e
00000250: 46b4 b1be 47bc 9ebf 2a6e 5340 4bc9 22c0
00000260: 634b aabf e40b a13e df04 c640 3ab7 a0bf
00000270: 1c3e 363d e63d fdbf 713b 0e40 1f8c 323f
00000280: 0e5a 89bf c364 bd3e e1ca a1bf 3ad7 3f3f
00000290: 4fdd 29bf 3b57 51bf 9686 42be 438a 1540
000002a0: f66a 51bc 42c2 443e 4371 0abf f494 5f40
000002b0: 1d14 d0bf 9e6c 843f 8601 2ebf ccb8 5440
000002c0: 9137 febf 1b2b 15c0 6c7c 36c0 b71d 0ac0
000002d0: 9fb7 23c0 13f4 d340 5e4c d2bf 6311 2bbf
000002e0: 8958 97be af8e 90c0 2d90 21c0 c616 6dbf
000002f0: 08d2 45c0 997e b73f f738 65c0 85b9 18c0
00000300: 36f8 a6bf 03de db3e 7301 38bf b4d7 a840
00000310: 80e6 89c0 1e3d 833f 2896 74bf 4bd4 8f40
00000320: 3605 40c0 a00e 3cc0 f4d1 fcbf f714 99bf
00000330: 4baf 74c0 86ae 1fc0 94ba b8bf 8fb3 0dc0
00000340: f4e7 11bf 6dc9 72be 5883 50bf e355 073f
00000350: dd22 0cbf 1c9e cebf e6ee 00bf d2c6 04c0
00000360: 096c d6bf 9d24 7f3f 6889 8d3f bc9e 09be
00000370: 9913 dd3f a484 b73f b723 3e40 d123 2b40
00000380: 45d8 46c0 9233 d0bf 4d19 60bf 81ae cdbf
00000390: 2555 56c0 8a79 60c0 4934 6ec0 eafb 3fc0
000003a0: e72e 3e40 5076 c040 9511 a140 1234 5f40
000003b0: 47f4 0ec0 8966 37c0 2560 d9bf 92ab 853e
000003c0: 2ba8 2cbf 5be3 51bf e1f5 1ebf 6d78 f4bf
000003d0: 0905 42bf eada f240 7875 e0be c072 443f
000003e0: b3fd 0d3f 6e6a 4640 9902 56c0 55fe c73f
000003f0: 2d86 98bf f260 0f3f 57f9 89bf 036b a7bf
