trained_models/mnist_trained_32x32/model_006.pth (torch, 822593 bytes, 4 tensors)

logic_layers.0.weights f4 [2560, 16]
-3.5143178 -4.953144 -4.5739822 -6.6912894 -5.260534 -5.3320475 -6.203412 -6.949853
3.9487166 4.9811573 -2.3613443 -3.33475 3.848878 8.238168 -1.1603255 -1.4880921
-4.6792345 -3.2133648 -6.1263623 -3.9742696 -3.7096515 -3.475958 -6.162297 -5.9248443
9.766388 4.083869 -4.5294657 -5.3604846 5.372341 3.7811038 -2.4210882 -3.6346958
3.9386017 2.8383908 5.64368 6.0288615 3.650003 4.536876 6.09011 6.1715474
-4.8790126 -3.5106032 -5.6733885 -4.0144286 -5.8522162 -4.6270704 -4.716764 -5.474427
6.0353 3.5829597 -1.9667326 -4.0979304 1.3726785 1.0975721 -4.8488383 -5.692756
1.5387431 -2.4321725 -3.984153 -4.744558 0.9987664 -2.7069473 -5.056701 -4.4499288
-3.7797632 -3.3096333 -5.5965886 -3.77438 -5.127914 -4.5069427 -5.2892447 -6.028107
5.2637987 5.1920414 5.056248 5.839094 -3.8037205 -5.106012 -1.9953315 -4.1261725
6.552261 5.1520476 -2.1485825 -3.1624985 4.6756415 2.1808004 -4.8761516 -3.718504
-3.3035145 -5.7433815 -4.597852 -5.309884 -2.4369411 -4.096837 -4.8571234 -4.3659964
1.4281899 5.06502 4.9122014 3.7438667 -0.7237994 -0.25354362 0.532823 0.006461615
-1.9162557 -2.570437 -3.2385952 -1.1721244 -1.9004933 -1.3179094 -1.9461149 -2.991403
-4.7022214 -3.3695197 -6.078463 -5.285277 -0.1224985 0.7205573 7.7304797 5.5537343
-5.353536 -6.9437194 -5.6431236 -4.2770557 -4.8120537 -5.6007614 -5.9511304 -3.6862247
-4.9007025 -5.332111 -6.3740983 -4.757711 -4.396172 -4.399971 -6.0196743 -4.757063
1.6824323 0.86242795 0.21884406 0.68144166 3.3306324 5.755443 7.1431713 8.665071
5.011047 5.3333244 4.9874363 6.933823 2.2239225 2.665465 3.0679798 5.134894
-4.6170745 -3.6620865 -3.6983068 -5.6387978 -4.3938565 -4.230874 -5.883534 -5.897609
-2.1927996 -5.331313 4.537684 7.335811 -4.6478896 -2.213966 6.114874 4.1947274
-3.6034665 -4.899985 -2.0868764 -4.4886413 -5.04139 -3.9517453 -4.9082246 -3.3863595
-4.696183 -5.8832808 -0.8176735 7.4224553 -5.1360083 -5.0430493 -2.0411701 -0.0023236552
-5.895311 -6.4014907 -6.682232 -3.615951 -4.44713 -5.62843 -6.210562 -5.009784
-1.9078431 -1.2863044 -3.769644 -3.1764827 5.180369 5.68645 6.896195 8.106237
-3.6025078 -4.116889 -5.4091516 -5.149358 -4.144995 -4.812162 -4.660314 -3.1314402
5.641814 6.588892 1.1789049 0.05858334 4.5309877 6.242007 -1.9550717 -2.6607597
-3.6545308 -5.0585475 -4.6083384 -5.122998 -4.3842287 -4.831564 -3.575191 -4.1896877
5.498938 7.8398137 -4.898607 -2.9285004 4.88796 2.978533 -2.801154 -3.7547104
-4.4110737 -5.497393 -2.8010273 -3.9733758 -4.9983144 -5.3962374 -3.712735 -3.070427
-4.6984634 -4.8822846 -5.7984495 -3.8597643 -6.9060893 -3.6840382 -4.8334174 -4.506394
5.289944 7.6262326 4.43975 2.4801722 1.9910843 -0.6787838 1.3971179 0.15389186
00000000: 95ea 60c0 2880 9ec0 105e 92c0 0b1f d6c0
00000010: 4b56 a8c0 22a0 aac0 5a82 c6c0 3265 dec0
00000020: c6b7 7c40 a465 9f40 4420 17c0 8b6c 55c0
00000030: 0454 7640 89cf 0341 8c85 94bf cd79 bebf
00000040: 4abc 95c0 c5a7 4dc0 290b c4c0 6f5a 7ec0
00000050: ee6a 6dc0 1976 5ec0 8931 c5c0 5398 bdc0
00000060: 2043 1c41 0eaf 8240 62f1 90c0 1789 abc0
00000070: 38ea ab40 9bfd 7140 1cf3 1ac0 db9e 68c0
00000080: 0d12 7c40 32a8 3540 0799 b440 6fec c040
00000090: a699 6940 172e 9140 2ee2 c240 517d c540
000000a0: df20 9cc0 b9ad 60c0 668c b5c0 3376 80c0
000000b0: 5b45 bbc0 f610 94c0 bbef 96c0 822e afc0
000000c0: 2d21 c140 364f 6540 e5bd fbbf 3f22 83c0
000000d0: eeb3 af3f 3e7d 8c3f af29 9bc0 0f2b b6c0
000000e0: 89f5 c43f b7a8 1bc0 5dfc 7ec0 6bd3 97c0
000000f0: 28af 7f3f a03e 2dc0 7fd0 a1c0 d165 8ec0
00000100: a4e7 71c0 08d1 53c0 4117 b3c0 718f 71c0
00000110: df17 a4c0 e038 90c0 7e41 a9c0 41e6 c0c0
00000120: 0a71 a840 3425 a640 c9cc a140 dcd9 ba40
00000130: 2870 73c0 7364 a3c0 0667 ffbf 9b09 84c0
00000140: 1fac d140 93dd a440 6082 09c0 6066 4ac0
00000150: db9e 9540 3c92 0b40 6f09 9cc0 f8fb 6dc0
00000160: c86c 53c0 c8c9 b7c0 9b21 93c0 92ea a9c0
00000170: d8f6 1bc0 4a19 83c0 8e6d 9bc0 3eb6 8bc0
00000180: edce b63f a514 a240 c130 9d40 839b 6f40
00000190: eb4a 39bf 78d0 81be 1767 083f f5bb d33b
000001a0: de47 f5bf 0a82 24c0 2545 4fc0 2c08 96bf
000001b0: 5d43 f3bf 41b1 a8bf 4b1a f9bf 2673 3fc0
000001c0: 9978 96c0 36a6 57c0 c582 c2c0 fd20 a9c0
000001d0: 7ee0 fabd 7176 383f 1760 f740 31b8 b140
000001e0: 2b50 abc0 f332 dec0 7894 b4c0 a4dd 88c0
000001f0: 58fc 99c0 7039 b3c0 a96f bec0 1beb 6bc0
00000200: 8ed2 9cc0 a7a0 aac0 9df8 cbc0 2b3f 98c0
00000210: 71ad 8cc0 90cc 8cc0 2ca1 c0c0 dc39 98c0
00000220: f159 d73f 14c8 5c3f a818 603e f672 2e3f
00000230: 1529 5540 972c b840 dc94 e440 21a4 0a41
00000240: 7f5a a040 98aa aa40 1499 9f40 e1e1 dd40
00000250: bf54 0e40 fb96 2a40 c859 4440 0d51 a440
00000260: 13bf 93c0 a05f 6ac0 0fb1 6cc0 0871 b4c0
00000270: 799a 8cc0 5263 87c0 e945 bcc0 37b9 bcc0
00000280: d456 0cc0 1e9a aac0 b534 9140 f7be ea40
00000290: 83bb 94c0 9eb1 0dc0 0cad c340 353b 8640
000002a0: 329f 66c0 adcc 9cc0 628f 05c0 f3a2 8fc0
000002b0: 1153 a1c0 65e9 7cc0 2d10 9dc0 1dba 58c0
000002c0: 2247 96c0 d643 bcc0 0d53 51bf c184 ed40
000002d0: 2e5a a4c0 a960 a1c0 88a2 02c0 7748 18bb
000002e0: 63a6 bcc0 03d9 ccc0 d8d4 d5c0 be6b 67c0
000002f0: e44e 8ec0 191c b4c0 edbc c6c0 2750 a0c0
00000300: 3434 f4bf 9fa5 a4bf d941 71c0 7e4b 4bc0
00000310: 95c5 a540 66f7 b540 a1ad dc40 26b3 0141
00000320: 7d8f 66c0 8ebd 83c0 c517 adc0 8ac7 a4c0
00000330: cda3 84c0 3bfd 99c0 4b21 95c0 8469 48c0
00000340: be89 b440 34d8 d240 5be6 963f 16f5 6f3d
00000350: dafd 9040 85be c740 ca3f fabf e349 2ac0
00000360: d5e3 69c0 9fdf a1c0 8277 93c0 9aef a3c0
00000370: 9a4b 8cc0 2c9c 9ac0 eecf 64c0 ec11 86c0
00000380: 4df7 af40 c1df fa40 63c1 9cc0 8d6c 3bc0
00000390: 2b6a 9c40 49a0 3e40 1b46 33c0 2d4d 70c0
000003a0: 8427 8dc0 a5ea afc0 0844 33c0 ca4b 7ec0
000003b0: 31f2 9fc0 faad acc0 739d 6dc0 e081 44c0
000003c0: d059 96c0 ad3b 9cc0 e68c b9c0 6106 77c0
000003d0: affe dcc0 48c7 6bc0 5bab 9ac0 6134 90c0
000003e0: 3947 a940 190a f440 6f12 8e40 24bb 1e40
000003f0: dadb fe3f c6c4 2dbf c2d4 b23f d495 1d3e

logic_layers.1.weights f4 [2560, 16]
-3.2085507 -5.1396427 5.720214 -5.1568236 -4.3280673 -5.2055697 4.899977 -3.4198487
-2.5228922 -5.6763525 5.382697 -3.4052525 -4.89757 -5.3008127 3.621581 -5.4953966
0.91249907 -1.3099134 7.2089267 2.6515024 -1.7037741 -2.9383948 -0.28872573 -3.6914856
-4.215699 -4.722491 -4.65655 -5.868298 -4.8134823 -4.4334965 -5.1122847 -4.8671055
2.2460291 3.4118412 -2.2297854 -3.051661 9.461467 0.3052012 -3.2725794 -4.7783365
-1.0960448 -2.9216673 -4.9051986 -3.914871 -4.056662 -3.0834737 -4.6493225 -3.900123
1.1504759 1.099125 0.7584859 -1.4771218 7.0591927 4.2775555 2.983917 1.4768153
-4.2158213 -3.4635866 -3.380237 -6.029399 -4.7937655 -4.7084484 -6.612057 -4.1624985
-3.7740843 -3.1237953 -3.8547342 -5.308813 -4.976742 -6.1705956 -5.890876 -5.192096
4.8848968 3.4542332 8.30481 5.040648 -2.887772 -3.3043225 -2.1925073 -4.6273036
-1.4087567 -4.87646 -4.7066336 -5.209856 -5.4184093 -5.2707553 -6.37821 -5.5702624
4.626141 5.485543 5.2108355 1.4140162 -3.664056 -4.557929 -5.782062 -4.698897
-4.4610124 -3.6209905 -2.786981 -1.792618 -4.983942 -4.8617353 -3.974472 -3.258952
-3.5755708 -3.3575728 -2.19853 6.976496 -3.6361582 -4.743812 -2.9343665 -1.9950176
3.1729095 0.42994615 -4.6788898 -3.1712034 2.289595 -1.4426664 -2.1156003 -2.1577709
2.866639 -2.4971545 -3.0522332 -2.705264 6.3390384 -1.3455591 -2.7018151 -1.6076158
-3.9478598 -5.138553 1.4247566 6.8512974 -4.832356 -5.3910265 -4.3959217 -3.0768886
-4.652614 -5.0742545 -5.4905553 -3.4251838 -5.5340242 -3.8095307 -5.6825194 -3.1412039
-0.8701447 3.6305628 -1.2718371 8.384447 -3.2692683 -4.891095 -4.2897835 -1.3558447
-0.1399087 -1.5903479 -1.1307039 -0.71733695 -3.1266305 -3.9781823 -2.5533063 -2.4932508
-2.4258997 -5.9063287 -1.7559898 -3.6098979 -5.109411 -4.3649187 -3.4510226 -5.9476533
8.213594 -0.70776623 0.85520804 -1.3059224 1.2089872 -2.7205622 -2.2786062 -1.4474295
-3.9305437 -2.7749834 -1.4710233 0.7463969 -4.358766 -4.8120894 3.222307 0.27379748
-3.3619032 -3.737511 6.3751616 3.294369 -5.8091927 -5.0344067 7.493793 2.237828
-2.3868902 -3.0222301 -5.9570346 -2.889733 -4.5992627 7.0994253 -4.6766233 1.0639982
-4.1176567 -5.3801947 -5.9655514 -4.8946404 -2.3210936 -2.040724 -5.1352963 -3.7059684
-4.926008 -6.4027915 -5.2661905 -5.427925 -5.036845 -4.1685615 -5.425255 -4.4501357
6.5221386 -0.22979867 -5.572772 -5.4064655 6.134304 4.4115853 -2.2002342 -3.030317
1.0673295 8.6768055 -1.1888958 0.29452688 -2.332924 -1.7797039 -2.3218498 -2.2197087
-2.279869 -3.0078733 -2.1327507 -2.7849674 -4.408509 -1.8710746 -3.0907967 -3.5012531
-3.3261147 -4.722523 -3.1184359 -5.405268 4.577425 -0.4532813 -1.6058481 -1.4884115
-2.274319 -6.2203846 -5.8413815 -6.8168054 7.200061 -1.0284526 -1.4858521 -3.0904953
00000000: e558 4dc0 f477 a4c0 fe0b b740 b304 a5c0
00000010: 877f 8ac0 0794 a6c0 9dcc 9c40 cdde 5ac0
00000020: 1177 21c0 aea4 b5c0 0e3f ac40 a8ef 59c0
00000030: e5b8 9cc0 42a0 a9c0 fcc7 6740 4ada afc0
00000040: 8a99 693f 3eab a7bf 87af e640 37b2 2940
00000050: 4515 dabf a90e 3cc0 dcd3 93be 4d41 6cc0
00000060: 02e7 86c0 a51e 97c0 7502 95c0 19c9 bbc0
00000070: 0c08 9ac0 34df 8dc0 d697 a3c0 54bf 9bc0
00000080: f1be 0f40 9b5b 5a40 ceb4 0ec0 6a4e 43c0
00000090: 2b62 1741 5543 9c3e f171 51c0 22e8 98c0
000000a0: 324b 8cbf 99fc 3ac0 63f7 9cc0 3f8d 7ac0
000000b0: 2dd0 81c0 a257 45c0 40c7 94c0 9d9b 79c0
000000c0: cb42 933f 21b0 8c3f 222c 423f 5412 bdbf
000000d0: e8e4 e140 bce1 8840 7ff8 3e40 4908 bd3f
000000e0: 02e8 86c0 67ab 5dc0 ce55 58c0 d6f0 c0c0
000000f0: 8766 99c0 9cab 96c0 f995 d3c0 3033 85c0
00000100: 998a 71c0 43ec 47c0 f7b3 76c0 cce1 a9c0
00000110: 7841 9fc0 8575 c5c0 0e82 bcc0 a725 a6c0
00000120: 1351 9c40 2812 5d40 80e0 0441 fd4c a140
00000130: 42d1 38c0 057a 53c0 0a52 0cc0 df12 94c0
00000140: 2452 b4bf f60b 9cc0 be9c 96c0 24b7 a6c0
00000150: 9c63 adc0 07aa a8c0 4c1a ccc0 973f b2c0
00000160: 5909 9440 9189 af40 2abf a640 7cfe b43f
00000170: e57f 6ac0 8eda 91c0 a706 b9c0 5d5d 96c0
00000180: 9dc0 8ec0 4fbe 67c0 e65d 32c0 8274 e5bf
00000190: 747c 9fc0 5693 9bc0 c05d 7ec0 ab92 50c0
000001a0: 27d6 64c0 79e2 56c0 b7b4 0cc0 753f df40
000001b0: d1b6 68c0 4fcd 97c0 a9cc 3bc0 bd5c ffbf
000001c0: f310 4b40 e721 dc3e 77b9 95c0 fff4 4ac0
000001d0: b988 1240 4ba9 b8bf ff65 07c0 eb18 0ac0
000001e0: 0377 3740 61d1 1fc0 ca57 43c0 0c23 2dc0
000001f0: 67d9 ca40 483b acbf 8aea 2cc0 5bc6 cdbf
00000200: bca9 7cc0 076f a4c0 6d5e b63f d43d db40
00000210: a9a2 9ac0 4a83 acc0 64ab 8cc0 beeb 44c0
00000220: 37e2 94c0 4b60 a2c0 a1b2 afc0 3636 5bc0
00000230: ba16 b1c0 5acf 73c0 33d7 b5c0 7c09 49c0
00000240: cec1 5ebf 245b 6840 8fcb a2bf b226 0641
00000250: b13b 51c0 da83 9cc0 e845 89c0 528c adbf
00000260: 3a44 0fbe 8590 cbbf e8ba 90bf 65a3 37bf
00000270: b71a 48c0 8a9a 7ec0 5f69 23c0 6c91 1fc0
00000280: f141 1bc0 a500 bdc0 46c4 e0bf 9108 67c0
00000290: 4b80 a3c0 6aad 8bc0 8edd 5cc0 2d53 bec0
000002a0: e26a 0341 2b30 35bf eaee 5a3f 7728 a7bf
000002b0: 18c0 9a3f b11d 2ec0 afd4 11c0 5f45 b9bf
000002c0: 078e 7bc0 5499 31c0 7e4a bcbf de13 3f3f
000002d0: 037b 8bc0 a3fc 99c0 473a 4e40 2f2f 8c3e
000002e0: 6c29 57c0 6133 6fc0 5301 cc40 f1d6 5240
000002f0: e8e4 b9c0 dc19 a1c0 27cd ef40 9338 0f40
00000300: cfc2 18c0 386c 41c0 07a0 bec0 63f1 38c0
00000310: 292d 93c0 7e2e e340 e6a6 95c0 1831 883f
00000320: d8c3 83c0 8e2a acc0 cce5 bec0 e5a0 9cc0
00000330: cc8c 14c0 399b 02c0 5954 a4c0 962e 6dc0
00000340: dca1 9dc0 abe3 ccc0 a284 a8c0 90b1 adc0
00000350: d62d a1c0 db64 85c0 b09b adc0 8367 8ec0
00000360: 5cb5 d040 5850 6bbe 2654 b2c0 c401 adc0
00000370: 384c c440 b52b 8d40 a3d0 0cc0 b7f0 41c0
00000380: 419e 883f 32d4 0a41 bd2d 98bf 3acc 963e
00000390: a04e 15c0 56cd e3bf 3099 14c0 b50f 0ec0
000003a0: 60e9 11c0 ff80 40c0 fd7e 08c0 e83c 32c0
000003b0: 8112 8dc0 5f7f efbf 9dcf 45c0 8814 60c0
000003c0: 10df 54c0 e91e 97c0 7494 47c0 f5f7 acc0
000003d0: 447a 9240 7d14 e8be 6e8c cdbf 4584 bebf
000003e0: 718e 11c0 640d c7c0 99ec bac0 4523 dac0
000003f0: e666 e640 56a4 83bf 6730 bebf adca 45c0

logic_layers.2.weights f4 [2560, 16]
-1.2321159 -2.0612485 -0.82723486 -1.6904002 12.014122 6.8255243 3.069684 3.3825223
-1.977657 -2.6492631 -1.978885 -2.9765282 -1.7447069 0.32460448 -4.478445 0.13933392
-4.145835 -3.997782 -3.4513075 -4.1622505 -4.6195493 -3.5979111 -3.177769 -5.02148
-2.5725813 -2.2206626 -2.3543298 -2.4101608 -1.0245842 -1.4071736 1.938006 6.039625
2.4791498 3.9506137 -1.5765467 -3.7873504 4.5777774 7.221999 -3.6078908 -3.963353
-3.2996242 -4.019939 -4.0215135 -4.8275733 -3.6954696 -4.3209057 -3.0597546 -3.8739784
1.3185909 -1.459269 2.6526718 -3.0048716 1.0551084 -1.4818728 0.088040724 -1.5328357
2.2102675 -2.8621066 1.9007956 -1.1818417 3.2263932 -3.4369104 -1.8754189 -2.1038957
1.9785972 -2.5094311 2.4351268 -0.8987148 0.56353134 -2.8130162 5.306518 -1.7830199
0.023301214 -2.9718692 3.6266365 -3.1294003 2.7983108 -1.9690291 -0.0643542 -2.1914818
-3.8666933 -3.3399851 -4.126601 -3.5964653 2.6211514 6.970249 -3.6968708 -0.6701645
-4.309997 -3.2794318 -4.5367446 -3.8785741 -2.270569 -0.7268768 -3.3949676 -1.6015253
-3.501721 -2.8729274 7.3503613 -2.108509 -4.3019524 -5.037059 1.0714574 -4.4842825
-3.2426634 -4.1242323 1.9499068 -2.071525 -3.3767638 -4.818767 -1.9092966 -4.1386576
4.555774 -0.39265734 -3.905724 -5.2938323 5.109303 -1.3768932 -5.937567 -5.7127786
-0.22491261 -2.8248448 -4.850952 -6.31366 -1.4723239 -2.7679758 -4.3900733 -4.412184
-2.1373665 0.021666612 -3.5930097 -4.3414536 -2.4497666 6.155537 -3.9348116 -2.1851268
-2.1238997 -2.7385108 -3.9095225 -3.204551 -3.441613 0.208462 -3.9544914 -2.8130107
-2.2673295 -1.9730972 -3.3650987 -4.1435184 -4.727199 -1.9230102 -4.0055976 -3.646975
-2.4338408 7.029559 -2.8540509 -0.03426919 5.202388 3.0842142 -2.777396 -2.1574945
-1.049981 7.2716274 1.0013136 4.2125177 -2.8753653 -2.5862813 -3.0409012 -2.5521615
-3.3804634 -2.85355 -3.224652 -2.5454216 -3.4220068 -3.9838235 -1.5165023 -3.9103374
-3.3169627 -3.8839056 -2.6546845 -4.947824 -4.189167 -1.2525711 -3.9833875 -2.7452302
2.3395777 6.395088 -3.5726001 -2.9686859 5.9953327 3.0725973 -2.9907653 -2.6759667
-3.9828663 -3.727979 3.952123 -4.374724 -5.2423496 -5.0457153 6.7765627 -3.258916
-2.1784554 -3.8050578 1.1275884 -3.7857313 -4.2645984 -4.5229855 0.8466522 -3.6182098
-1.6211859 -4.650759 -3.7252874 -4.450931 0.49380794 6.4193935 -3.2002666 0.91483307
-4.130039 -5.623255 -5.583847 -5.021756 -2.9680176 -2.3639364 -3.545868 -1.9422244
-2.750202 -2.3384323 -0.6071155 -2.2228417 -4.005706 -4.21454 -4.1876516 -3.422546
3.2844062 -0.8261033 6.672527 3.0946305 -2.7864861 -1.2475376 -2.7541797 -1.9606134
-3.0591161 -4.5723376 0.8080265 6.166287 -3.7342873 -5.515493 -0.7002352 -0.91315085
-4.2209816 -3.1687186 -2.7938757 -1.1114013 -4.793672 -3.2187605 -2.1510994 -2.784868
00000000: f9b5 9dbf 7feb 03c0 aac5 53bf 095f d8bf
00000010: d839 4041 b26a da40 b475 4440 3f7b 5840
00000020: dd23 fdbf 878d 29c0 1b4c fdbf 707f 3ec0
00000030: 8e52 dfbf 8f32 a63e 6c4f 8fc0 8dad 0e3e
00000040: aeaa 84c0 a9db 7fc0 39e2 5cc0 2831 85c0
00000050: 59d3 93c0 2d44 66c0 9160 4bc0 f7af a0c0
00000060: 2ca5 24c0 561f 0ec0 57ad 16c0 1340 1ac0
00000070: 9325 83bf 441e b4bf 9510 f83f 9c44 c140
00000080: 64aa 1e40 dbd6 7c40 48cc c9bf f363 72c0
00000090: 277d 9240 9e1a e740 afe7 66c0 93a7 7dc0
000000a0: 0b2d 53c0 57a3 80c0 3db0 80c0 7b7b 9ac0
000000b0: 9382 6cc0 dc44 8ac0 05d3 43c0 43ef 77c0
000000c0: 96c7 a83f 54c9 babf 60c5 2940 d14f 40c0
000000d0: cb0d 873f 02ae bdbf b24e b43d f633 c4bf
000000e0: 0675 0d40 c12c 37c0 454d f33f 9746 97bf
000000f0: 3a7d 4e40 57f6 5bc0 ba0d f0bf 3aa6 06c0
00000100: ac42 fd3f 859a 20c0 1ed9 1b40 2c12 66bf
00000110: 9743 103f 7508 34c0 ffce a940 ff39 e4bf
00000120: 30e2 be3c 1b33 3ec0 d01a 6840 1848 48c0
00000130: 8617 3340 2509 fcbf 23cc 83bd 3d41 0cc0
00000140: e777 77c0 51c2 55c0 1e0d 84c0 7d2c 66c0
00000150: f2c0 2740 480c df40 8899 6cc0 e78f 2bbf
00000160: 7feb 89c0 36e2 51c0 032d 91c0 8f3a 78c0
00000170: 0151 11c0 9914 3abf 2647 59c0 c8fe ccbf
00000180: 321c 60c0 0bde 37c0 2936 eb40 d0f1 06c0
00000190: 98a9 89c0 962f a1c0 8425 893f 3e7f 8fc0
000001a0: cc87 4fc0 b6f9 83c0 8c96 f93f de93 04c0
000001b0: e61c 58c0 5733 9ac0 d563 f4bf e26f 84c0
000001c0: e7c8 9140 620a c9be 62f7 79c0 1367 a9c0
000001d0: 697f a340 093e b0bf 8d00 bec0 15cf b6c0
000001e0: 7e4f 66be 42ca 34c0 003b 9bc0 8109 cac0
000001f0: 1c75 bcbf 8426 31c0 7b7b 8cc0 9c30 8dc0
00000200: 9dca 08c0 2e7e b13c dff3 65c0 30ed 8ac0
00000210: fac8 1cc0 29fa c440 f4d3 7bc0 1ed9 0bc0
00000220: f9ed 07c0 c343 2fc0 9e35 7ac0 5d17 4dc0
00000230: 6343 5cc0 1077 553e 6316 7dc0 5e08 34c0
00000240: ed1b 11c0 738e fcbf c75d 57c0 b497 84c0
00000250: 3745 97c0 3325 f6bf db2d 80c0 0a68 69c0
00000260: 0cc4 1bc0 26f2 e040 c5a8 36c0 da5d 0cbd
00000270: f679 a640 c463 4540 dbc0 31c0 6414 0ac0
00000280: c765 86bf 2cb1 e840 0b2b 803f f2cc 8640
00000290: fc05 38c0 a285 25c0 209e 42c0 9d56 23c0
000002a0: 8359 58c0 90a0 36c0 b360 4ec0 30e8 22c0
000002b0: 2902 5bc0 f7f6 7ec0 bf1c c2bf f842 7ac0
000002c0: 1e49 54c0 e991 78c0 5ae6 29c0 9354 9ec0
000002d0: a80d 86c0 4054 a0bf d2ef 7ec0 dab1 2fc0
000002e0: a4bb 1540 90a4 cc40 7ba5 64c0 f3fe 3dc0
000002f0: c4d9 bf40 6fa5 4440 b368 3fc0 0a43 2bc0
00000300: 48e7 7ec0 3597 6ec0 95ef 7c40 bdfd 8bc0
00000310: 54c1 a7c0 8076 a1c0 9ad9 d840 1492 50c0
00000320: d06b 0bc0 1186 73c0 d154 903f 6c49 72c0
00000330: 9777 88c0 4cbc 90c0 33be 583f c090 67c0
00000340: 0583 cfbf 05d3 94c0 1c6b 6ec0 076e 8ec0
00000350: 65d4 fc3e ac6b cd40 2bd1 4cc0 8032 6a3f
00000360: 4829 84c0 b4f1 b3c0 e0ae b2c0 3ab2 a0c0
00000370: 00f4 3dc0 bc4a 17c0 80ef 62c0 cf9a f8bf
00000380: 4f03 30c0 e0a8 15c0 ec6b 1bbf 0a43 0ec0
00000390: be2e 80c0 83dd 86c0 3e01 86c0 fe0a 5bc0
000003a0: b633 5240 827b 53bf 5785 d540 6d0e 4640
000003b0: ca55 32c0 50af 9fbf 7b44 30c0 61f5 fabf
000003c0: 8fc8 43c0 9750 92c0 d3da 4e3f 3952 c540
000003d0: 90fe 6ec0 eb7e b0c0 9d42 33bf 41c4 69bf
000003e0: 4812 87c0 49cc 4ac0 dcce 32c0 6642 8ebf
000003f0: c365 99c0 2c00 4ec0 9dab 09c0 473b 32c0

logic_layers.3.weights f4 [2560, 16]
-0.6718662 -4.742094 -2.8753052 -1.0870718 -4.2114973 -3.4764192 -0.41961688 -1.6355258
0.733544 -3.5748591 7.937691 1.3879368 -2.0969741 -1.6300635 0.19575778 0.045396473
-2.9761453 -2.1023064 -2.7738616 -2.9969523 -2.4971533 0.31826702 -4.4705153 6.4367323
-1.6363579 -4.148894 -4.878193 -2.8147395 -3.2870224 -1.4061201 -4.0261173 -3.440132
-1.105108 -1.8437388 -1.2177331 -2.0234237 -1.8158534 -4.2047076 -3.171981 -2.5796797
-2.318773 -2.5317366 6.3161 1.9509732 -4.3438435 -4.721887 -1.7959638 -1.7742295
-0.88678116 -1.0817425 -1.7777932 6.7153645 -3.8143203 -2.8594458 -3.271954 -1.9493164
-0.7804092 -1.8013155 -4.3839316 0.69452715 -3.4943385 -0.66759896 -2.0791435 -0.74978024
-1.9249842 -1.1309351 -0.22077194 -2.160087 -3.4148722 -4.142566 -2.7030835 -1.3016795
-0.8830965 -1.9428353 8.666767 3.1680927 -3.4537997 -3.5179584 -2.1438944 0.5858676
-1.7269441 8.43182 -3.610946 -0.040168736 -2.843805 2.5694828 -2.8734174 -1.9892204
-4.2661486 -3.245806 -4.773586 -1.2155294 -4.2786255 -1.4166596 -3.3345616 -1.7916061
-0.56677383 -1.8068162 -3.7133112 -3.1729684 -2.9495072 -3.1036205 -5.798946 -3.1528072
3.7862709 -2.4206202 -3.771816 -2.810742 6.26431 3.1395905 0.05078593 -0.20286901
-0.44942987 -2.186992 -0.77275574 -1.7572539 -3.2660317 -4.140841 -2.5721092 -2.509312
-1.6371021 -3.3568428 7.201534 2.208804 -3.1460848 -2.8063343 -1.2241514 0.7309882
-0.9310733 -2.7421153 1.2372307 6.9558167 -2.972916 -3.4275987 -4.317983 -1.1721568
-1.6433227 -5.1248136 0.77370036 3.3231015 -4.8248825 -3.6740646 -1.5186131 -2.11844
-3.7361994 0.65146476 -0.2628 7.6909194 -3.22859 -2.5958812 -3.7003837 4.05597
-4.239576 -4.366121 -3.7397008 -0.8190911 -4.106757 -1.8678391 -1.6406245 -1.3785194
-0.7592116 -1.6262704 -2.5869317 -4.0606265 -1.4454652 -1.5817208 -4.4694414 -2.204901
-1.6682621 -3.5594609 -3.6874053 -3.0086126 0.32667893 7.0883145 -1.3028104 -1.9257623
-0.81423205 -0.9065244 -0.8442069 -0.1381363 -0.6683649 8.175802 -4.168476 2.465516
-4.0383387 -1.8963481 -1.9069064 -1.57126 -4.308412 -0.24568005 -4.2383866 -1.7444621
-2.0953557 -1.8084427 -2.832714 -1.8804898 -3.2652626 -3.0055466 -4.2880874 -2.2250445
3.8493755 3.2541041 5.564226 6.9756265 -2.0657501 -2.1215744 -2.4678583 0.8678802
-1.9396303 -1.7902503 -1.9086775 -3.8675773 0.7589157 6.4030724 -2.1852455 -1.1376579
-2.8389304 -2.9186642 -3.7801843 -2.6202164 -1.6851248 0.21967842 -1.7717687 0.53211325
-0.13808517 -2.291479 -3.2082593 -2.4017527 2.1785822 4.2251296 8.903715 1.0506147
-0.8578295 -2.642773 -2.3387654 -0.62344855 1.4505869 -1.9096948 -1.1444825 -1.6066518
0.5892926 -2.9144254 -0.6981185 -0.7652663 2.31456 0.8626987 6.308868 -0.54116017
-0.2407098 -0.7764463 -1.7304441 -1.5994469 8.127176 1.3121076 2.4806786 0.4136899
00000000: 6cff 2bbf 3cbf 97c0 0005 38c0 2b25 8bbf
00000010: 96c4 86c0 a77d 5ec0 06d8 d6be e958 d1bf
00000020: 8ac9 3b3f 7eca 64c0 9101 fe40 eaa7 b13f
00000030: d334 06c0 eca5 d0bf ba74 483e a7f1 393d
00000040: 2a79 3ec0 308c 06c0 f386 31c0 11ce 3fc0
00000050: 5cd1 1fc0 e5f3 a23e 760e 8fc0 b6f9 cd40
00000060: 2d74 d1bf bdc3 84c0 281a 9cc0 b124 34c0
00000070: 935e 52c0 befb b3bf f4d5 80c0 1f2b 5cc0
00000080: 2e74 8dbf a2ff ebbf aede 9bbf c67f 01c0
00000090: e26d e8bf f78c 86c0 bd01 4bc0 7919 25c0
000000a0: c766 14c0 f907 22c0 7e1d ca40 7db9 f93f
000000b0: c400 8bc0 b319 97c0 24e2 e5bf f419 e3bf
000000c0: 1704 63bf 8a76 8abf ba8e e3bf 44e4 d640
000000d0: d31d 74c0 2901 37c0 b267 51c0 3383 f9bf
000000e0: e6c8 47bf 8291 e6bf 2b49 8cc0 88cc 313f
000000f0: 3ea3 5fc0 c4e7 2abf b010 05c0 99f1 3fbf
00000100: e265 f6bf 7bc2 90bf 0a12 62be de3e 0ac0
00000110: 448d 5ac0 e78f 84c0 52ff 2cc0 6f9d a6bf
00000120: 9d12 62bf d4ae f8bf 14ab 0a41 08c2 4a40
00000130: 0e0b 5dc0 3b26 61c0 9135 09c0 6bfb 153f
00000140: 810c ddbf bce8 0641 bd19 67c0 f987 24bd
00000150: e700 36c0 6872 2440 12e6 37c0 c69e febf
00000160: 4a84 88c0 49bb 4fc0 37c1 98c0 7896 9bbf
00000170: 80ea 88c0 1a55 b5bf 7569 55c0 5953 e5bf
00000180: 1718 11bf c145 e7bf e4a6 6dc0 ea11 4bc0
00000190: bac4 3cc0 b8a1 46c0 f790 b9c0 98c7 49c0
000001a0: 4352 7240 71eb 1ac0 6f65 71c0 32e3 33c0
000001b0: 3a75 c840 0def 4840 e804 503d e5bc 4fbe
000001c0: ac1b e6be adf7 0bc0 52d3 45bf b2ed e0bf
000001d0: aa06 51c0 c581 84c0 709d 24c0 9198 20c0
000001e0: 908c d1bf 83d6 56c0 f772 e640 0b5d 0d40
000001f0: 7459 49c0 fb9a 33c0 feb0 9cbf 0b22 3b3f
00000200: d25a 6ebf d17e 2fc0 935d 9e3f 0d96 de40
00000210: 4144 3ec0 c75d 5bc0 eb2c 8ac0 3c09 96bf
00000220: 6658 d2bf 79fe a3c0 3a11 463f b2ad 5440
00000230: 7065 9ac0 e023 6bc0 ea61 c2bf 8594 07c0
00000240: e41d 6fc0 65c6 263f b98d 86be 031c f640
00000250: 38a1 4ec0 eb22 26c0 16d3 6cc0 82ca 8140
00000260: 9baa 87c0 43b7 8bc0 4257 6fc0 f4af 51bf
00000270: 8e6a 83c0 5a15 efbf fcff d1bf 5373 b0bf
00000280: b15b 42bf a129 d0bf 4a90 25c0 a7f0 81c0
00000290: 0105 b9bf d475 cabf aa05 8fc0 191d 0dc0
000002a0: 9d89 d5bf 35ce 63c0 73fe 6bc0 1c8d 40c0
000002b0: 7642 a73e 79d3 e240 7ec2 a6bf 617f f6bf
000002c0: 8371 50bf fc11 68bf f21d 58bf 9a73 0dbe
000002d0: f619 2bbf 16d0 0241 2864 85c0 04cb 1d40
000002e0: 123a 81c0 89bb f2bf 8215 f4bf 0c1f c9bf
000002f0: 83de 89c0 8d93 7bbe dda0 87c0 894a dfbf
00000300: 4f1a 06c0 0d7b e7bf 304b 35c0 e4b3 f0bf
00000310: 10fa 50c0 e05a 40c0 0338 89c0 2167 0ec0
00000320: 2b5c 7640 3e43 5040 240e b240 5538 df40
00000330: 4035 04c0 e0c7 07c0 64f1 1dc0 662d 5e3f
00000340: ce45 f8bf ec26 e5bf 8b4f f4bf 6386 77c0
00000350: 4d48 423f f8e5 cc40 10db 0bc0 c69e 91bf
00000360: 09b1 35c0 65cb 3ac0 8aee 71c0 a0b1 27c0
00000370: 2bb2 d7bf 61f3 603e 51c9 e2bf 9338 083f
00000380: 3366 0dbe 98a7 12c0 1f54 4dc0 51b6 19c0
00000390: e46d 0b40 4334 8740 9e75 0e41 8b7a 863f
000003a0: b79a 5bbf 3123 29c0 55ae 15c0 539a 1fbf
000003b0: d5ac b93f e170 f4bf 677e 92bf c4a6 cdbf
000003c0: e1db 163f f285 3ac0 e5b7 32bf 7ee8 43bf
000003d0: c021 1440 d2d9 5c3f 3fe2 c940 7989 0abf
000003e0: a17c 76be 2fc5 46bf 317f ddbf adba ccbf
000003f0: ea08 0241 24f3 a73f 70c3 1e40 2acf d33e
