trained_models/mnist_trained_32x32/model_002.pth (torch, 821207 bytes, 2 tensors)

logic_layers.0.weights f4 [5120, 16]
-2.7981737 -5.1038566 -2.8717191 -3.5886135 -4.1680136 -2.6915405 -4.18221 -5.212767
15.514802 7.573599 -2.2537475 -2.0524101 1.8357605 1.1257262 -3.1910825 -1.7875746
-3.5683265 -2.4179802 -2.8008254 -1.3544751 -3.0473278 15.528791 -2.3924925 -1.3971646
-4.5567813 -5.6898155 -4.1686397 -4.714915 -3.7495403 -2.0199096 -4.3664417 -1.5456632
0.18500078 -0.9698541 2.138748 2.1252232 1.2688216 1.4900668 13.636707 7.459325
-3.2183049 -3.662679 -3.870604 -5.420084 -3.0467372 -3.6131532 -3.0241845 -4.3654165
0.34040457 -0.74716324 -0.46398115 -1.4140842 7.39059 7.024466 6.9457726 12.279295
-3.045376 -4.60424 -4.8097224 -3.5976636 -4.7754483 -3.7967625 -4.0668726 -4.205689
-5.0363193 -3.0711536 -5.1844907 -5.24066 -4.778296 0.9390923 -5.823967 -3.2052717
-5.689101 -4.1026735 -6.653827 -6.406271 -3.875238 14.112805 -5.3957415 -1.6505814
-3.017487 -2.3117678 -2.3469899 -3.4411535 -4.2238283 -1.8277178 -4.70182 -3.0055292
5.5377665 -1.1938641 5.0761333 0.29560596 2.0241265 -0.5380937 1.1472139 0.36997384
-2.8437703 -4.2064795 -1.4658787 -1.6082289 -2.4304988 -1.3503404 16.456287 1.0927844
-4.0462456 -4.2954855 -3.7936304 -3.1463468 -3.7409196 -4.548387 -3.8037252 -2.1032321
-1.9867935 -2.5119312 -3.7238722 -6.2133236 -3.1403942 -0.58184636 -3.04163 -3.7923658
3.9135933 3.341172 -3.506416 -2.7211103 5.3742447 15.330052 -2.6731076 -4.520708
-4.5714173 -3.0274165 -2.9031444 -5.1057043 -0.63043267 -2.9184399 -2.932287 -3.0494418
1.5471362 -0.27072796 3.3641384 6.005606 -0.61262405 1.1441529 4.529875 5.7669253
8.847881 15.081926 0.57815564 3.3401582 -1.4531331 -2.9416246 -1.3307399 -1.4981396
-4.2476635 -1.734272 -2.3837917 -2.4305375 -1.150599 -2.4977314 -3.2311153 -1.1953532
-3.8819914 -3.0643444 -4.7434254 -6.1834483 -3.5019398 -3.308245 -4.9746823 -5.658298
14.535357 11.615437 -4.883658 -5.1810627 0.024348654 -1.4881974 -5.445584 -3.2171528
-2.2058716 -3.8545434 -0.95429206 -1.1461068 -2.6345305 -3.4452045 16.218878 0.249544
-5.2948823 -4.834545 -2.2958684 -4.1657376 -4.5309734 -5.13846 -1.6038995 -2.9596462
3.6597173 1.8514981 16.680038 9.509471 -0.42838106 0.83205956 -0.38978893 -2.0638561
-3.3213892 -2.447056 -1.8601965 -1.8162339 -3.2397225 -3.4445155 -2.6649163 -2.6878302
-7.1730556 -7.2121477 -6.3801847 -6.545495 -6.667866 -6.5968804 -6.8501244 -6.968394
7.4811063 -0.652297 5.944978 10.283082 5.508422 3.0805125 5.167412 3.7401848
3.0649889 5.5336676 -1.9587942 -2.4601047 4.5544496 15.481994 -2.5276723 -0.641578
-4.9093122 -5.751221 -3.9460216 -5.029686 -4.6530647 -6.177342 -5.925022 -4.839426
-4.8068733 -4.029143 -7.172128 -3.773685 -3.1295185 0.6484041 -2.814045 15.463127
-5.0509677 -4.3733172 -6.019792 -5.4133415 -6.4452405 -1.7867688 -6.757345 -2.2415743
00000000: 4715 33c0 cb52 a3c0 3fca 37c0 d8ab 65c0
00000010: 5e60 85c0 3342 2cc0 aad4 85c0 fdce a6c0
00000020: a13c 7841 ec5a f240 663d 10c0 b05a 03c0
00000030: 33fa ea3f cc17 903f b23a 4cc0 3fcf e4bf
00000040: 765f 64c0 30c0 1ac0 b940 33c0 715f adbf
00000050: 6b07 43c0 ee75 7841 991e 19c0 4ad6 b2bf
00000060: 27d1 91c0 f812 b6c0 7f65 85c0 95e0 96c0
00000070: 78f8 6fc0 3346 01c0 e4b9 8bc0 4bd8 c5bf
00000080: d870 3d3e 5c48 78bf 3fe1 0840 a803 0840
00000090: bf68 a23f 82ba be3f f42f 5a41 cab2 ee40
000000a0: b5f8 4dc0 5569 6ac0 fab7 77c0 5471 adc0
000000b0: befd 42c0 e73d 67c0 3d8c 41c0 7eb1 8bc0
000000c0: 8249 ae3e 1746 3fbf f08e edbe b600 b5bf
000000d0: b77f ec40 6dc8 e040 c543 de40 fe77 4441
000000e0: 71e7 42c0 ef55 93c0 3fe9 99c0 1f40 66c0
000000f0: 79d0 98c0 28fe 72c0 d223 82c0 0195 86c0
00000100: 8729 a1c0 c88d 44c0 59e7 a5c0 7db3 a7c0
00000110: cde7 98c0 5a68 703f f05d bac0 2c23 4dc0
00000120: 1e0d b6c0 1a49 83c0 27ec d4c0 2c00 cdc0
00000130: e603 78c0 0dce 6141 eaa9 acc0 4046 d3bf
00000140: 821e 41c0 01f4 13c0 1535 16c0 dc3b 5cc0
00000150: 9a29 87c0 a8f2 e9bf 4f75 96c0 975a 40c0
00000160: 6235 b140 8ad0 98bf af6f a240 aa59 973e
00000170: 4a8b 0140 82c0 09bf e8d7 923f 366d bd3e
00000180: 5500 36c0 7b9b 86c0 eaa1 bbbf 72da cdbf
00000190: 4b8d 1bc0 f4d7 acbf 7aa6 8341 5ce0 8b3f
000001a0: d87a 81c0 9e74 89c0 d7ca 72c0 bf5d 49c0
000001b0: 3a6b 6fc0 638c 91c0 3c70 73c0 5b9b 06c0
000001c0: 404f febf 7bc3 20c0 ec53 6ec0 8cd3 c6c0
000001d0: 38fc 48c0 e2f3 14bf 11aa 42c0 1fb6 72c0
000001e0: 5078 7a40 c3d5 5540 1f69 60c0 ac26 2ec0
000001f0: d0f9 ab40 e547 7541 3214 2bc0 a4a9 90c0
00000200: 0d49 92c0 31c1 41c0 1ecd 39c0 ee61 a3c0
00000210: 0964 21bf b8c7 3ac0 97aa 3bc0 0e2a 43c0
00000220: 8f08 c63f db9c 8abe 0b4e 5740 ed2d c040
00000230: eed4 1cbf 9a73 923f bcf4 9040 a78a b840
00000240: ec90 0d41 924f 7141 0202 143f 27c5 5540
00000250: 4400 babf 9443 3cc0 af55 aabf 0ac3 bfbf
00000260: dcec 87c0 a0fc ddbf 0b90 18c0 ed8d 1bc0
00000270: d446 93bf d5da 1fc0 98ca 4ec0 5501 99bf
00000280: 8c72 78c0 381e 44c0 24ca 97c0 cfde c5c0
00000290: c81f 60c0 49ba 53c0 9930 9fc0 c710 b5c0
000002a0: d390 6841 d4d8 3941 ed46 9cc0 44cb a5c0
000002b0: d476 c73c 417d bebf 3942 aec0 d5e5 4dc0
000002c0: 002d 0dc0 d7b0 76c0 7c4c 74bf a1b3 92bf
000002d0: 269c 28c0 3b7e 5cc0 43c0 8141 7688 7f3e
000002e0: ad6f a9c0 98b4 9ac0 82ef 12c0 b94d 85c0
000002f0: bcfd 90c0 446e a4c0 944c cdbf d86a 3dc0
00000300: cf38 6a40 e4fd ec3f b870 8541 cb26 1841
00000310: c354 dbbe db01 553f 6a92 c7be 3816 04c0
00000320: a491 54c0 919c 1cc0 eb1a eebf 5a7a e8bf
00000330: 9d57 4fc0 f172 5cc0 fd8d 2ac0 6905 2cc0
00000340: ac89 e5c0 eac9 e6c0 792a ccc0 b274 d1c0
00000350: 295f d5c0 a519 d3c0 3834 dbc0 15fd dec0
00000360: 3965 ef40 f0fc 26bf 433d be40 8187 2441
00000370: fe44 b040 1e27 4540 705b a540 305f 6f40
00000380: c728 4440 ce13 b140 c5b9 fabf 5b72 1dc0
00000390: 0dbe 9140 3fb6 7741 62c5 21c0 753e 24bf
000003a0: 1619 9dc0 010a b8c0 9e8b 7cc0 30f3 a0c0
000003b0: e8e5 94c0 c9ac c5c0 c899 bdc0 94dc 9ac0
000003c0: e8d1 99c0 bdee 80c0 1382 e5c0 0e84 71c0
000003d0: 084a 48c0 d0fd 253f 5019 34c0 f868 7741
000003e0: 87a1 a1c0 37f2 8bc0 23a2 c0c0 183a adc0
000003f0: 693f cec0 d7b4 e4bf 2c3c d8c0 f475 0fc0

logic_layers.1.weights f4 [5120, 16]
-3.7457342 -4.9738555 -4.97059 -4.295187 -3.6701832 -3.6355648 -4.342028 -3.6829755
-2.920831 -6.382262 -2.9368718 -5.4730377 13.51183 -2.2395666 -2.982717 -3.7344186
-1.6915262 -0.7623913 -0.1322778 -1.7003641 -2.3424418 -2.5601544 -3.4582882 -3.1271987
18.04587 3.0097628 3.8364577 2.3169305 0.060287215 -2.503753 -1.4112978 -0.095183186
-0.3810318 -1.1770397 -3.3042674 -2.7034519 1.0039492 15.985929 -3.0130386 2.312182
-2.8088336 -3.4150422 -2.8440723 -3.440417 -5.03771 -1.309075 -4.048968 -2.10355
-2.2973444 0.009214866 -2.1056733 -1.7233478 -2.6666317 2.3112564 -2.6205606 -2.7610192
-1.550717 16.980253 -2.299393 -1.394843 -2.1464875 1.120356 -3.267103 -1.18234
-5.2218137 -3.9343755 -5.98581 -6.006433 -6.109641 -5.52999 -6.761537 -6.0568542
-3.0031464 -5.211759 12.914062 -4.3635087 -4.7174735 -5.114056 -3.8625836 -4.68645
-1.4229989 -1.6050564 -0.15980458 -3.60081 0.45632905 0.3926112 4.5772038 -0.1219511
-1.8809917 -0.7140035 -3.0158522 -0.8291953 15.171933 -2.5897613 3.9796789 -0.35469133
-2.1908355 -3.5156045 -0.7965603 -4.7691884 -4.123034 -4.7698746 0.073310204 -2.6610568
-2.7439184 -3.7133832 3.656698 -3.216388 -2.7354357 -4.9895463 14.334547 -1.2933655
-4.801002 -5.204841 -5.668437 -6.1261673 -4.0383725 -5.17964 -5.9136825 -5.515027
13.799837 -1.9034059 -5.4914613 -5.2479024 5.1212425 0.93093455 -4.041302 -4.403585
-0.7020852 -2.6117275 -3.6950827 -3.2591677 1.8603393 -3.1082149 -0.52106404 -2.3916857
-2.6072907 -4.354144 -2.0921493 -3.7145252 4.692803 -2.6674514 14.842093 0.08543008
-4.0634828 -0.63648534 -3.0678682 14.588664 -2.6555448 -3.477951 -4.898382 -3.729558
-3.1204317 -3.2973495 -5.273021 -1.9846492 -5.5223656 -3.1707256 -4.4355383 -1.9582225
-1.8934296 -1.8146229 -2.7468307 -2.6825933 -2.210324 -2.7924757 -1.7135041 -3.6905634
17.729214 1.7620926 3.9356146 1.2139982 -1.490304 -2.1856065 -0.16069107 0.7905086
-1.6679952 -1.9766566 -5.1620197 -3.6196625 -2.294484 15.686882 -4.011009 -2.7879958
-2.461482 -1.0674089 -3.5078015 -3.051801 -2.1697598 1.4889368 -3.7941518 -2.3158014
-2.382384 -2.8201427 -0.5797851 -4.49819 -0.13411233 -3.513789 -2.7047873 -1.2475722
-1.7602483 -2.499356 0.4685236 -2.4670005 -1.0988376 -0.90009433 15.989258 -0.77677625
-2.4498038 -3.165675 -2.0996845 -4.8597064 -3.3543544 -2.5314422 -0.945591 -2.7849774
-1.9493073 -2.616345 -1.833531 -1.6974283 -1.2399708 -1.6165559 11.934285 -0.69948006
-0.2709407 -0.7664951 17.117107 4.626873 -1.3846765 -2.152487 6.1787515 1.9591684
-1.5010749 -4.819259 -1.946814 -1.041067 -2.6141477 -1.8429663 -1.0450028 -1.6612368
-2.380666 -2.0378098 -2.319207 -4.6598415 -4.5095634 -4.008434 -3.3920143 -4.260951
-3.1862934 -0.23146138 -1.6071532 13.655478 -2.7755396 -3.6550114 -2.5289319 -2.8534987
00000000: 1cba 6fc0 d329 9fc0 130f 9fc0 2c72 89c0
00000010: 48e4 6ac0 18ad 68c0 e5f1 8ac0 dfb5 6bc0
00000020: e5ee 3ac0 7e3b ccc0 b5f5 3bc0 2023 afc0
00000030: 7530 5841 0f55 0fc0 d6e4 3ec0 b700 6fc0
00000040: ee83 d8bf 142c 43bf d573 07be 88a5 d9bf
00000050: 91ea 15c0 92d9 23c0 9854 5dc0 0624 48c0
00000060: f15d 9041 f49f 4040 8688 7540 9748 1440
00000070: baef 763d 7d3d 20c0 68a5 b4bf 67ef c2bd
00000080: 9a16 c3be 3da9 96bf 1e79 53c0 5b05 2dc0
00000090: 6881 803f 5dc6 7f41 a0d5 40c0 cafa 1340
000000a0: eec3 33c0 0d90 5ac0 4805 36c0 cb2f 5cc0
000000b0: ec34 a1c0 c58f a7bf 2591 81c0 90a0 06c0
000000c0: b107 13c0 f3f9 163c 5ac3 06c0 a996 dcbf
000000d0: 18aa 2ac0 a0eb 1340 44b7 27c0 8ab4 30c0
000000e0: e57d c6bf 8fd7 8741 4129 13c0 378a b2bf
000000f0: 0d60 09c0 d367 8f3f 3718 51c0 eb56 97bf
00000100: 1919 a7c0 cfcc 7bc0 c18b bfc0 b334 c0c0
00000110: 2e82 c3c0 aef5 b0c0 835e d8c0 c0d1 c1c0
00000120: 8d33 40c0 bbc6 a6c0 ff9f 4e41 dda1 8bc0
00000130: 8bf5 96c0 59a6 a3c0 9234 77c0 66f7 95c0
00000140: d424 b6bf 7d72 cdbf d0a3 23be ac73 66c0
00000150: f6a3 e93e 5604 c93e 7478 9240 80c1 f9bd
00000160: 56c4 f0bf efc8 36bf b903 41c0 2546 54bf
00000170: 3dc0 7241 a6be 25c0 0fb3 7e40 1a9a b5be
00000180: a636 0cc0 aaff 60c0 60eb 4bbf 319d 98c0
00000190: e5ef 83c0 d0a2 98c0 a923 963d c14e 2ac0
000001a0: 5c9c 2fc0 12a8 6dc0 5707 6a40 4dd9 4dc0
000001b0: 6111 2fc0 5daa 9fc0 4e5a 6541 008d a5bf
000001c0: cfa1 99c0 0f8e a6c0 d663 b5c0 9009 c4c0
000001d0: 593a 81c0 9cbf a5c0 e33c bdc0 1a7b b0c0
000001e0: 22cc 5c41 cea2 f3bf 0dba afc0 d1ee a7c0
000001f0: 38e1 a340 ba51 6e3f 5952 81c0 2bea 8cc0
00000200: dbbb 33bf 8b26 27c0 3c7c 6cc0 3496 50c0
00000210: 991f ee3f feec 46c0 7464 05bf 6111 19c0
00000220: dadd 26c0 2655 8bc0 c6e5 05c0 c8ba 6dc0
00000230: 712b 9640 86b7 2ac0 3779 6d41 f7f5 ae3d
00000240: 0d08 82c0 b4f0 22bf f457 44c0 2b6b 6941
00000250: 72f4 29c0 c096 5ec0 8cbf 9cc0 14b1 6ec0
00000260: 27b5 47c0 c607 53c0 97bc a8c0 fc08 febf
00000270: 38b7 b0c0 2bed 4ac0 eeef 8dc0 09a7 fabf
00000280: e75b f2bf 9045 e8bf 13cc 2fc0 9caf 2bc0
00000290: f375 0dc0 ecb7 32c0 1a54 dbbf 3132 6cc0
000002a0: 6ed5 8d41 408c e13f 1ce1 7b40 4b64 9b3f
000002b0: 48c2 bebf fae0 0bc0 338c 24be c65e 4a3f
000002c0: de80 d5bf 1503 fdbf 442f a5c0 8da8 67c0
000002d0: d3d8 12c0 78fd 7a41 305a 80c0 866e 32c0
000002e0: ec88 1dc0 dba0 88bf d27f 60c0 b550 43c0
000002f0: 58dd 0ac0 7b95 be3f 62d3 72c0 1736 14c0
00000300: fb78 18c0 387d 34c0 cc6c 14bf 2cf1 8fc0
00000310: be54 09be ebe1 60c0 3c1b 2dc0 72b0 9fbf
00000320: d14f e1bf 73f5 1fc0 53e2 ef3e 56e3 1dc0
00000330: b6a6 8cbf 956c 66bf 00d4 7f41 cfda 46bf
00000340: 96c9 1cc0 6b9a 4ac0 3b61 06c0 b782 9bc0
00000350: bead 56c0 2603 22c0 4012 72bf 123d 32c0
00000360: e782 f9bf 3272 27c0 25b1 eabf 5545 d9bf
00000370: 5db7 9ebf 4eeb cebf d5f2 3e41 2011 33bf
00000380: bdb8 8abe 0639 44bf d6ef 8841 580f 9440
00000390: 143d b1bf 59c2 09c0 55b8 c540 08c6 fa3f
000003a0: 3923 c0bf 5f37 9ac0 3331 f9bf af41 85bf
000003b0: 324e 27c0 52e6 ebbf a7c2 85bf 68a3 d4bf
000003c0: d55c 18c0 7a6b 02c0 e36d 14c0 6c1d 95c0
000003d0: 584e 90c0 1745 80c0 c316 59c0 b659 88c0
000003e0: 3bec 4bc0 3604 6dbe 32b7 cdbf d67c 5a41
000003f0: 71a2 31c0 b5eb 69c0 05da 21c0 b99f 36c0
